<?xml version="1.0"?>
<net name="main_graph" version="11">
	<layers>
		<layer id="0" name="images" type="Parameter" version="opset1">
			<data shape="1,3,640,640" element_type="f16" />
			<output>
				<port id="0" precision="FP16" names="images">
					<dim>1</dim>
					<dim>3</dim>
					<dim>640</dim>
					<dim>640</dim>
				</port>
			</output>
		</layer>
		<layer id="1" name="/model.23/Constant_12_output_0" type="Const" version="opset1">
			<data element_type="f16" shape="1, 2, 8400" offset="0" size="33600" />
			<output>
				<port id="0" precision="FP16" names="/model.23/Constant_12_output_0">
					<dim>1</dim>
					<dim>2</dim>
					<dim>8400</dim>
				</port>
			</output>
		</layer>
		<layer id="2" name="images/fq_output_0/input_low" type="Const" version="opset1">
			<data element_type="f16" shape="" offset="33600" size="2" />
			<output>
				<port id="0" precision="FP16" />
			</output>
		</layer>
		<layer id="3" name="images/fq_output_0/input_high" type="Const" version="opset1">
			<data element_type="f16" shape="" offset="33602" size="2" />
			<output>
				<port id="0" precision="FP16" />
			</output>
		</layer>
		<layer id="4" name="images/fq_output_0/output_low" type="Const" version="opset1">
			<data element_type="f16" shape="" offset="33600" size="2" />
			<output>
				<port id="0" precision="FP16" />
			</output>
		</layer>
		<layer id="5" name="images/fq_output_0/output_high" type="Const" version="opset1">
			<data element_type="f16" shape="" offset="33602" size="2" />
			<output>
				<port id="0" precision="FP16" />
			</output>
		</layer>
		<layer id="6" name="images/fq_output_0" type="FakeQuantize" version="opset1">
			<data levels="256" auto_broadcast="numpy" />
			<input>
				<port id="0" precision="FP16">
					<dim>1</dim>
					<dim>3</dim>
					<dim>640</dim>
					<dim>640</dim>
				</port>
				<port id="1" precision="FP16" />
				<port id="2" precision="FP16" />
				<port id="3" precision="FP16" />
				<port id="4" precision="FP16" />
			</input>
			<output>
				<port id="5" precision="FP16">
					<dim>1</dim>
					<dim>3</dim>
					<dim>640</dim>
					<dim>640</dim>
				</port>
			</output>
		</layer>
		<layer id="7" name="Constant_1613507" type="Const" version="opset1">
			<data element_type="i8" shape="32, 3, 3, 3" offset="33604" size="864" />
			<output>
				<port id="0" precision="I8">
					<dim>32</dim>
					<dim>3</dim>
					<dim>3</dim>
					<dim>3</dim>
				</port>
			</output>
		</layer>
		<layer id="8" name="Convert_1613508" type="Convert" version="opset1">
			<data destination_type="f16" />
			<input>
				<port id="0" precision="I8">
					<dim>32</dim>
					<dim>3</dim>
					<dim>3</dim>
					<dim>3</dim>
				</port>
			</input>
			<output>
				<port id="1" precision="FP16">
					<dim>32</dim>
					<dim>3</dim>
					<dim>3</dim>
					<dim>3</dim>
				</port>
			</output>
		</layer>
		<layer id="9" name="Constant_1613509" type="Const" version="opset1">
			<data element_type="f16" shape="32, 1, 1, 1" offset="34468" size="64" />
			<output>
				<port id="0" precision="FP16">
					<dim>32</dim>
					<dim>1</dim>
					<dim>1</dim>
					<dim>1</dim>
				</port>
			</output>
		</layer>
		<layer id="10" name="/model.0/conv/Conv/WithoutBiases/fq_weights_1" type="Multiply" version="opset1">
			<data auto_broadcast="numpy" />
			<input>
				<port id="0" precision="FP16">
					<dim>32</dim>
					<dim>3</dim>
					<dim>3</dim>
					<dim>3</dim>
				</port>
				<port id="1" precision="FP16">
					<dim>32</dim>
					<dim>1</dim>
					<dim>1</dim>
					<dim>1</dim>
				</port>
			</input>
			<output>
				<port id="2" precision="FP16">
					<dim>32</dim>
					<dim>3</dim>
					<dim>3</dim>
					<dim>3</dim>
				</port>
			</output>
		</layer>
		<layer id="11" name="/model.0/conv/Conv/WithoutBiases" type="Convolution" version="opset1">
			<data strides="2, 2" dilations="1, 1" pads_begin="1, 1" pads_end="1, 1" auto_pad="explicit" />
			<input>
				<port id="0" precision="FP16">
					<dim>1</dim>
					<dim>3</dim>
					<dim>640</dim>
					<dim>640</dim>
				</port>
				<port id="1" precision="FP16">
					<dim>32</dim>
					<dim>3</dim>
					<dim>3</dim>
					<dim>3</dim>
				</port>
			</input>
			<output>
				<port id="2" precision="FP16">
					<dim>1</dim>
					<dim>32</dim>
					<dim>320</dim>
					<dim>320</dim>
				</port>
			</output>
		</layer>
		<layer id="12" name="Reshape_1056116" type="Const" version="opset1">
			<data element_type="f16" shape="1, 32, 1, 1" offset="34532" size="64" />
			<output>
				<port id="0" precision="FP16">
					<dim>1</dim>
					<dim>32</dim>
					<dim>1</dim>
					<dim>1</dim>
				</port>
			</output>
		</layer>
		<layer id="13" name="/model.0/conv/Conv" type="Add" version="opset1">
			<data auto_broadcast="numpy" />
			<input>
				<port id="0" precision="FP16">
					<dim>1</dim>
					<dim>32</dim>
					<dim>320</dim>
					<dim>320</dim>
				</port>
				<port id="1" precision="FP16">
					<dim>1</dim>
					<dim>32</dim>
					<dim>1</dim>
					<dim>1</dim>
				</port>
			</input>
			<output>
				<port id="2" precision="FP16" names="/model.0/conv/Conv_output_0">
					<dim>1</dim>
					<dim>32</dim>
					<dim>320</dim>
					<dim>320</dim>
				</port>
			</output>
		</layer>
		<layer id="14" name="/model.0/act/Mul" type="Swish" version="opset4">
			<input>
				<port id="0" precision="FP16">
					<dim>1</dim>
					<dim>32</dim>
					<dim>320</dim>
					<dim>320</dim>
				</port>
			</input>
			<output>
				<port id="1" precision="FP16" names="/model.0/act/Mul_output_0">
					<dim>1</dim>
					<dim>32</dim>
					<dim>320</dim>
					<dim>320</dim>
				</port>
			</output>
		</layer>
		<layer id="15" name="/model.0/act/Mul/fq_output_0/input_low" type="Const" version="opset1">
			<data element_type="f16" shape="" offset="34596" size="2" />
			<output>
				<port id="0" precision="FP16" />
			</output>
		</layer>
		<layer id="16" name="/model.0/act/Mul/fq_output_0/input_high" type="Const" version="opset1">
			<data element_type="f16" shape="" offset="34598" size="2" />
			<output>
				<port id="0" precision="FP16" />
			</output>
		</layer>
		<layer id="17" name="/model.0/act/Mul/fq_output_0/output_low" type="Const" version="opset1">
			<data element_type="f16" shape="" offset="34596" size="2" />
			<output>
				<port id="0" precision="FP16" />
			</output>
		</layer>
		<layer id="18" name="/model.0/act/Mul/fq_output_0/output_high" type="Const" version="opset1">
			<data element_type="f16" shape="" offset="34598" size="2" />
			<output>
				<port id="0" precision="FP16" />
			</output>
		</layer>
		<layer id="19" name="/model.0/act/Mul/fq_output_0" type="FakeQuantize" version="opset1">
			<data levels="256" auto_broadcast="numpy" />
			<input>
				<port id="0" precision="FP16">
					<dim>1</dim>
					<dim>32</dim>
					<dim>320</dim>
					<dim>320</dim>
				</port>
				<port id="1" precision="FP16" />
				<port id="2" precision="FP16" />
				<port id="3" precision="FP16" />
				<port id="4" precision="FP16" />
			</input>
			<output>
				<port id="5" precision="FP16">
					<dim>1</dim>
					<dim>32</dim>
					<dim>320</dim>
					<dim>320</dim>
				</port>
			</output>
		</layer>
		<layer id="20" name="Constant_1613511" type="Const" version="opset1">
			<data element_type="i8" shape="64, 32, 3, 3" offset="34600" size="18432" />
			<output>
				<port id="0" precision="I8">
					<dim>64</dim>
					<dim>32</dim>
					<dim>3</dim>
					<dim>3</dim>
				</port>
			</output>
		</layer>
		<layer id="21" name="Convert_1613512" type="Convert" version="opset1">
			<data destination_type="f16" />
			<input>
				<port id="0" precision="I8">
					<dim>64</dim>
					<dim>32</dim>
					<dim>3</dim>
					<dim>3</dim>
				</port>
			</input>
			<output>
				<port id="1" precision="FP16">
					<dim>64</dim>
					<dim>32</dim>
					<dim>3</dim>
					<dim>3</dim>
				</port>
			</output>
		</layer>
		<layer id="22" name="Constant_1613513" type="Const" version="opset1">
			<data element_type="f16" shape="64, 1, 1, 1" offset="53032" size="128" />
			<output>
				<port id="0" precision="FP16">
					<dim>64</dim>
					<dim>1</dim>
					<dim>1</dim>
					<dim>1</dim>
				</port>
			</output>
		</layer>
		<layer id="23" name="/model.1/conv/Conv/WithoutBiases/fq_weights_1" type="Multiply" version="opset1">
			<data auto_broadcast="numpy" />
			<input>
				<port id="0" precision="FP16">
					<dim>64</dim>
					<dim>32</dim>
					<dim>3</dim>
					<dim>3</dim>
				</port>
				<port id="1" precision="FP16">
					<dim>64</dim>
					<dim>1</dim>
					<dim>1</dim>
					<dim>1</dim>
				</port>
			</input>
			<output>
				<port id="2" precision="FP16">
					<dim>64</dim>
					<dim>32</dim>
					<dim>3</dim>
					<dim>3</dim>
				</port>
			</output>
		</layer>
		<layer id="24" name="/model.1/conv/Conv/WithoutBiases" type="Convolution" version="opset1">
			<data strides="2, 2" dilations="1, 1" pads_begin="1, 1" pads_end="1, 1" auto_pad="explicit" />
			<input>
				<port id="0" precision="FP16">
					<dim>1</dim>
					<dim>32</dim>
					<dim>320</dim>
					<dim>320</dim>
				</port>
				<port id="1" precision="FP16">
					<dim>64</dim>
					<dim>32</dim>
					<dim>3</dim>
					<dim>3</dim>
				</port>
			</input>
			<output>
				<port id="2" precision="FP16">
					<dim>1</dim>
					<dim>64</dim>
					<dim>160</dim>
					<dim>160</dim>
				</port>
			</output>
		</layer>
		<layer id="25" name="Reshape_1056131" type="Const" version="opset1">
			<data element_type="f16" shape="1, 64, 1, 1" offset="53160" size="128" />
			<output>
				<port id="0" precision="FP16">
					<dim>1</dim>
					<dim>64</dim>
					<dim>1</dim>
					<dim>1</dim>
				</port>
			</output>
		</layer>
		<layer id="26" name="/model.1/conv/Conv" type="Add" version="opset1">
			<data auto_broadcast="numpy" />
			<input>
				<port id="0" precision="FP16">
					<dim>1</dim>
					<dim>64</dim>
					<dim>160</dim>
					<dim>160</dim>
				</port>
				<port id="1" precision="FP16">
					<dim>1</dim>
					<dim>64</dim>
					<dim>1</dim>
					<dim>1</dim>
				</port>
			</input>
			<output>
				<port id="2" precision="FP16" names="/model.1/conv/Conv_output_0">
					<dim>1</dim>
					<dim>64</dim>
					<dim>160</dim>
					<dim>160</dim>
				</port>
			</output>
		</layer>
		<layer id="27" name="/model.1/act/Mul" type="Swish" version="opset4">
			<input>
				<port id="0" precision="FP16">
					<dim>1</dim>
					<dim>64</dim>
					<dim>160</dim>
					<dim>160</dim>
				</port>
			</input>
			<output>
				<port id="1" precision="FP16" names="/model.1/act/Mul_output_0">
					<dim>1</dim>
					<dim>64</dim>
					<dim>160</dim>
					<dim>160</dim>
				</port>
			</output>
		</layer>
		<layer id="28" name="/model.1/act/Mul/fq_output_0/input_low" type="Const" version="opset1">
			<data element_type="f16" shape="" offset="53288" size="2" />
			<output>
				<port id="0" precision="FP16" />
			</output>
		</layer>
		<layer id="29" name="/model.1/act/Mul/fq_output_0/input_high" type="Const" version="opset1">
			<data element_type="f16" shape="" offset="53290" size="2" />
			<output>
				<port id="0" precision="FP16" />
			</output>
		</layer>
		<layer id="30" name="/model.1/act/Mul/fq_output_0/output_low" type="Const" version="opset1">
			<data element_type="f16" shape="" offset="53288" size="2" />
			<output>
				<port id="0" precision="FP16" />
			</output>
		</layer>
		<layer id="31" name="/model.1/act/Mul/fq_output_0/output_high" type="Const" version="opset1">
			<data element_type="f16" shape="" offset="53290" size="2" />
			<output>
				<port id="0" precision="FP16" />
			</output>
		</layer>
		<layer id="32" name="/model.1/act/Mul/fq_output_0" type="FakeQuantize" version="opset1">
			<data levels="256" auto_broadcast="numpy" />
			<input>
				<port id="0" precision="FP16">
					<dim>1</dim>
					<dim>64</dim>
					<dim>160</dim>
					<dim>160</dim>
				</port>
				<port id="1" precision="FP16" />
				<port id="2" precision="FP16" />
				<port id="3" precision="FP16" />
				<port id="4" precision="FP16" />
			</input>
			<output>
				<port id="5" precision="FP16">
					<dim>1</dim>
					<dim>64</dim>
					<dim>160</dim>
					<dim>160</dim>
				</port>
			</output>
		</layer>
		<layer id="33" name="Constant_1613515" type="Const" version="opset1">
			<data element_type="i8" shape="64, 64, 1, 1" offset="53292" size="4096" />
			<output>
				<port id="0" precision="I8">
					<dim>64</dim>
					<dim>64</dim>
					<dim>1</dim>
					<dim>1</dim>
				</port>
			</output>
		</layer>
		<layer id="34" name="Convert_1613516" type="Convert" version="opset1">
			<data destination_type="f16" />
			<input>
				<port id="0" precision="I8">
					<dim>64</dim>
					<dim>64</dim>
					<dim>1</dim>
					<dim>1</dim>
				</port>
			</input>
			<output>
				<port id="1" precision="FP16">
					<dim>64</dim>
					<dim>64</dim>
					<dim>1</dim>
					<dim>1</dim>
				</port>
			</output>
		</layer>
		<layer id="35" name="Constant_1613517" type="Const" version="opset1">
			<data element_type="f16" shape="64, 1, 1, 1" offset="57388" size="128" />
			<output>
				<port id="0" precision="FP16">
					<dim>64</dim>
					<dim>1</dim>
					<dim>1</dim>
					<dim>1</dim>
				</port>
			</output>
		</layer>
		<layer id="36" name="/model.2/cv1/conv/Conv/WithoutBiases/fq_weights_1" type="Multiply" version="opset1">
			<data auto_broadcast="numpy" />
			<input>
				<port id="0" precision="FP16">
					<dim>64</dim>
					<dim>64</dim>
					<dim>1</dim>
					<dim>1</dim>
				</port>
				<port id="1" precision="FP16">
					<dim>64</dim>
					<dim>1</dim>
					<dim>1</dim>
					<dim>1</dim>
				</port>
			</input>
			<output>
				<port id="2" precision="FP16">
					<dim>64</dim>
					<dim>64</dim>
					<dim>1</dim>
					<dim>1</dim>
				</port>
			</output>
		</layer>
		<layer id="37" name="/model.2/cv1/conv/Conv/WithoutBiases" type="Convolution" version="opset1">
			<data strides="1, 1" dilations="1, 1" pads_begin="0, 0" pads_end="0, 0" auto_pad="explicit" />
			<input>
				<port id="0" precision="FP16">
					<dim>1</dim>
					<dim>64</dim>
					<dim>160</dim>
					<dim>160</dim>
				</port>
				<port id="1" precision="FP16">
					<dim>64</dim>
					<dim>64</dim>
					<dim>1</dim>
					<dim>1</dim>
				</port>
			</input>
			<output>
				<port id="2" precision="FP16">
					<dim>1</dim>
					<dim>64</dim>
					<dim>160</dim>
					<dim>160</dim>
				</port>
			</output>
		</layer>
		<layer id="38" name="Reshape_1056146" type="Const" version="opset1">
			<data element_type="f16" shape="1, 64, 1, 1" offset="57516" size="128" />
			<output>
				<port id="0" precision="FP16">
					<dim>1</dim>
					<dim>64</dim>
					<dim>1</dim>
					<dim>1</dim>
				</port>
			</output>
		</layer>
		<layer id="39" name="/model.2/cv1/conv/Conv" type="Add" version="opset1">
			<data auto_broadcast="numpy" />
			<input>
				<port id="0" precision="FP16">
					<dim>1</dim>
					<dim>64</dim>
					<dim>160</dim>
					<dim>160</dim>
				</port>
				<port id="1" precision="FP16">
					<dim>1</dim>
					<dim>64</dim>
					<dim>1</dim>
					<dim>1</dim>
				</port>
			</input>
			<output>
				<port id="2" precision="FP16" names="/model.2/cv1/conv/Conv_output_0">
					<dim>1</dim>
					<dim>64</dim>
					<dim>160</dim>
					<dim>160</dim>
				</port>
			</output>
		</layer>
		<layer id="40" name="/model.2/cv1/act/Mul" type="Swish" version="opset4">
			<input>
				<port id="0" precision="FP16">
					<dim>1</dim>
					<dim>64</dim>
					<dim>160</dim>
					<dim>160</dim>
				</port>
			</input>
			<output>
				<port id="1" precision="FP16" names="/model.2/cv1/act/Mul_output_0">
					<dim>1</dim>
					<dim>64</dim>
					<dim>160</dim>
					<dim>160</dim>
				</port>
			</output>
		</layer>
		<layer id="41" name="/model.2/cv1/act/Mul/fq_output_0/input_low" type="Const" version="opset1">
			<data element_type="f16" shape="" offset="57644" size="2" />
			<output>
				<port id="0" precision="FP16" />
			</output>
		</layer>
		<layer id="42" name="/model.2/cv1/act/Mul/fq_output_0/input_high" type="Const" version="opset1">
			<data element_type="f16" shape="" offset="57646" size="2" />
			<output>
				<port id="0" precision="FP16" />
			</output>
		</layer>
		<layer id="43" name="/model.2/cv1/act/Mul/fq_output_0/output_low" type="Const" version="opset1">
			<data element_type="f16" shape="" offset="57644" size="2" />
			<output>
				<port id="0" precision="FP16" />
			</output>
		</layer>
		<layer id="44" name="/model.2/cv1/act/Mul/fq_output_0/output_high" type="Const" version="opset1">
			<data element_type="f16" shape="" offset="57646" size="2" />
			<output>
				<port id="0" precision="FP16" />
			</output>
		</layer>
		<layer id="45" name="/model.2/cv1/act/Mul/fq_output_0" type="FakeQuantize" version="opset1">
			<data levels="256" auto_broadcast="numpy" />
			<input>
				<port id="0" precision="FP16">
					<dim>1</dim>
					<dim>64</dim>
					<dim>160</dim>
					<dim>160</dim>
				</port>
				<port id="1" precision="FP16" />
				<port id="2" precision="FP16" />
				<port id="3" precision="FP16" />
				<port id="4" precision="FP16" />
			</input>
			<output>
				<port id="5" precision="FP16">
					<dim>1</dim>
					<dim>64</dim>
					<dim>160</dim>
					<dim>160</dim>
				</port>
			</output>
		</layer>
		<layer id="46" name="Constant_1056150" type="Const" version="opset1">
			<data element_type="i64" shape="" offset="57648" size="8" />
			<output>
				<port id="0" precision="I64" />
			</output>
		</layer>
		<layer id="47" name="onnx::Split_215" type="Const" version="opset1">
			<data element_type="i64" shape="2" offset="57656" size="16" />
			<output>
				<port id="0" precision="I64" names="onnx::Split_215">
					<dim>2</dim>
				</port>
			</output>
		</layer>
		<layer id="48" name="/model.2/Split" type="VariadicSplit" version="opset1">
			<input>
				<port id="0" precision="FP16">
					<dim>1</dim>
					<dim>64</dim>
					<dim>160</dim>
					<dim>160</dim>
				</port>
				<port id="1" precision="I64" />
				<port id="2" precision="I64">
					<dim>2</dim>
				</port>
			</input>
			<output>
				<port id="3" precision="FP16" names="/model.2/Split_output_0">
					<dim>1</dim>
					<dim>32</dim>
					<dim>160</dim>
					<dim>160</dim>
				</port>
				<port id="4" precision="FP16" names="/model.2/Split_output_1">
					<dim>1</dim>
					<dim>32</dim>
					<dim>160</dim>
					<dim>160</dim>
				</port>
			</output>
		</layer>
		<layer id="49" name="Constant_1613519" type="Const" version="opset1">
			<data element_type="i8" shape="16, 32, 3, 3" offset="57672" size="4608" />
			<output>
				<port id="0" precision="I8">
					<dim>16</dim>
					<dim>32</dim>
					<dim>3</dim>
					<dim>3</dim>
				</port>
			</output>
		</layer>
		<layer id="50" name="Convert_1613520" type="Convert" version="opset1">
			<data destination_type="f16" />
			<input>
				<port id="0" precision="I8">
					<dim>16</dim>
					<dim>32</dim>
					<dim>3</dim>
					<dim>3</dim>
				</port>
			</input>
			<output>
				<port id="1" precision="FP16">
					<dim>16</dim>
					<dim>32</dim>
					<dim>3</dim>
					<dim>3</dim>
				</port>
			</output>
		</layer>
		<layer id="51" name="Constant_1613521" type="Const" version="opset1">
			<data element_type="f16" shape="16, 1, 1, 1" offset="62280" size="32" />
			<output>
				<port id="0" precision="FP16">
					<dim>16</dim>
					<dim>1</dim>
					<dim>1</dim>
					<dim>1</dim>
				</port>
			</output>
		</layer>
		<layer id="52" name="/model.2/m.0/cv1/conv/Conv/WithoutBiases/fq_weights_1" type="Multiply" version="opset1">
			<data auto_broadcast="numpy" />
			<input>
				<port id="0" precision="FP16">
					<dim>16</dim>
					<dim>32</dim>
					<dim>3</dim>
					<dim>3</dim>
				</port>
				<port id="1" precision="FP16">
					<dim>16</dim>
					<dim>1</dim>
					<dim>1</dim>
					<dim>1</dim>
				</port>
			</input>
			<output>
				<port id="2" precision="FP16">
					<dim>16</dim>
					<dim>32</dim>
					<dim>3</dim>
					<dim>3</dim>
				</port>
			</output>
		</layer>
		<layer id="53" name="/model.2/m.0/cv1/conv/Conv/WithoutBiases" type="Convolution" version="opset1">
			<data strides="1, 1" dilations="1, 1" pads_begin="1, 1" pads_end="1, 1" auto_pad="explicit" />
			<input>
				<port id="0" precision="FP16">
					<dim>1</dim>
					<dim>32</dim>
					<dim>160</dim>
					<dim>160</dim>
				</port>
				<port id="1" precision="FP16">
					<dim>16</dim>
					<dim>32</dim>
					<dim>3</dim>
					<dim>3</dim>
				</port>
			</input>
			<output>
				<port id="2" precision="FP16">
					<dim>1</dim>
					<dim>16</dim>
					<dim>160</dim>
					<dim>160</dim>
				</port>
			</output>
		</layer>
		<layer id="54" name="Reshape_1056163" type="Const" version="opset1">
			<data element_type="f16" shape="1, 16, 1, 1" offset="62312" size="32" />
			<output>
				<port id="0" precision="FP16">
					<dim>1</dim>
					<dim>16</dim>
					<dim>1</dim>
					<dim>1</dim>
				</port>
			</output>
		</layer>
		<layer id="55" name="/model.2/m.0/cv1/conv/Conv" type="Add" version="opset1">
			<data auto_broadcast="numpy" />
			<input>
				<port id="0" precision="FP16">
					<dim>1</dim>
					<dim>16</dim>
					<dim>160</dim>
					<dim>160</dim>
				</port>
				<port id="1" precision="FP16">
					<dim>1</dim>
					<dim>16</dim>
					<dim>1</dim>
					<dim>1</dim>
				</port>
			</input>
			<output>
				<port id="2" precision="FP16" names="/model.2/m.0/cv1/conv/Conv_output_0">
					<dim>1</dim>
					<dim>16</dim>
					<dim>160</dim>
					<dim>160</dim>
				</port>
			</output>
		</layer>
		<layer id="56" name="/model.2/m.0/cv1/act/Mul" type="Swish" version="opset4">
			<input>
				<port id="0" precision="FP16">
					<dim>1</dim>
					<dim>16</dim>
					<dim>160</dim>
					<dim>160</dim>
				</port>
			</input>
			<output>
				<port id="1" precision="FP16" names="/model.2/m.0/cv1/act/Mul_output_0">
					<dim>1</dim>
					<dim>16</dim>
					<dim>160</dim>
					<dim>160</dim>
				</port>
			</output>
		</layer>
		<layer id="57" name="/model.2/m.0/cv1/act/Mul/fq_output_0/input_low" type="Const" version="opset1">
			<data element_type="f16" shape="" offset="62344" size="2" />
			<output>
				<port id="0" precision="FP16" />
			</output>
		</layer>
		<layer id="58" name="/model.2/m.0/cv1/act/Mul/fq_output_0/input_high" type="Const" version="opset1">
			<data element_type="f16" shape="" offset="62346" size="2" />
			<output>
				<port id="0" precision="FP16" />
			</output>
		</layer>
		<layer id="59" name="/model.2/m.0/cv1/act/Mul/fq_output_0/output_low" type="Const" version="opset1">
			<data element_type="f16" shape="" offset="62344" size="2" />
			<output>
				<port id="0" precision="FP16" />
			</output>
		</layer>
		<layer id="60" name="/model.2/m.0/cv1/act/Mul/fq_output_0/output_high" type="Const" version="opset1">
			<data element_type="f16" shape="" offset="62346" size="2" />
			<output>
				<port id="0" precision="FP16" />
			</output>
		</layer>
		<layer id="61" name="/model.2/m.0/cv1/act/Mul/fq_output_0" type="FakeQuantize" version="opset1">
			<data levels="256" auto_broadcast="numpy" />
			<input>
				<port id="0" precision="FP16">
					<dim>1</dim>
					<dim>16</dim>
					<dim>160</dim>
					<dim>160</dim>
				</port>
				<port id="1" precision="FP16" />
				<port id="2" precision="FP16" />
				<port id="3" precision="FP16" />
				<port id="4" precision="FP16" />
			</input>
			<output>
				<port id="5" precision="FP16">
					<dim>1</dim>
					<dim>16</dim>
					<dim>160</dim>
					<dim>160</dim>
				</port>
			</output>
		</layer>
		<layer id="62" name="Constant_1613523" type="Const" version="opset1">
			<data element_type="i8" shape="32, 16, 3, 3" offset="62348" size="4608" />
			<output>
				<port id="0" precision="I8">
					<dim>32</dim>
					<dim>16</dim>
					<dim>3</dim>
					<dim>3</dim>
				</port>
			</output>
		</layer>
		<layer id="63" name="Convert_1613524" type="Convert" version="opset1">
			<data destination_type="f16" />
			<input>
				<port id="0" precision="I8">
					<dim>32</dim>
					<dim>16</dim>
					<dim>3</dim>
					<dim>3</dim>
				</port>
			</input>
			<output>
				<port id="1" precision="FP16">
					<dim>32</dim>
					<dim>16</dim>
					<dim>3</dim>
					<dim>3</dim>
				</port>
			</output>
		</layer>
		<layer id="64" name="Constant_1613525" type="Const" version="opset1">
			<data element_type="f16" shape="32, 1, 1, 1" offset="66956" size="64" />
			<output>
				<port id="0" precision="FP16">
					<dim>32</dim>
					<dim>1</dim>
					<dim>1</dim>
					<dim>1</dim>
				</port>
			</output>
		</layer>
		<layer id="65" name="/model.2/m.0/cv2/conv/Conv/WithoutBiases/fq_weights_1" type="Multiply" version="opset1">
			<data auto_broadcast="numpy" />
			<input>
				<port id="0" precision="FP16">
					<dim>32</dim>
					<dim>16</dim>
					<dim>3</dim>
					<dim>3</dim>
				</port>
				<port id="1" precision="FP16">
					<dim>32</dim>
					<dim>1</dim>
					<dim>1</dim>
					<dim>1</dim>
				</port>
			</input>
			<output>
				<port id="2" precision="FP16">
					<dim>32</dim>
					<dim>16</dim>
					<dim>3</dim>
					<dim>3</dim>
				</port>
			</output>
		</layer>
		<layer id="66" name="/model.2/m.0/cv2/conv/Conv/WithoutBiases" type="Convolution" version="opset1">
			<data strides="1, 1" dilations="1, 1" pads_begin="1, 1" pads_end="1, 1" auto_pad="explicit" />
			<input>
				<port id="0" precision="FP16">
					<dim>1</dim>
					<dim>16</dim>
					<dim>160</dim>
					<dim>160</dim>
				</port>
				<port id="1" precision="FP16">
					<dim>32</dim>
					<dim>16</dim>
					<dim>3</dim>
					<dim>3</dim>
				</port>
			</input>
			<output>
				<port id="2" precision="FP16">
					<dim>1</dim>
					<dim>32</dim>
					<dim>160</dim>
					<dim>160</dim>
				</port>
			</output>
		</layer>
		<layer id="67" name="Reshape_1056178" type="Const" version="opset1">
			<data element_type="f16" shape="1, 32, 1, 1" offset="67020" size="64" />
			<output>
				<port id="0" precision="FP16">
					<dim>1</dim>
					<dim>32</dim>
					<dim>1</dim>
					<dim>1</dim>
				</port>
			</output>
		</layer>
		<layer id="68" name="/model.2/m.0/cv2/conv/Conv" type="Add" version="opset1">
			<data auto_broadcast="numpy" />
			<input>
				<port id="0" precision="FP16">
					<dim>1</dim>
					<dim>32</dim>
					<dim>160</dim>
					<dim>160</dim>
				</port>
				<port id="1" precision="FP16">
					<dim>1</dim>
					<dim>32</dim>
					<dim>1</dim>
					<dim>1</dim>
				</port>
			</input>
			<output>
				<port id="2" precision="FP16" names="/model.2/m.0/cv2/conv/Conv_output_0">
					<dim>1</dim>
					<dim>32</dim>
					<dim>160</dim>
					<dim>160</dim>
				</port>
			</output>
		</layer>
		<layer id="69" name="/model.2/m.0/cv2/act/Mul" type="Swish" version="opset4">
			<input>
				<port id="0" precision="FP16">
					<dim>1</dim>
					<dim>32</dim>
					<dim>160</dim>
					<dim>160</dim>
				</port>
			</input>
			<output>
				<port id="1" precision="FP16" names="/model.2/m.0/cv2/act/Mul_output_0">
					<dim>1</dim>
					<dim>32</dim>
					<dim>160</dim>
					<dim>160</dim>
				</port>
			</output>
		</layer>
		<layer id="70" name="/model.2/m.0/cv2/act/Mul/fq_output_0/input_low" type="Const" version="opset1">
			<data element_type="f16" shape="" offset="67084" size="2" />
			<output>
				<port id="0" precision="FP16" />
			</output>
		</layer>
		<layer id="71" name="/model.2/m.0/cv2/act/Mul/fq_output_0/input_high" type="Const" version="opset1">
			<data element_type="f16" shape="" offset="67086" size="2" />
			<output>
				<port id="0" precision="FP16" />
			</output>
		</layer>
		<layer id="72" name="/model.2/m.0/cv2/act/Mul/fq_output_0/output_low" type="Const" version="opset1">
			<data element_type="f16" shape="" offset="67084" size="2" />
			<output>
				<port id="0" precision="FP16" />
			</output>
		</layer>
		<layer id="73" name="/model.2/m.0/cv2/act/Mul/fq_output_0/output_high" type="Const" version="opset1">
			<data element_type="f16" shape="" offset="67086" size="2" />
			<output>
				<port id="0" precision="FP16" />
			</output>
		</layer>
		<layer id="74" name="/model.2/m.0/cv2/act/Mul/fq_output_0" type="FakeQuantize" version="opset1">
			<data levels="256" auto_broadcast="numpy" />
			<input>
				<port id="0" precision="FP16">
					<dim>1</dim>
					<dim>32</dim>
					<dim>160</dim>
					<dim>160</dim>
				</port>
				<port id="1" precision="FP16" />
				<port id="2" precision="FP16" />
				<port id="3" precision="FP16" />
				<port id="4" precision="FP16" />
			</input>
			<output>
				<port id="5" precision="FP16">
					<dim>1</dim>
					<dim>32</dim>
					<dim>160</dim>
					<dim>160</dim>
				</port>
			</output>
		</layer>
		<layer id="75" name="/model.2/m.0/Add" type="Add" version="opset1">
			<data auto_broadcast="numpy" />
			<input>
				<port id="0" precision="FP16">
					<dim>1</dim>
					<dim>32</dim>
					<dim>160</dim>
					<dim>160</dim>
				</port>
				<port id="1" precision="FP16">
					<dim>1</dim>
					<dim>32</dim>
					<dim>160</dim>
					<dim>160</dim>
				</port>
			</input>
			<output>
				<port id="2" precision="FP16" names="/model.2/m.0/Add_output_0">
					<dim>1</dim>
					<dim>32</dim>
					<dim>160</dim>
					<dim>160</dim>
				</port>
			</output>
		</layer>
		<layer id="76" name="/model.2/m.0/Add/fq_output_0/input_low" type="Const" version="opset1">
			<data element_type="f16" shape="" offset="57644" size="2" />
			<output>
				<port id="0" precision="FP16" />
			</output>
		</layer>
		<layer id="77" name="/model.2/m.0/Add/fq_output_0/input_high" type="Const" version="opset1">
			<data element_type="f16" shape="" offset="57646" size="2" />
			<output>
				<port id="0" precision="FP16" />
			</output>
		</layer>
		<layer id="78" name="/model.2/m.0/Add/fq_output_0/output_low" type="Const" version="opset1">
			<data element_type="f16" shape="" offset="57644" size="2" />
			<output>
				<port id="0" precision="FP16" />
			</output>
		</layer>
		<layer id="79" name="/model.2/m.0/Add/fq_output_0/output_high" type="Const" version="opset1">
			<data element_type="f16" shape="" offset="57646" size="2" />
			<output>
				<port id="0" precision="FP16" />
			</output>
		</layer>
		<layer id="80" name="/model.2/m.0/Add/fq_output_0" type="FakeQuantize" version="opset1">
			<data levels="256" auto_broadcast="numpy" />
			<input>
				<port id="0" precision="FP16">
					<dim>1</dim>
					<dim>32</dim>
					<dim>160</dim>
					<dim>160</dim>
				</port>
				<port id="1" precision="FP16" />
				<port id="2" precision="FP16" />
				<port id="3" precision="FP16" />
				<port id="4" precision="FP16" />
			</input>
			<output>
				<port id="5" precision="FP16">
					<dim>1</dim>
					<dim>32</dim>
					<dim>160</dim>
					<dim>160</dim>
				</port>
			</output>
		</layer>
		<layer id="81" name="/model.2/Concat" type="Concat" version="opset1">
			<data axis="1" />
			<input>
				<port id="0" precision="FP16">
					<dim>1</dim>
					<dim>32</dim>
					<dim>160</dim>
					<dim>160</dim>
				</port>
				<port id="1" precision="FP16">
					<dim>1</dim>
					<dim>32</dim>
					<dim>160</dim>
					<dim>160</dim>
				</port>
				<port id="2" precision="FP16">
					<dim>1</dim>
					<dim>32</dim>
					<dim>160</dim>
					<dim>160</dim>
				</port>
			</input>
			<output>
				<port id="3" precision="FP16" names="/model.2/Concat_output_0">
					<dim>1</dim>
					<dim>96</dim>
					<dim>160</dim>
					<dim>160</dim>
				</port>
			</output>
		</layer>
		<layer id="82" name="Constant_1613527" type="Const" version="opset1">
			<data element_type="i8" shape="128, 96, 1, 1" offset="67088" size="12288" />
			<output>
				<port id="0" precision="I8">
					<dim>128</dim>
					<dim>96</dim>
					<dim>1</dim>
					<dim>1</dim>
				</port>
			</output>
		</layer>
		<layer id="83" name="Convert_1613528" type="Convert" version="opset1">
			<data destination_type="f16" />
			<input>
				<port id="0" precision="I8">
					<dim>128</dim>
					<dim>96</dim>
					<dim>1</dim>
					<dim>1</dim>
				</port>
			</input>
			<output>
				<port id="1" precision="FP16">
					<dim>128</dim>
					<dim>96</dim>
					<dim>1</dim>
					<dim>1</dim>
				</port>
			</output>
		</layer>
		<layer id="84" name="Constant_1613529" type="Const" version="opset1">
			<data element_type="f16" shape="128, 1, 1, 1" offset="79376" size="256" />
			<output>
				<port id="0" precision="FP16">
					<dim>128</dim>
					<dim>1</dim>
					<dim>1</dim>
					<dim>1</dim>
				</port>
			</output>
		</layer>
		<layer id="85" name="/model.2/cv2/conv/Conv/WithoutBiases/fq_weights_1" type="Multiply" version="opset1">
			<data auto_broadcast="numpy" />
			<input>
				<port id="0" precision="FP16">
					<dim>128</dim>
					<dim>96</dim>
					<dim>1</dim>
					<dim>1</dim>
				</port>
				<port id="1" precision="FP16">
					<dim>128</dim>
					<dim>1</dim>
					<dim>1</dim>
					<dim>1</dim>
				</port>
			</input>
			<output>
				<port id="2" precision="FP16">
					<dim>128</dim>
					<dim>96</dim>
					<dim>1</dim>
					<dim>1</dim>
				</port>
			</output>
		</layer>
		<layer id="86" name="/model.2/cv2/conv/Conv/WithoutBiases" type="Convolution" version="opset1">
			<data strides="1, 1" dilations="1, 1" pads_begin="0, 0" pads_end="0, 0" auto_pad="explicit" />
			<input>
				<port id="0" precision="FP16">
					<dim>1</dim>
					<dim>96</dim>
					<dim>160</dim>
					<dim>160</dim>
				</port>
				<port id="1" precision="FP16">
					<dim>128</dim>
					<dim>96</dim>
					<dim>1</dim>
					<dim>1</dim>
				</port>
			</input>
			<output>
				<port id="2" precision="FP16">
					<dim>1</dim>
					<dim>128</dim>
					<dim>160</dim>
					<dim>160</dim>
				</port>
			</output>
		</layer>
		<layer id="87" name="Reshape_1056195" type="Const" version="opset1">
			<data element_type="f16" shape="1, 128, 1, 1" offset="79632" size="256" />
			<output>
				<port id="0" precision="FP16">
					<dim>1</dim>
					<dim>128</dim>
					<dim>1</dim>
					<dim>1</dim>
				</port>
			</output>
		</layer>
		<layer id="88" name="/model.2/cv2/conv/Conv" type="Add" version="opset1">
			<data auto_broadcast="numpy" />
			<input>
				<port id="0" precision="FP16">
					<dim>1</dim>
					<dim>128</dim>
					<dim>160</dim>
					<dim>160</dim>
				</port>
				<port id="1" precision="FP16">
					<dim>1</dim>
					<dim>128</dim>
					<dim>1</dim>
					<dim>1</dim>
				</port>
			</input>
			<output>
				<port id="2" precision="FP16" names="/model.2/cv2/conv/Conv_output_0">
					<dim>1</dim>
					<dim>128</dim>
					<dim>160</dim>
					<dim>160</dim>
				</port>
			</output>
		</layer>
		<layer id="89" name="/model.2/cv2/act/Mul" type="Swish" version="opset4">
			<input>
				<port id="0" precision="FP16">
					<dim>1</dim>
					<dim>128</dim>
					<dim>160</dim>
					<dim>160</dim>
				</port>
			</input>
			<output>
				<port id="1" precision="FP16" names="/model.2/cv2/act/Mul_output_0">
					<dim>1</dim>
					<dim>128</dim>
					<dim>160</dim>
					<dim>160</dim>
				</port>
			</output>
		</layer>
		<layer id="90" name="/model.2/cv2/act/Mul/fq_output_0/input_low" type="Const" version="opset1">
			<data element_type="f16" shape="" offset="79888" size="2" />
			<output>
				<port id="0" precision="FP16" />
			</output>
		</layer>
		<layer id="91" name="/model.2/cv2/act/Mul/fq_output_0/input_high" type="Const" version="opset1">
			<data element_type="f16" shape="" offset="79890" size="2" />
			<output>
				<port id="0" precision="FP16" />
			</output>
		</layer>
		<layer id="92" name="/model.2/cv2/act/Mul/fq_output_0/output_low" type="Const" version="opset1">
			<data element_type="f16" shape="" offset="79888" size="2" />
			<output>
				<port id="0" precision="FP16" />
			</output>
		</layer>
		<layer id="93" name="/model.2/cv2/act/Mul/fq_output_0/output_high" type="Const" version="opset1">
			<data element_type="f16" shape="" offset="79890" size="2" />
			<output>
				<port id="0" precision="FP16" />
			</output>
		</layer>
		<layer id="94" name="/model.2/cv2/act/Mul/fq_output_0" type="FakeQuantize" version="opset1">
			<data levels="256" auto_broadcast="numpy" />
			<input>
				<port id="0" precision="FP16">
					<dim>1</dim>
					<dim>128</dim>
					<dim>160</dim>
					<dim>160</dim>
				</port>
				<port id="1" precision="FP16" />
				<port id="2" precision="FP16" />
				<port id="3" precision="FP16" />
				<port id="4" precision="FP16" />
			</input>
			<output>
				<port id="5" precision="FP16">
					<dim>1</dim>
					<dim>128</dim>
					<dim>160</dim>
					<dim>160</dim>
				</port>
			</output>
		</layer>
		<layer id="95" name="Constant_1613531" type="Const" version="opset1">
			<data element_type="i8" shape="128, 128, 3, 3" offset="79892" size="147456" />
			<output>
				<port id="0" precision="I8">
					<dim>128</dim>
					<dim>128</dim>
					<dim>3</dim>
					<dim>3</dim>
				</port>
			</output>
		</layer>
		<layer id="96" name="Convert_1613532" type="Convert" version="opset1">
			<data destination_type="f16" />
			<input>
				<port id="0" precision="I8">
					<dim>128</dim>
					<dim>128</dim>
					<dim>3</dim>
					<dim>3</dim>
				</port>
			</input>
			<output>
				<port id="1" precision="FP16">
					<dim>128</dim>
					<dim>128</dim>
					<dim>3</dim>
					<dim>3</dim>
				</port>
			</output>
		</layer>
		<layer id="97" name="Constant_1613533" type="Const" version="opset1">
			<data element_type="f16" shape="128, 1, 1, 1" offset="227348" size="256" />
			<output>
				<port id="0" precision="FP16">
					<dim>128</dim>
					<dim>1</dim>
					<dim>1</dim>
					<dim>1</dim>
				</port>
			</output>
		</layer>
		<layer id="98" name="/model.3/conv/Conv/WithoutBiases/fq_weights_1" type="Multiply" version="opset1">
			<data auto_broadcast="numpy" />
			<input>
				<port id="0" precision="FP16">
					<dim>128</dim>
					<dim>128</dim>
					<dim>3</dim>
					<dim>3</dim>
				</port>
				<port id="1" precision="FP16">
					<dim>128</dim>
					<dim>1</dim>
					<dim>1</dim>
					<dim>1</dim>
				</port>
			</input>
			<output>
				<port id="2" precision="FP16">
					<dim>128</dim>
					<dim>128</dim>
					<dim>3</dim>
					<dim>3</dim>
				</port>
			</output>
		</layer>
		<layer id="99" name="/model.3/conv/Conv/WithoutBiases" type="Convolution" version="opset1">
			<data strides="2, 2" dilations="1, 1" pads_begin="1, 1" pads_end="1, 1" auto_pad="explicit" />
			<input>
				<port id="0" precision="FP16">
					<dim>1</dim>
					<dim>128</dim>
					<dim>160</dim>
					<dim>160</dim>
				</port>
				<port id="1" precision="FP16">
					<dim>128</dim>
					<dim>128</dim>
					<dim>3</dim>
					<dim>3</dim>
				</port>
			</input>
			<output>
				<port id="2" precision="FP16">
					<dim>1</dim>
					<dim>128</dim>
					<dim>80</dim>
					<dim>80</dim>
				</port>
			</output>
		</layer>
		<layer id="100" name="Reshape_1056210" type="Const" version="opset1">
			<data element_type="f16" shape="1, 128, 1, 1" offset="227604" size="256" />
			<output>
				<port id="0" precision="FP16">
					<dim>1</dim>
					<dim>128</dim>
					<dim>1</dim>
					<dim>1</dim>
				</port>
			</output>
		</layer>
		<layer id="101" name="/model.3/conv/Conv" type="Add" version="opset1">
			<data auto_broadcast="numpy" />
			<input>
				<port id="0" precision="FP16">
					<dim>1</dim>
					<dim>128</dim>
					<dim>80</dim>
					<dim>80</dim>
				</port>
				<port id="1" precision="FP16">
					<dim>1</dim>
					<dim>128</dim>
					<dim>1</dim>
					<dim>1</dim>
				</port>
			</input>
			<output>
				<port id="2" precision="FP16" names="/model.3/conv/Conv_output_0">
					<dim>1</dim>
					<dim>128</dim>
					<dim>80</dim>
					<dim>80</dim>
				</port>
			</output>
		</layer>
		<layer id="102" name="/model.3/act/Mul" type="Swish" version="opset4">
			<input>
				<port id="0" precision="FP16">
					<dim>1</dim>
					<dim>128</dim>
					<dim>80</dim>
					<dim>80</dim>
				</port>
			</input>
			<output>
				<port id="1" precision="FP16" names="/model.3/act/Mul_output_0">
					<dim>1</dim>
					<dim>128</dim>
					<dim>80</dim>
					<dim>80</dim>
				</port>
			</output>
		</layer>
		<layer id="103" name="/model.3/act/Mul/fq_output_0/input_low" type="Const" version="opset1">
			<data element_type="f16" shape="" offset="227860" size="2" />
			<output>
				<port id="0" precision="FP16" />
			</output>
		</layer>
		<layer id="104" name="/model.3/act/Mul/fq_output_0/input_high" type="Const" version="opset1">
			<data element_type="f16" shape="" offset="227862" size="2" />
			<output>
				<port id="0" precision="FP16" />
			</output>
		</layer>
		<layer id="105" name="/model.3/act/Mul/fq_output_0/output_low" type="Const" version="opset1">
			<data element_type="f16" shape="" offset="227860" size="2" />
			<output>
				<port id="0" precision="FP16" />
			</output>
		</layer>
		<layer id="106" name="/model.3/act/Mul/fq_output_0/output_high" type="Const" version="opset1">
			<data element_type="f16" shape="" offset="227862" size="2" />
			<output>
				<port id="0" precision="FP16" />
			</output>
		</layer>
		<layer id="107" name="/model.3/act/Mul/fq_output_0" type="FakeQuantize" version="opset1">
			<data levels="256" auto_broadcast="numpy" />
			<input>
				<port id="0" precision="FP16">
					<dim>1</dim>
					<dim>128</dim>
					<dim>80</dim>
					<dim>80</dim>
				</port>
				<port id="1" precision="FP16" />
				<port id="2" precision="FP16" />
				<port id="3" precision="FP16" />
				<port id="4" precision="FP16" />
			</input>
			<output>
				<port id="5" precision="FP16">
					<dim>1</dim>
					<dim>128</dim>
					<dim>80</dim>
					<dim>80</dim>
				</port>
			</output>
		</layer>
		<layer id="108" name="Constant_1613535" type="Const" version="opset1">
			<data element_type="i8" shape="128, 128, 1, 1" offset="227864" size="16384" />
			<output>
				<port id="0" precision="I8">
					<dim>128</dim>
					<dim>128</dim>
					<dim>1</dim>
					<dim>1</dim>
				</port>
			</output>
		</layer>
		<layer id="109" name="Convert_1613536" type="Convert" version="opset1">
			<data destination_type="f16" />
			<input>
				<port id="0" precision="I8">
					<dim>128</dim>
					<dim>128</dim>
					<dim>1</dim>
					<dim>1</dim>
				</port>
			</input>
			<output>
				<port id="1" precision="FP16">
					<dim>128</dim>
					<dim>128</dim>
					<dim>1</dim>
					<dim>1</dim>
				</port>
			</output>
		</layer>
		<layer id="110" name="Constant_1613537" type="Const" version="opset1">
			<data element_type="f16" shape="128, 1, 1, 1" offset="244248" size="256" />
			<output>
				<port id="0" precision="FP16">
					<dim>128</dim>
					<dim>1</dim>
					<dim>1</dim>
					<dim>1</dim>
				</port>
			</output>
		</layer>
		<layer id="111" name="/model.4/cv1/conv/Conv/WithoutBiases/fq_weights_1" type="Multiply" version="opset1">
			<data auto_broadcast="numpy" />
			<input>
				<port id="0" precision="FP16">
					<dim>128</dim>
					<dim>128</dim>
					<dim>1</dim>
					<dim>1</dim>
				</port>
				<port id="1" precision="FP16">
					<dim>128</dim>
					<dim>1</dim>
					<dim>1</dim>
					<dim>1</dim>
				</port>
			</input>
			<output>
				<port id="2" precision="FP16">
					<dim>128</dim>
					<dim>128</dim>
					<dim>1</dim>
					<dim>1</dim>
				</port>
			</output>
		</layer>
		<layer id="112" name="/model.4/cv1/conv/Conv/WithoutBiases" type="Convolution" version="opset1">
			<data strides="1, 1" dilations="1, 1" pads_begin="0, 0" pads_end="0, 0" auto_pad="explicit" />
			<input>
				<port id="0" precision="FP16">
					<dim>1</dim>
					<dim>128</dim>
					<dim>80</dim>
					<dim>80</dim>
				</port>
				<port id="1" precision="FP16">
					<dim>128</dim>
					<dim>128</dim>
					<dim>1</dim>
					<dim>1</dim>
				</port>
			</input>
			<output>
				<port id="2" precision="FP16">
					<dim>1</dim>
					<dim>128</dim>
					<dim>80</dim>
					<dim>80</dim>
				</port>
			</output>
		</layer>
		<layer id="113" name="Reshape_1056225" type="Const" version="opset1">
			<data element_type="f16" shape="1, 128, 1, 1" offset="244504" size="256" />
			<output>
				<port id="0" precision="FP16">
					<dim>1</dim>
					<dim>128</dim>
					<dim>1</dim>
					<dim>1</dim>
				</port>
			</output>
		</layer>
		<layer id="114" name="/model.4/cv1/conv/Conv" type="Add" version="opset1">
			<data auto_broadcast="numpy" />
			<input>
				<port id="0" precision="FP16">
					<dim>1</dim>
					<dim>128</dim>
					<dim>80</dim>
					<dim>80</dim>
				</port>
				<port id="1" precision="FP16">
					<dim>1</dim>
					<dim>128</dim>
					<dim>1</dim>
					<dim>1</dim>
				</port>
			</input>
			<output>
				<port id="2" precision="FP16" names="/model.4/cv1/conv/Conv_output_0">
					<dim>1</dim>
					<dim>128</dim>
					<dim>80</dim>
					<dim>80</dim>
				</port>
			</output>
		</layer>
		<layer id="115" name="/model.4/cv1/act/Mul" type="Swish" version="opset4">
			<input>
				<port id="0" precision="FP16">
					<dim>1</dim>
					<dim>128</dim>
					<dim>80</dim>
					<dim>80</dim>
				</port>
			</input>
			<output>
				<port id="1" precision="FP16" names="/model.4/cv1/act/Mul_output_0">
					<dim>1</dim>
					<dim>128</dim>
					<dim>80</dim>
					<dim>80</dim>
				</port>
			</output>
		</layer>
		<layer id="116" name="/model.4/cv1/act/Mul/fq_output_0/input_low" type="Const" version="opset1">
			<data element_type="f16" shape="" offset="244760" size="2" />
			<output>
				<port id="0" precision="FP16" />
			</output>
		</layer>
		<layer id="117" name="/model.4/cv1/act/Mul/fq_output_0/input_high" type="Const" version="opset1">
			<data element_type="f16" shape="" offset="244762" size="2" />
			<output>
				<port id="0" precision="FP16" />
			</output>
		</layer>
		<layer id="118" name="/model.4/cv1/act/Mul/fq_output_0/output_low" type="Const" version="opset1">
			<data element_type="f16" shape="" offset="244760" size="2" />
			<output>
				<port id="0" precision="FP16" />
			</output>
		</layer>
		<layer id="119" name="/model.4/cv1/act/Mul/fq_output_0/output_high" type="Const" version="opset1">
			<data element_type="f16" shape="" offset="244762" size="2" />
			<output>
				<port id="0" precision="FP16" />
			</output>
		</layer>
		<layer id="120" name="/model.4/cv1/act/Mul/fq_output_0" type="FakeQuantize" version="opset1">
			<data levels="256" auto_broadcast="numpy" />
			<input>
				<port id="0" precision="FP16">
					<dim>1</dim>
					<dim>128</dim>
					<dim>80</dim>
					<dim>80</dim>
				</port>
				<port id="1" precision="FP16" />
				<port id="2" precision="FP16" />
				<port id="3" precision="FP16" />
				<port id="4" precision="FP16" />
			</input>
			<output>
				<port id="5" precision="FP16">
					<dim>1</dim>
					<dim>128</dim>
					<dim>80</dim>
					<dim>80</dim>
				</port>
			</output>
		</layer>
		<layer id="121" name="Constant_1056229" type="Const" version="opset1">
			<data element_type="i64" shape="" offset="57648" size="8" />
			<output>
				<port id="0" precision="I64" />
			</output>
		</layer>
		<layer id="122" name="onnx::Split_235" type="Const" version="opset1">
			<data element_type="i64" shape="2" offset="244764" size="16" />
			<output>
				<port id="0" precision="I64" names="onnx::Split_235">
					<dim>2</dim>
				</port>
			</output>
		</layer>
		<layer id="123" name="/model.4/Split" type="VariadicSplit" version="opset1">
			<input>
				<port id="0" precision="FP16">
					<dim>1</dim>
					<dim>128</dim>
					<dim>80</dim>
					<dim>80</dim>
				</port>
				<port id="1" precision="I64" />
				<port id="2" precision="I64">
					<dim>2</dim>
				</port>
			</input>
			<output>
				<port id="3" precision="FP16" names="/model.4/Split_output_0">
					<dim>1</dim>
					<dim>64</dim>
					<dim>80</dim>
					<dim>80</dim>
				</port>
				<port id="4" precision="FP16" names="/model.4/Split_output_1">
					<dim>1</dim>
					<dim>64</dim>
					<dim>80</dim>
					<dim>80</dim>
				</port>
			</output>
		</layer>
		<layer id="124" name="Constant_1613539" type="Const" version="opset1">
			<data element_type="i8" shape="32, 64, 3, 3" offset="244780" size="18432" />
			<output>
				<port id="0" precision="I8">
					<dim>32</dim>
					<dim>64</dim>
					<dim>3</dim>
					<dim>3</dim>
				</port>
			</output>
		</layer>
		<layer id="125" name="Convert_1613540" type="Convert" version="opset1">
			<data destination_type="f16" />
			<input>
				<port id="0" precision="I8">
					<dim>32</dim>
					<dim>64</dim>
					<dim>3</dim>
					<dim>3</dim>
				</port>
			</input>
			<output>
				<port id="1" precision="FP16">
					<dim>32</dim>
					<dim>64</dim>
					<dim>3</dim>
					<dim>3</dim>
				</port>
			</output>
		</layer>
		<layer id="126" name="Constant_1613541" type="Const" version="opset1">
			<data element_type="f16" shape="32, 1, 1, 1" offset="263212" size="64" />
			<output>
				<port id="0" precision="FP16">
					<dim>32</dim>
					<dim>1</dim>
					<dim>1</dim>
					<dim>1</dim>
				</port>
			</output>
		</layer>
		<layer id="127" name="/model.4/m.0/cv1/conv/Conv/WithoutBiases/fq_weights_1" type="Multiply" version="opset1">
			<data auto_broadcast="numpy" />
			<input>
				<port id="0" precision="FP16">
					<dim>32</dim>
					<dim>64</dim>
					<dim>3</dim>
					<dim>3</dim>
				</port>
				<port id="1" precision="FP16">
					<dim>32</dim>
					<dim>1</dim>
					<dim>1</dim>
					<dim>1</dim>
				</port>
			</input>
			<output>
				<port id="2" precision="FP16">
					<dim>32</dim>
					<dim>64</dim>
					<dim>3</dim>
					<dim>3</dim>
				</port>
			</output>
		</layer>
		<layer id="128" name="/model.4/m.0/cv1/conv/Conv/WithoutBiases" type="Convolution" version="opset1">
			<data strides="1, 1" dilations="1, 1" pads_begin="1, 1" pads_end="1, 1" auto_pad="explicit" />
			<input>
				<port id="0" precision="FP16">
					<dim>1</dim>
					<dim>64</dim>
					<dim>80</dim>
					<dim>80</dim>
				</port>
				<port id="1" precision="FP16">
					<dim>32</dim>
					<dim>64</dim>
					<dim>3</dim>
					<dim>3</dim>
				</port>
			</input>
			<output>
				<port id="2" precision="FP16">
					<dim>1</dim>
					<dim>32</dim>
					<dim>80</dim>
					<dim>80</dim>
				</port>
			</output>
		</layer>
		<layer id="129" name="Reshape_1056242" type="Const" version="opset1">
			<data element_type="f16" shape="1, 32, 1, 1" offset="263276" size="64" />
			<output>
				<port id="0" precision="FP16">
					<dim>1</dim>
					<dim>32</dim>
					<dim>1</dim>
					<dim>1</dim>
				</port>
			</output>
		</layer>
		<layer id="130" name="/model.4/m.0/cv1/conv/Conv" type="Add" version="opset1">
			<data auto_broadcast="numpy" />
			<input>
				<port id="0" precision="FP16">
					<dim>1</dim>
					<dim>32</dim>
					<dim>80</dim>
					<dim>80</dim>
				</port>
				<port id="1" precision="FP16">
					<dim>1</dim>
					<dim>32</dim>
					<dim>1</dim>
					<dim>1</dim>
				</port>
			</input>
			<output>
				<port id="2" precision="FP16" names="/model.4/m.0/cv1/conv/Conv_output_0">
					<dim>1</dim>
					<dim>32</dim>
					<dim>80</dim>
					<dim>80</dim>
				</port>
			</output>
		</layer>
		<layer id="131" name="/model.4/m.0/cv1/act/Mul" type="Swish" version="opset4">
			<input>
				<port id="0" precision="FP16">
					<dim>1</dim>
					<dim>32</dim>
					<dim>80</dim>
					<dim>80</dim>
				</port>
			</input>
			<output>
				<port id="1" precision="FP16" names="/model.4/m.0/cv1/act/Mul_output_0">
					<dim>1</dim>
					<dim>32</dim>
					<dim>80</dim>
					<dim>80</dim>
				</port>
			</output>
		</layer>
		<layer id="132" name="/model.4/m.0/cv1/act/Mul/fq_output_0/input_low" type="Const" version="opset1">
			<data element_type="f16" shape="" offset="263340" size="2" />
			<output>
				<port id="0" precision="FP16" />
			</output>
		</layer>
		<layer id="133" name="/model.4/m.0/cv1/act/Mul/fq_output_0/input_high" type="Const" version="opset1">
			<data element_type="f16" shape="" offset="263342" size="2" />
			<output>
				<port id="0" precision="FP16" />
			</output>
		</layer>
		<layer id="134" name="/model.4/m.0/cv1/act/Mul/fq_output_0/output_low" type="Const" version="opset1">
			<data element_type="f16" shape="" offset="263340" size="2" />
			<output>
				<port id="0" precision="FP16" />
			</output>
		</layer>
		<layer id="135" name="/model.4/m.0/cv1/act/Mul/fq_output_0/output_high" type="Const" version="opset1">
			<data element_type="f16" shape="" offset="263342" size="2" />
			<output>
				<port id="0" precision="FP16" />
			</output>
		</layer>
		<layer id="136" name="/model.4/m.0/cv1/act/Mul/fq_output_0" type="FakeQuantize" version="opset1">
			<data levels="256" auto_broadcast="numpy" />
			<input>
				<port id="0" precision="FP16">
					<dim>1</dim>
					<dim>32</dim>
					<dim>80</dim>
					<dim>80</dim>
				</port>
				<port id="1" precision="FP16" />
				<port id="2" precision="FP16" />
				<port id="3" precision="FP16" />
				<port id="4" precision="FP16" />
			</input>
			<output>
				<port id="5" precision="FP16">
					<dim>1</dim>
					<dim>32</dim>
					<dim>80</dim>
					<dim>80</dim>
				</port>
			</output>
		</layer>
		<layer id="137" name="Constant_1613543" type="Const" version="opset1">
			<data element_type="i8" shape="64, 32, 3, 3" offset="263344" size="18432" />
			<output>
				<port id="0" precision="I8">
					<dim>64</dim>
					<dim>32</dim>
					<dim>3</dim>
					<dim>3</dim>
				</port>
			</output>
		</layer>
		<layer id="138" name="Convert_1613544" type="Convert" version="opset1">
			<data destination_type="f16" />
			<input>
				<port id="0" precision="I8">
					<dim>64</dim>
					<dim>32</dim>
					<dim>3</dim>
					<dim>3</dim>
				</port>
			</input>
			<output>
				<port id="1" precision="FP16">
					<dim>64</dim>
					<dim>32</dim>
					<dim>3</dim>
					<dim>3</dim>
				</port>
			</output>
		</layer>
		<layer id="139" name="Constant_1613545" type="Const" version="opset1">
			<data element_type="f16" shape="64, 1, 1, 1" offset="281776" size="128" />
			<output>
				<port id="0" precision="FP16">
					<dim>64</dim>
					<dim>1</dim>
					<dim>1</dim>
					<dim>1</dim>
				</port>
			</output>
		</layer>
		<layer id="140" name="/model.4/m.0/cv2/conv/Conv/WithoutBiases/fq_weights_1" type="Multiply" version="opset1">
			<data auto_broadcast="numpy" />
			<input>
				<port id="0" precision="FP16">
					<dim>64</dim>
					<dim>32</dim>
					<dim>3</dim>
					<dim>3</dim>
				</port>
				<port id="1" precision="FP16">
					<dim>64</dim>
					<dim>1</dim>
					<dim>1</dim>
					<dim>1</dim>
				</port>
			</input>
			<output>
				<port id="2" precision="FP16">
					<dim>64</dim>
					<dim>32</dim>
					<dim>3</dim>
					<dim>3</dim>
				</port>
			</output>
		</layer>
		<layer id="141" name="/model.4/m.0/cv2/conv/Conv/WithoutBiases" type="Convolution" version="opset1">
			<data strides="1, 1" dilations="1, 1" pads_begin="1, 1" pads_end="1, 1" auto_pad="explicit" />
			<input>
				<port id="0" precision="FP16">
					<dim>1</dim>
					<dim>32</dim>
					<dim>80</dim>
					<dim>80</dim>
				</port>
				<port id="1" precision="FP16">
					<dim>64</dim>
					<dim>32</dim>
					<dim>3</dim>
					<dim>3</dim>
				</port>
			</input>
			<output>
				<port id="2" precision="FP16">
					<dim>1</dim>
					<dim>64</dim>
					<dim>80</dim>
					<dim>80</dim>
				</port>
			</output>
		</layer>
		<layer id="142" name="Reshape_1056257" type="Const" version="opset1">
			<data element_type="f16" shape="1, 64, 1, 1" offset="281904" size="128" />
			<output>
				<port id="0" precision="FP16">
					<dim>1</dim>
					<dim>64</dim>
					<dim>1</dim>
					<dim>1</dim>
				</port>
			</output>
		</layer>
		<layer id="143" name="/model.4/m.0/cv2/conv/Conv" type="Add" version="opset1">
			<data auto_broadcast="numpy" />
			<input>
				<port id="0" precision="FP16">
					<dim>1</dim>
					<dim>64</dim>
					<dim>80</dim>
					<dim>80</dim>
				</port>
				<port id="1" precision="FP16">
					<dim>1</dim>
					<dim>64</dim>
					<dim>1</dim>
					<dim>1</dim>
				</port>
			</input>
			<output>
				<port id="2" precision="FP16" names="/model.4/m.0/cv2/conv/Conv_output_0">
					<dim>1</dim>
					<dim>64</dim>
					<dim>80</dim>
					<dim>80</dim>
				</port>
			</output>
		</layer>
		<layer id="144" name="/model.4/m.0/cv2/act/Mul" type="Swish" version="opset4">
			<input>
				<port id="0" precision="FP16">
					<dim>1</dim>
					<dim>64</dim>
					<dim>80</dim>
					<dim>80</dim>
				</port>
			</input>
			<output>
				<port id="1" precision="FP16" names="/model.4/m.0/cv2/act/Mul_output_0">
					<dim>1</dim>
					<dim>64</dim>
					<dim>80</dim>
					<dim>80</dim>
				</port>
			</output>
		</layer>
		<layer id="145" name="/model.4/m.0/cv2/act/Mul/fq_output_0/input_low" type="Const" version="opset1">
			<data element_type="f16" shape="" offset="282032" size="2" />
			<output>
				<port id="0" precision="FP16" />
			</output>
		</layer>
		<layer id="146" name="/model.4/m.0/cv2/act/Mul/fq_output_0/input_high" type="Const" version="opset1">
			<data element_type="f16" shape="" offset="282034" size="2" />
			<output>
				<port id="0" precision="FP16" />
			</output>
		</layer>
		<layer id="147" name="/model.4/m.0/cv2/act/Mul/fq_output_0/output_low" type="Const" version="opset1">
			<data element_type="f16" shape="" offset="282032" size="2" />
			<output>
				<port id="0" precision="FP16" />
			</output>
		</layer>
		<layer id="148" name="/model.4/m.0/cv2/act/Mul/fq_output_0/output_high" type="Const" version="opset1">
			<data element_type="f16" shape="" offset="282034" size="2" />
			<output>
				<port id="0" precision="FP16" />
			</output>
		</layer>
		<layer id="149" name="/model.4/m.0/cv2/act/Mul/fq_output_0" type="FakeQuantize" version="opset1">
			<data levels="256" auto_broadcast="numpy" />
			<input>
				<port id="0" precision="FP16">
					<dim>1</dim>
					<dim>64</dim>
					<dim>80</dim>
					<dim>80</dim>
				</port>
				<port id="1" precision="FP16" />
				<port id="2" precision="FP16" />
				<port id="3" precision="FP16" />
				<port id="4" precision="FP16" />
			</input>
			<output>
				<port id="5" precision="FP16">
					<dim>1</dim>
					<dim>64</dim>
					<dim>80</dim>
					<dim>80</dim>
				</port>
			</output>
		</layer>
		<layer id="150" name="/model.4/m.0/Add" type="Add" version="opset1">
			<data auto_broadcast="numpy" />
			<input>
				<port id="0" precision="FP16">
					<dim>1</dim>
					<dim>64</dim>
					<dim>80</dim>
					<dim>80</dim>
				</port>
				<port id="1" precision="FP16">
					<dim>1</dim>
					<dim>64</dim>
					<dim>80</dim>
					<dim>80</dim>
				</port>
			</input>
			<output>
				<port id="2" precision="FP16" names="/model.4/m.0/Add_output_0">
					<dim>1</dim>
					<dim>64</dim>
					<dim>80</dim>
					<dim>80</dim>
				</port>
			</output>
		</layer>
		<layer id="151" name="/model.4/m.0/Add/fq_output_0/input_low" type="Const" version="opset1">
			<data element_type="f16" shape="" offset="244760" size="2" />
			<output>
				<port id="0" precision="FP16" />
			</output>
		</layer>
		<layer id="152" name="/model.4/m.0/Add/fq_output_0/input_high" type="Const" version="opset1">
			<data element_type="f16" shape="" offset="244762" size="2" />
			<output>
				<port id="0" precision="FP16" />
			</output>
		</layer>
		<layer id="153" name="/model.4/m.0/Add/fq_output_0/output_low" type="Const" version="opset1">
			<data element_type="f16" shape="" offset="244760" size="2" />
			<output>
				<port id="0" precision="FP16" />
			</output>
		</layer>
		<layer id="154" name="/model.4/m.0/Add/fq_output_0/output_high" type="Const" version="opset1">
			<data element_type="f16" shape="" offset="244762" size="2" />
			<output>
				<port id="0" precision="FP16" />
			</output>
		</layer>
		<layer id="155" name="/model.4/m.0/Add/fq_output_0" type="FakeQuantize" version="opset1">
			<data levels="256" auto_broadcast="numpy" />
			<input>
				<port id="0" precision="FP16">
					<dim>1</dim>
					<dim>64</dim>
					<dim>80</dim>
					<dim>80</dim>
				</port>
				<port id="1" precision="FP16" />
				<port id="2" precision="FP16" />
				<port id="3" precision="FP16" />
				<port id="4" precision="FP16" />
			</input>
			<output>
				<port id="5" precision="FP16">
					<dim>1</dim>
					<dim>64</dim>
					<dim>80</dim>
					<dim>80</dim>
				</port>
			</output>
		</layer>
		<layer id="156" name="/model.4/Concat" type="Concat" version="opset1">
			<data axis="1" />
			<input>
				<port id="0" precision="FP16">
					<dim>1</dim>
					<dim>64</dim>
					<dim>80</dim>
					<dim>80</dim>
				</port>
				<port id="1" precision="FP16">
					<dim>1</dim>
					<dim>64</dim>
					<dim>80</dim>
					<dim>80</dim>
				</port>
				<port id="2" precision="FP16">
					<dim>1</dim>
					<dim>64</dim>
					<dim>80</dim>
					<dim>80</dim>
				</port>
			</input>
			<output>
				<port id="3" precision="FP16" names="/model.4/Concat_output_0">
					<dim>1</dim>
					<dim>192</dim>
					<dim>80</dim>
					<dim>80</dim>
				</port>
			</output>
		</layer>
		<layer id="157" name="Constant_1613547" type="Const" version="opset1">
			<data element_type="i8" shape="256, 192, 1, 1" offset="282036" size="49152" />
			<output>
				<port id="0" precision="I8">
					<dim>256</dim>
					<dim>192</dim>
					<dim>1</dim>
					<dim>1</dim>
				</port>
			</output>
		</layer>
		<layer id="158" name="Convert_1613548" type="Convert" version="opset1">
			<data destination_type="f16" />
			<input>
				<port id="0" precision="I8">
					<dim>256</dim>
					<dim>192</dim>
					<dim>1</dim>
					<dim>1</dim>
				</port>
			</input>
			<output>
				<port id="1" precision="FP16">
					<dim>256</dim>
					<dim>192</dim>
					<dim>1</dim>
					<dim>1</dim>
				</port>
			</output>
		</layer>
		<layer id="159" name="Constant_1613549" type="Const" version="opset1">
			<data element_type="f16" shape="256, 1, 1, 1" offset="331188" size="512" />
			<output>
				<port id="0" precision="FP16">
					<dim>256</dim>
					<dim>1</dim>
					<dim>1</dim>
					<dim>1</dim>
				</port>
			</output>
		</layer>
		<layer id="160" name="/model.4/cv2/conv/Conv/WithoutBiases/fq_weights_1" type="Multiply" version="opset1">
			<data auto_broadcast="numpy" />
			<input>
				<port id="0" precision="FP16">
					<dim>256</dim>
					<dim>192</dim>
					<dim>1</dim>
					<dim>1</dim>
				</port>
				<port id="1" precision="FP16">
					<dim>256</dim>
					<dim>1</dim>
					<dim>1</dim>
					<dim>1</dim>
				</port>
			</input>
			<output>
				<port id="2" precision="FP16">
					<dim>256</dim>
					<dim>192</dim>
					<dim>1</dim>
					<dim>1</dim>
				</port>
			</output>
		</layer>
		<layer id="161" name="/model.4/cv2/conv/Conv/WithoutBiases" type="Convolution" version="opset1">
			<data strides="1, 1" dilations="1, 1" pads_begin="0, 0" pads_end="0, 0" auto_pad="explicit" />
			<input>
				<port id="0" precision="FP16">
					<dim>1</dim>
					<dim>192</dim>
					<dim>80</dim>
					<dim>80</dim>
				</port>
				<port id="1" precision="FP16">
					<dim>256</dim>
					<dim>192</dim>
					<dim>1</dim>
					<dim>1</dim>
				</port>
			</input>
			<output>
				<port id="2" precision="FP16">
					<dim>1</dim>
					<dim>256</dim>
					<dim>80</dim>
					<dim>80</dim>
				</port>
			</output>
		</layer>
		<layer id="162" name="Reshape_1056274" type="Const" version="opset1">
			<data element_type="f16" shape="1, 256, 1, 1" offset="331700" size="512" />
			<output>
				<port id="0" precision="FP16">
					<dim>1</dim>
					<dim>256</dim>
					<dim>1</dim>
					<dim>1</dim>
				</port>
			</output>
		</layer>
		<layer id="163" name="/model.4/cv2/conv/Conv" type="Add" version="opset1">
			<data auto_broadcast="numpy" />
			<input>
				<port id="0" precision="FP16">
					<dim>1</dim>
					<dim>256</dim>
					<dim>80</dim>
					<dim>80</dim>
				</port>
				<port id="1" precision="FP16">
					<dim>1</dim>
					<dim>256</dim>
					<dim>1</dim>
					<dim>1</dim>
				</port>
			</input>
			<output>
				<port id="2" precision="FP16" names="/model.4/cv2/conv/Conv_output_0">
					<dim>1</dim>
					<dim>256</dim>
					<dim>80</dim>
					<dim>80</dim>
				</port>
			</output>
		</layer>
		<layer id="164" name="/model.4/cv2/act/Mul" type="Swish" version="opset4">
			<input>
				<port id="0" precision="FP16">
					<dim>1</dim>
					<dim>256</dim>
					<dim>80</dim>
					<dim>80</dim>
				</port>
			</input>
			<output>
				<port id="1" precision="FP16" names="/model.4/cv2/act/Mul_output_0">
					<dim>1</dim>
					<dim>256</dim>
					<dim>80</dim>
					<dim>80</dim>
				</port>
			</output>
		</layer>
		<layer id="165" name="/model.4/cv2/act/Mul/fq_output_0/input_low" type="Const" version="opset1">
			<data element_type="f16" shape="" offset="332212" size="2" />
			<output>
				<port id="0" precision="FP16" />
			</output>
		</layer>
		<layer id="166" name="/model.4/cv2/act/Mul/fq_output_0/input_high" type="Const" version="opset1">
			<data element_type="f16" shape="" offset="332214" size="2" />
			<output>
				<port id="0" precision="FP16" />
			</output>
		</layer>
		<layer id="167" name="/model.4/cv2/act/Mul/fq_output_0/output_low" type="Const" version="opset1">
			<data element_type="f16" shape="" offset="332212" size="2" />
			<output>
				<port id="0" precision="FP16" />
			</output>
		</layer>
		<layer id="168" name="/model.4/cv2/act/Mul/fq_output_0/output_high" type="Const" version="opset1">
			<data element_type="f16" shape="" offset="332214" size="2" />
			<output>
				<port id="0" precision="FP16" />
			</output>
		</layer>
		<layer id="169" name="/model.4/cv2/act/Mul/fq_output_0" type="FakeQuantize" version="opset1">
			<data levels="256" auto_broadcast="numpy" />
			<input>
				<port id="0" precision="FP16">
					<dim>1</dim>
					<dim>256</dim>
					<dim>80</dim>
					<dim>80</dim>
				</port>
				<port id="1" precision="FP16" />
				<port id="2" precision="FP16" />
				<port id="3" precision="FP16" />
				<port id="4" precision="FP16" />
			</input>
			<output>
				<port id="5" precision="FP16">
					<dim>1</dim>
					<dim>256</dim>
					<dim>80</dim>
					<dim>80</dim>
				</port>
			</output>
		</layer>
		<layer id="170" name="Constant_1613551" type="Const" version="opset1">
			<data element_type="i8" shape="256, 256, 3, 3" offset="332216" size="589824" />
			<output>
				<port id="0" precision="I8">
					<dim>256</dim>
					<dim>256</dim>
					<dim>3</dim>
					<dim>3</dim>
				</port>
			</output>
		</layer>
		<layer id="171" name="Convert_1613552" type="Convert" version="opset1">
			<data destination_type="f16" />
			<input>
				<port id="0" precision="I8">
					<dim>256</dim>
					<dim>256</dim>
					<dim>3</dim>
					<dim>3</dim>
				</port>
			</input>
			<output>
				<port id="1" precision="FP16">
					<dim>256</dim>
					<dim>256</dim>
					<dim>3</dim>
					<dim>3</dim>
				</port>
			</output>
		</layer>
		<layer id="172" name="Constant_1613553" type="Const" version="opset1">
			<data element_type="f16" shape="256, 1, 1, 1" offset="922040" size="512" />
			<output>
				<port id="0" precision="FP16">
					<dim>256</dim>
					<dim>1</dim>
					<dim>1</dim>
					<dim>1</dim>
				</port>
			</output>
		</layer>
		<layer id="173" name="/model.5/conv/Conv/WithoutBiases/fq_weights_1" type="Multiply" version="opset1">
			<data auto_broadcast="numpy" />
			<input>
				<port id="0" precision="FP16">
					<dim>256</dim>
					<dim>256</dim>
					<dim>3</dim>
					<dim>3</dim>
				</port>
				<port id="1" precision="FP16">
					<dim>256</dim>
					<dim>1</dim>
					<dim>1</dim>
					<dim>1</dim>
				</port>
			</input>
			<output>
				<port id="2" precision="FP16">
					<dim>256</dim>
					<dim>256</dim>
					<dim>3</dim>
					<dim>3</dim>
				</port>
			</output>
		</layer>
		<layer id="174" name="/model.5/conv/Conv/WithoutBiases" type="Convolution" version="opset1">
			<data strides="2, 2" dilations="1, 1" pads_begin="1, 1" pads_end="1, 1" auto_pad="explicit" />
			<input>
				<port id="0" precision="FP16">
					<dim>1</dim>
					<dim>256</dim>
					<dim>80</dim>
					<dim>80</dim>
				</port>
				<port id="1" precision="FP16">
					<dim>256</dim>
					<dim>256</dim>
					<dim>3</dim>
					<dim>3</dim>
				</port>
			</input>
			<output>
				<port id="2" precision="FP16">
					<dim>1</dim>
					<dim>256</dim>
					<dim>40</dim>
					<dim>40</dim>
				</port>
			</output>
		</layer>
		<layer id="175" name="Reshape_1056289" type="Const" version="opset1">
			<data element_type="f16" shape="1, 256, 1, 1" offset="922552" size="512" />
			<output>
				<port id="0" precision="FP16">
					<dim>1</dim>
					<dim>256</dim>
					<dim>1</dim>
					<dim>1</dim>
				</port>
			</output>
		</layer>
		<layer id="176" name="/model.5/conv/Conv" type="Add" version="opset1">
			<data auto_broadcast="numpy" />
			<input>
				<port id="0" precision="FP16">
					<dim>1</dim>
					<dim>256</dim>
					<dim>40</dim>
					<dim>40</dim>
				</port>
				<port id="1" precision="FP16">
					<dim>1</dim>
					<dim>256</dim>
					<dim>1</dim>
					<dim>1</dim>
				</port>
			</input>
			<output>
				<port id="2" precision="FP16" names="/model.5/conv/Conv_output_0">
					<dim>1</dim>
					<dim>256</dim>
					<dim>40</dim>
					<dim>40</dim>
				</port>
			</output>
		</layer>
		<layer id="177" name="/model.5/act/Mul" type="Swish" version="opset4">
			<input>
				<port id="0" precision="FP16">
					<dim>1</dim>
					<dim>256</dim>
					<dim>40</dim>
					<dim>40</dim>
				</port>
			</input>
			<output>
				<port id="1" precision="FP16" names="/model.5/act/Mul_output_0">
					<dim>1</dim>
					<dim>256</dim>
					<dim>40</dim>
					<dim>40</dim>
				</port>
			</output>
		</layer>
		<layer id="178" name="/model.5/act/Mul/fq_output_0/input_low" type="Const" version="opset1">
			<data element_type="f16" shape="" offset="923064" size="2" />
			<output>
				<port id="0" precision="FP16" />
			</output>
		</layer>
		<layer id="179" name="/model.5/act/Mul/fq_output_0/input_high" type="Const" version="opset1">
			<data element_type="f16" shape="" offset="923066" size="2" />
			<output>
				<port id="0" precision="FP16" />
			</output>
		</layer>
		<layer id="180" name="/model.5/act/Mul/fq_output_0/output_low" type="Const" version="opset1">
			<data element_type="f16" shape="" offset="923064" size="2" />
			<output>
				<port id="0" precision="FP16" />
			</output>
		</layer>
		<layer id="181" name="/model.5/act/Mul/fq_output_0/output_high" type="Const" version="opset1">
			<data element_type="f16" shape="" offset="923066" size="2" />
			<output>
				<port id="0" precision="FP16" />
			</output>
		</layer>
		<layer id="182" name="/model.5/act/Mul/fq_output_0" type="FakeQuantize" version="opset1">
			<data levels="256" auto_broadcast="numpy" />
			<input>
				<port id="0" precision="FP16">
					<dim>1</dim>
					<dim>256</dim>
					<dim>40</dim>
					<dim>40</dim>
				</port>
				<port id="1" precision="FP16" />
				<port id="2" precision="FP16" />
				<port id="3" precision="FP16" />
				<port id="4" precision="FP16" />
			</input>
			<output>
				<port id="5" precision="FP16">
					<dim>1</dim>
					<dim>256</dim>
					<dim>40</dim>
					<dim>40</dim>
				</port>
			</output>
		</layer>
		<layer id="183" name="Constant_1613555" type="Const" version="opset1">
			<data element_type="i8" shape="256, 256, 1, 1" offset="923068" size="65536" />
			<output>
				<port id="0" precision="I8">
					<dim>256</dim>
					<dim>256</dim>
					<dim>1</dim>
					<dim>1</dim>
				</port>
			</output>
		</layer>
		<layer id="184" name="Convert_1613556" type="Convert" version="opset1">
			<data destination_type="f16" />
			<input>
				<port id="0" precision="I8">
					<dim>256</dim>
					<dim>256</dim>
					<dim>1</dim>
					<dim>1</dim>
				</port>
			</input>
			<output>
				<port id="1" precision="FP16">
					<dim>256</dim>
					<dim>256</dim>
					<dim>1</dim>
					<dim>1</dim>
				</port>
			</output>
		</layer>
		<layer id="185" name="Constant_1613557" type="Const" version="opset1">
			<data element_type="f16" shape="256, 1, 1, 1" offset="988604" size="512" />
			<output>
				<port id="0" precision="FP16">
					<dim>256</dim>
					<dim>1</dim>
					<dim>1</dim>
					<dim>1</dim>
				</port>
			</output>
		</layer>
		<layer id="186" name="/model.6/cv1/conv/Conv/WithoutBiases/fq_weights_1" type="Multiply" version="opset1">
			<data auto_broadcast="numpy" />
			<input>
				<port id="0" precision="FP16">
					<dim>256</dim>
					<dim>256</dim>
					<dim>1</dim>
					<dim>1</dim>
				</port>
				<port id="1" precision="FP16">
					<dim>256</dim>
					<dim>1</dim>
					<dim>1</dim>
					<dim>1</dim>
				</port>
			</input>
			<output>
				<port id="2" precision="FP16">
					<dim>256</dim>
					<dim>256</dim>
					<dim>1</dim>
					<dim>1</dim>
				</port>
			</output>
		</layer>
		<layer id="187" name="/model.6/cv1/conv/Conv/WithoutBiases" type="Convolution" version="opset1">
			<data strides="1, 1" dilations="1, 1" pads_begin="0, 0" pads_end="0, 0" auto_pad="explicit" />
			<input>
				<port id="0" precision="FP16">
					<dim>1</dim>
					<dim>256</dim>
					<dim>40</dim>
					<dim>40</dim>
				</port>
				<port id="1" precision="FP16">
					<dim>256</dim>
					<dim>256</dim>
					<dim>1</dim>
					<dim>1</dim>
				</port>
			</input>
			<output>
				<port id="2" precision="FP16">
					<dim>1</dim>
					<dim>256</dim>
					<dim>40</dim>
					<dim>40</dim>
				</port>
			</output>
		</layer>
		<layer id="188" name="Reshape_1056304" type="Const" version="opset1">
			<data element_type="f16" shape="1, 256, 1, 1" offset="989116" size="512" />
			<output>
				<port id="0" precision="FP16">
					<dim>1</dim>
					<dim>256</dim>
					<dim>1</dim>
					<dim>1</dim>
				</port>
			</output>
		</layer>
		<layer id="189" name="/model.6/cv1/conv/Conv" type="Add" version="opset1">
			<data auto_broadcast="numpy" />
			<input>
				<port id="0" precision="FP16">
					<dim>1</dim>
					<dim>256</dim>
					<dim>40</dim>
					<dim>40</dim>
				</port>
				<port id="1" precision="FP16">
					<dim>1</dim>
					<dim>256</dim>
					<dim>1</dim>
					<dim>1</dim>
				</port>
			</input>
			<output>
				<port id="2" precision="FP16" names="/model.6/cv1/conv/Conv_output_0">
					<dim>1</dim>
					<dim>256</dim>
					<dim>40</dim>
					<dim>40</dim>
				</port>
			</output>
		</layer>
		<layer id="190" name="/model.6/cv1/act/Mul" type="Swish" version="opset4">
			<input>
				<port id="0" precision="FP16">
					<dim>1</dim>
					<dim>256</dim>
					<dim>40</dim>
					<dim>40</dim>
				</port>
			</input>
			<output>
				<port id="1" precision="FP16" names="/model.6/cv1/act/Mul_output_0">
					<dim>1</dim>
					<dim>256</dim>
					<dim>40</dim>
					<dim>40</dim>
				</port>
			</output>
		</layer>
		<layer id="191" name="/model.6/cv1/act/Mul/fq_output_0/input_low" type="Const" version="opset1">
			<data element_type="f16" shape="" offset="989628" size="2" />
			<output>
				<port id="0" precision="FP16" />
			</output>
		</layer>
		<layer id="192" name="/model.6/cv1/act/Mul/fq_output_0/input_high" type="Const" version="opset1">
			<data element_type="f16" shape="" offset="989630" size="2" />
			<output>
				<port id="0" precision="FP16" />
			</output>
		</layer>
		<layer id="193" name="/model.6/cv1/act/Mul/fq_output_0/output_low" type="Const" version="opset1">
			<data element_type="f16" shape="" offset="989628" size="2" />
			<output>
				<port id="0" precision="FP16" />
			</output>
		</layer>
		<layer id="194" name="/model.6/cv1/act/Mul/fq_output_0/output_high" type="Const" version="opset1">
			<data element_type="f16" shape="" offset="989630" size="2" />
			<output>
				<port id="0" precision="FP16" />
			</output>
		</layer>
		<layer id="195" name="/model.6/cv1/act/Mul/fq_output_0" type="FakeQuantize" version="opset1">
			<data levels="256" auto_broadcast="numpy" />
			<input>
				<port id="0" precision="FP16">
					<dim>1</dim>
					<dim>256</dim>
					<dim>40</dim>
					<dim>40</dim>
				</port>
				<port id="1" precision="FP16" />
				<port id="2" precision="FP16" />
				<port id="3" precision="FP16" />
				<port id="4" precision="FP16" />
			</input>
			<output>
				<port id="5" precision="FP16">
					<dim>1</dim>
					<dim>256</dim>
					<dim>40</dim>
					<dim>40</dim>
				</port>
			</output>
		</layer>
		<layer id="196" name="Constant_1056308" type="Const" version="opset1">
			<data element_type="i64" shape="" offset="57648" size="8" />
			<output>
				<port id="0" precision="I64" />
			</output>
		</layer>
		<layer id="197" name="onnx::Split_255" type="Const" version="opset1">
			<data element_type="i64" shape="2" offset="989632" size="16" />
			<output>
				<port id="0" precision="I64" names="onnx::Split_255">
					<dim>2</dim>
				</port>
			</output>
		</layer>
		<layer id="198" name="/model.6/Split" type="VariadicSplit" version="opset1">
			<input>
				<port id="0" precision="FP16">
					<dim>1</dim>
					<dim>256</dim>
					<dim>40</dim>
					<dim>40</dim>
				</port>
				<port id="1" precision="I64" />
				<port id="2" precision="I64">
					<dim>2</dim>
				</port>
			</input>
			<output>
				<port id="3" precision="FP16" names="/model.6/Split_output_0">
					<dim>1</dim>
					<dim>128</dim>
					<dim>40</dim>
					<dim>40</dim>
				</port>
				<port id="4" precision="FP16" names="/model.6/Split_output_1">
					<dim>1</dim>
					<dim>128</dim>
					<dim>40</dim>
					<dim>40</dim>
				</port>
			</output>
		</layer>
		<layer id="199" name="Constant_1613559" type="Const" version="opset1">
			<data element_type="i8" shape="64, 128, 1, 1" offset="989648" size="8192" />
			<output>
				<port id="0" precision="I8">
					<dim>64</dim>
					<dim>128</dim>
					<dim>1</dim>
					<dim>1</dim>
				</port>
			</output>
		</layer>
		<layer id="200" name="Convert_1613560" type="Convert" version="opset1">
			<data destination_type="f16" />
			<input>
				<port id="0" precision="I8">
					<dim>64</dim>
					<dim>128</dim>
					<dim>1</dim>
					<dim>1</dim>
				</port>
			</input>
			<output>
				<port id="1" precision="FP16">
					<dim>64</dim>
					<dim>128</dim>
					<dim>1</dim>
					<dim>1</dim>
				</port>
			</output>
		</layer>
		<layer id="201" name="Constant_1613561" type="Const" version="opset1">
			<data element_type="f16" shape="64, 1, 1, 1" offset="997840" size="128" />
			<output>
				<port id="0" precision="FP16">
					<dim>64</dim>
					<dim>1</dim>
					<dim>1</dim>
					<dim>1</dim>
				</port>
			</output>
		</layer>
		<layer id="202" name="/model.6/m.0/cv1/conv/Conv/WithoutBiases/fq_weights_1" type="Multiply" version="opset1">
			<data auto_broadcast="numpy" />
			<input>
				<port id="0" precision="FP16">
					<dim>64</dim>
					<dim>128</dim>
					<dim>1</dim>
					<dim>1</dim>
				</port>
				<port id="1" precision="FP16">
					<dim>64</dim>
					<dim>1</dim>
					<dim>1</dim>
					<dim>1</dim>
				</port>
			</input>
			<output>
				<port id="2" precision="FP16">
					<dim>64</dim>
					<dim>128</dim>
					<dim>1</dim>
					<dim>1</dim>
				</port>
			</output>
		</layer>
		<layer id="203" name="/model.6/m.0/cv1/conv/Conv/WithoutBiases" type="Convolution" version="opset1">
			<data strides="1, 1" dilations="1, 1" pads_begin="0, 0" pads_end="0, 0" auto_pad="explicit" />
			<input>
				<port id="0" precision="FP16">
					<dim>1</dim>
					<dim>128</dim>
					<dim>40</dim>
					<dim>40</dim>
				</port>
				<port id="1" precision="FP16">
					<dim>64</dim>
					<dim>128</dim>
					<dim>1</dim>
					<dim>1</dim>
				</port>
			</input>
			<output>
				<port id="2" precision="FP16">
					<dim>1</dim>
					<dim>64</dim>
					<dim>40</dim>
					<dim>40</dim>
				</port>
			</output>
		</layer>
		<layer id="204" name="Reshape_1056321" type="Const" version="opset1">
			<data element_type="f16" shape="1, 64, 1, 1" offset="997968" size="128" />
			<output>
				<port id="0" precision="FP16">
					<dim>1</dim>
					<dim>64</dim>
					<dim>1</dim>
					<dim>1</dim>
				</port>
			</output>
		</layer>
		<layer id="205" name="/model.6/m.0/cv1/conv/Conv" type="Add" version="opset1">
			<data auto_broadcast="numpy" />
			<input>
				<port id="0" precision="FP16">
					<dim>1</dim>
					<dim>64</dim>
					<dim>40</dim>
					<dim>40</dim>
				</port>
				<port id="1" precision="FP16">
					<dim>1</dim>
					<dim>64</dim>
					<dim>1</dim>
					<dim>1</dim>
				</port>
			</input>
			<output>
				<port id="2" precision="FP16" names="/model.6/m.0/cv1/conv/Conv_output_0">
					<dim>1</dim>
					<dim>64</dim>
					<dim>40</dim>
					<dim>40</dim>
				</port>
			</output>
		</layer>
		<layer id="206" name="/model.6/m.0/cv1/act/Mul" type="Swish" version="opset4">
			<input>
				<port id="0" precision="FP16">
					<dim>1</dim>
					<dim>64</dim>
					<dim>40</dim>
					<dim>40</dim>
				</port>
			</input>
			<output>
				<port id="1" precision="FP16" names="/model.6/m.0/cv1/act/Mul_output_0">
					<dim>1</dim>
					<dim>64</dim>
					<dim>40</dim>
					<dim>40</dim>
				</port>
			</output>
		</layer>
		<layer id="207" name="/model.6/m.0/cv1/act/Mul/fq_output_0/input_low" type="Const" version="opset1">
			<data element_type="f16" shape="" offset="998096" size="2" />
			<output>
				<port id="0" precision="FP16" />
			</output>
		</layer>
		<layer id="208" name="/model.6/m.0/cv1/act/Mul/fq_output_0/input_high" type="Const" version="opset1">
			<data element_type="f16" shape="" offset="998098" size="2" />
			<output>
				<port id="0" precision="FP16" />
			</output>
		</layer>
		<layer id="209" name="/model.6/m.0/cv1/act/Mul/fq_output_0/output_low" type="Const" version="opset1">
			<data element_type="f16" shape="" offset="998096" size="2" />
			<output>
				<port id="0" precision="FP16" />
			</output>
		</layer>
		<layer id="210" name="/model.6/m.0/cv1/act/Mul/fq_output_0/output_high" type="Const" version="opset1">
			<data element_type="f16" shape="" offset="998098" size="2" />
			<output>
				<port id="0" precision="FP16" />
			</output>
		</layer>
		<layer id="211" name="/model.6/m.0/cv1/act/Mul/fq_output_0" type="FakeQuantize" version="opset1">
			<data levels="256" auto_broadcast="numpy" />
			<input>
				<port id="0" precision="FP16">
					<dim>1</dim>
					<dim>64</dim>
					<dim>40</dim>
					<dim>40</dim>
				</port>
				<port id="1" precision="FP16" />
				<port id="2" precision="FP16" />
				<port id="3" precision="FP16" />
				<port id="4" precision="FP16" />
			</input>
			<output>
				<port id="5" precision="FP16">
					<dim>1</dim>
					<dim>64</dim>
					<dim>40</dim>
					<dim>40</dim>
				</port>
			</output>
		</layer>
		<layer id="212" name="Constant_1613563" type="Const" version="opset1">
			<data element_type="i8" shape="64, 64, 3, 3" offset="998100" size="36864" />
			<output>
				<port id="0" precision="I8">
					<dim>64</dim>
					<dim>64</dim>
					<dim>3</dim>
					<dim>3</dim>
				</port>
			</output>
		</layer>
		<layer id="213" name="Convert_1613564" type="Convert" version="opset1">
			<data destination_type="f16" />
			<input>
				<port id="0" precision="I8">
					<dim>64</dim>
					<dim>64</dim>
					<dim>3</dim>
					<dim>3</dim>
				</port>
			</input>
			<output>
				<port id="1" precision="FP16">
					<dim>64</dim>
					<dim>64</dim>
					<dim>3</dim>
					<dim>3</dim>
				</port>
			</output>
		</layer>
		<layer id="214" name="Constant_1613565" type="Const" version="opset1">
			<data element_type="f16" shape="64, 1, 1, 1" offset="1034964" size="128" />
			<output>
				<port id="0" precision="FP16">
					<dim>64</dim>
					<dim>1</dim>
					<dim>1</dim>
					<dim>1</dim>
				</port>
			</output>
		</layer>
		<layer id="215" name="/model.6/m.0/m/m.0/cv1/conv/Conv/WithoutBiases/fq_weights_1" type="Multiply" version="opset1">
			<data auto_broadcast="numpy" />
			<input>
				<port id="0" precision="FP16">
					<dim>64</dim>
					<dim>64</dim>
					<dim>3</dim>
					<dim>3</dim>
				</port>
				<port id="1" precision="FP16">
					<dim>64</dim>
					<dim>1</dim>
					<dim>1</dim>
					<dim>1</dim>
				</port>
			</input>
			<output>
				<port id="2" precision="FP16">
					<dim>64</dim>
					<dim>64</dim>
					<dim>3</dim>
					<dim>3</dim>
				</port>
			</output>
		</layer>
		<layer id="216" name="/model.6/m.0/m/m.0/cv1/conv/Conv/WithoutBiases" type="Convolution" version="opset1">
			<data strides="1, 1" dilations="1, 1" pads_begin="1, 1" pads_end="1, 1" auto_pad="explicit" />
			<input>
				<port id="0" precision="FP16">
					<dim>1</dim>
					<dim>64</dim>
					<dim>40</dim>
					<dim>40</dim>
				</port>
				<port id="1" precision="FP16">
					<dim>64</dim>
					<dim>64</dim>
					<dim>3</dim>
					<dim>3</dim>
				</port>
			</input>
			<output>
				<port id="2" precision="FP16">
					<dim>1</dim>
					<dim>64</dim>
					<dim>40</dim>
					<dim>40</dim>
				</port>
			</output>
		</layer>
		<layer id="217" name="Reshape_1056351" type="Const" version="opset1">
			<data element_type="f16" shape="1, 64, 1, 1" offset="1035092" size="128" />
			<output>
				<port id="0" precision="FP16">
					<dim>1</dim>
					<dim>64</dim>
					<dim>1</dim>
					<dim>1</dim>
				</port>
			</output>
		</layer>
		<layer id="218" name="/model.6/m.0/m/m.0/cv1/conv/Conv" type="Add" version="opset1">
			<data auto_broadcast="numpy" />
			<input>
				<port id="0" precision="FP16">
					<dim>1</dim>
					<dim>64</dim>
					<dim>40</dim>
					<dim>40</dim>
				</port>
				<port id="1" precision="FP16">
					<dim>1</dim>
					<dim>64</dim>
					<dim>1</dim>
					<dim>1</dim>
				</port>
			</input>
			<output>
				<port id="2" precision="FP16" names="/model.6/m.0/m/m.0/cv1/conv/Conv_output_0">
					<dim>1</dim>
					<dim>64</dim>
					<dim>40</dim>
					<dim>40</dim>
				</port>
			</output>
		</layer>
		<layer id="219" name="/model.6/m.0/m/m.0/cv1/act/Mul" type="Swish" version="opset4">
			<input>
				<port id="0" precision="FP16">
					<dim>1</dim>
					<dim>64</dim>
					<dim>40</dim>
					<dim>40</dim>
				</port>
			</input>
			<output>
				<port id="1" precision="FP16" names="/model.6/m.0/m/m.0/cv1/act/Mul_output_0">
					<dim>1</dim>
					<dim>64</dim>
					<dim>40</dim>
					<dim>40</dim>
				</port>
			</output>
		</layer>
		<layer id="220" name="/model.6/m.0/m/m.0/cv1/act/Mul/fq_output_0/input_low" type="Const" version="opset1">
			<data element_type="f16" shape="" offset="1035220" size="2" />
			<output>
				<port id="0" precision="FP16" />
			</output>
		</layer>
		<layer id="221" name="/model.6/m.0/m/m.0/cv1/act/Mul/fq_output_0/input_high" type="Const" version="opset1">
			<data element_type="f16" shape="" offset="1035222" size="2" />
			<output>
				<port id="0" precision="FP16" />
			</output>
		</layer>
		<layer id="222" name="/model.6/m.0/m/m.0/cv1/act/Mul/fq_output_0/output_low" type="Const" version="opset1">
			<data element_type="f16" shape="" offset="1035220" size="2" />
			<output>
				<port id="0" precision="FP16" />
			</output>
		</layer>
		<layer id="223" name="/model.6/m.0/m/m.0/cv1/act/Mul/fq_output_0/output_high" type="Const" version="opset1">
			<data element_type="f16" shape="" offset="1035222" size="2" />
			<output>
				<port id="0" precision="FP16" />
			</output>
		</layer>
		<layer id="224" name="/model.6/m.0/m/m.0/cv1/act/Mul/fq_output_0" type="FakeQuantize" version="opset1">
			<data levels="256" auto_broadcast="numpy" />
			<input>
				<port id="0" precision="FP16">
					<dim>1</dim>
					<dim>64</dim>
					<dim>40</dim>
					<dim>40</dim>
				</port>
				<port id="1" precision="FP16" />
				<port id="2" precision="FP16" />
				<port id="3" precision="FP16" />
				<port id="4" precision="FP16" />
			</input>
			<output>
				<port id="5" precision="FP16">
					<dim>1</dim>
					<dim>64</dim>
					<dim>40</dim>
					<dim>40</dim>
				</port>
			</output>
		</layer>
		<layer id="225" name="Constant_1613567" type="Const" version="opset1">
			<data element_type="i8" shape="64, 64, 3, 3" offset="1035224" size="36864" />
			<output>
				<port id="0" precision="I8">
					<dim>64</dim>
					<dim>64</dim>
					<dim>3</dim>
					<dim>3</dim>
				</port>
			</output>
		</layer>
		<layer id="226" name="Convert_1613568" type="Convert" version="opset1">
			<data destination_type="f16" />
			<input>
				<port id="0" precision="I8">
					<dim>64</dim>
					<dim>64</dim>
					<dim>3</dim>
					<dim>3</dim>
				</port>
			</input>
			<output>
				<port id="1" precision="FP16">
					<dim>64</dim>
					<dim>64</dim>
					<dim>3</dim>
					<dim>3</dim>
				</port>
			</output>
		</layer>
		<layer id="227" name="Constant_1613569" type="Const" version="opset1">
			<data element_type="f16" shape="64, 1, 1, 1" offset="1072088" size="128" />
			<output>
				<port id="0" precision="FP16">
					<dim>64</dim>
					<dim>1</dim>
					<dim>1</dim>
					<dim>1</dim>
				</port>
			</output>
		</layer>
		<layer id="228" name="/model.6/m.0/m/m.0/cv2/conv/Conv/WithoutBiases/fq_weights_1" type="Multiply" version="opset1">
			<data auto_broadcast="numpy" />
			<input>
				<port id="0" precision="FP16">
					<dim>64</dim>
					<dim>64</dim>
					<dim>3</dim>
					<dim>3</dim>
				</port>
				<port id="1" precision="FP16">
					<dim>64</dim>
					<dim>1</dim>
					<dim>1</dim>
					<dim>1</dim>
				</port>
			</input>
			<output>
				<port id="2" precision="FP16">
					<dim>64</dim>
					<dim>64</dim>
					<dim>3</dim>
					<dim>3</dim>
				</port>
			</output>
		</layer>
		<layer id="229" name="/model.6/m.0/m/m.0/cv2/conv/Conv/WithoutBiases" type="Convolution" version="opset1">
			<data strides="1, 1" dilations="1, 1" pads_begin="1, 1" pads_end="1, 1" auto_pad="explicit" />
			<input>
				<port id="0" precision="FP16">
					<dim>1</dim>
					<dim>64</dim>
					<dim>40</dim>
					<dim>40</dim>
				</port>
				<port id="1" precision="FP16">
					<dim>64</dim>
					<dim>64</dim>
					<dim>3</dim>
					<dim>3</dim>
				</port>
			</input>
			<output>
				<port id="2" precision="FP16">
					<dim>1</dim>
					<dim>64</dim>
					<dim>40</dim>
					<dim>40</dim>
				</port>
			</output>
		</layer>
		<layer id="230" name="Reshape_1056366" type="Const" version="opset1">
			<data element_type="f16" shape="1, 64, 1, 1" offset="1072216" size="128" />
			<output>
				<port id="0" precision="FP16">
					<dim>1</dim>
					<dim>64</dim>
					<dim>1</dim>
					<dim>1</dim>
				</port>
			</output>
		</layer>
		<layer id="231" name="/model.6/m.0/m/m.0/cv2/conv/Conv" type="Add" version="opset1">
			<data auto_broadcast="numpy" />
			<input>
				<port id="0" precision="FP16">
					<dim>1</dim>
					<dim>64</dim>
					<dim>40</dim>
					<dim>40</dim>
				</port>
				<port id="1" precision="FP16">
					<dim>1</dim>
					<dim>64</dim>
					<dim>1</dim>
					<dim>1</dim>
				</port>
			</input>
			<output>
				<port id="2" precision="FP16" names="/model.6/m.0/m/m.0/cv2/conv/Conv_output_0">
					<dim>1</dim>
					<dim>64</dim>
					<dim>40</dim>
					<dim>40</dim>
				</port>
			</output>
		</layer>
		<layer id="232" name="/model.6/m.0/m/m.0/cv2/act/Mul" type="Swish" version="opset4">
			<input>
				<port id="0" precision="FP16">
					<dim>1</dim>
					<dim>64</dim>
					<dim>40</dim>
					<dim>40</dim>
				</port>
			</input>
			<output>
				<port id="1" precision="FP16" names="/model.6/m.0/m/m.0/cv2/act/Mul_output_0">
					<dim>1</dim>
					<dim>64</dim>
					<dim>40</dim>
					<dim>40</dim>
				</port>
			</output>
		</layer>
		<layer id="233" name="/model.6/m.0/m/m.0/cv2/act/Mul/fq_output_0/input_low" type="Const" version="opset1">
			<data element_type="f16" shape="" offset="1072344" size="2" />
			<output>
				<port id="0" precision="FP16" />
			</output>
		</layer>
		<layer id="234" name="/model.6/m.0/m/m.0/cv2/act/Mul/fq_output_0/input_high" type="Const" version="opset1">
			<data element_type="f16" shape="" offset="1072346" size="2" />
			<output>
				<port id="0" precision="FP16" />
			</output>
		</layer>
		<layer id="235" name="/model.6/m.0/m/m.0/cv2/act/Mul/fq_output_0/output_low" type="Const" version="opset1">
			<data element_type="f16" shape="" offset="1072344" size="2" />
			<output>
				<port id="0" precision="FP16" />
			</output>
		</layer>
		<layer id="236" name="/model.6/m.0/m/m.0/cv2/act/Mul/fq_output_0/output_high" type="Const" version="opset1">
			<data element_type="f16" shape="" offset="1072346" size="2" />
			<output>
				<port id="0" precision="FP16" />
			</output>
		</layer>
		<layer id="237" name="/model.6/m.0/m/m.0/cv2/act/Mul/fq_output_0" type="FakeQuantize" version="opset1">
			<data levels="256" auto_broadcast="numpy" />
			<input>
				<port id="0" precision="FP16">
					<dim>1</dim>
					<dim>64</dim>
					<dim>40</dim>
					<dim>40</dim>
				</port>
				<port id="1" precision="FP16" />
				<port id="2" precision="FP16" />
				<port id="3" precision="FP16" />
				<port id="4" precision="FP16" />
			</input>
			<output>
				<port id="5" precision="FP16">
					<dim>1</dim>
					<dim>64</dim>
					<dim>40</dim>
					<dim>40</dim>
				</port>
			</output>
		</layer>
		<layer id="238" name="/model.6/m.0/m/m.0/Add" type="Add" version="opset1">
			<data auto_broadcast="numpy" />
			<input>
				<port id="0" precision="FP16">
					<dim>1</dim>
					<dim>64</dim>
					<dim>40</dim>
					<dim>40</dim>
				</port>
				<port id="1" precision="FP16">
					<dim>1</dim>
					<dim>64</dim>
					<dim>40</dim>
					<dim>40</dim>
				</port>
			</input>
			<output>
				<port id="2" precision="FP16" names="/model.6/m.0/m/m.0/Add_output_0">
					<dim>1</dim>
					<dim>64</dim>
					<dim>40</dim>
					<dim>40</dim>
				</port>
			</output>
		</layer>
		<layer id="239" name="/model.6/m.0/m/m.0/Add/fq_output_0/input_low" type="Const" version="opset1">
			<data element_type="f16" shape="" offset="1072348" size="2" />
			<output>
				<port id="0" precision="FP16" />
			</output>
		</layer>
		<layer id="240" name="/model.6/m.0/m/m.0/Add/fq_output_0/input_high" type="Const" version="opset1">
			<data element_type="f16" shape="" offset="1072350" size="2" />
			<output>
				<port id="0" precision="FP16" />
			</output>
		</layer>
		<layer id="241" name="/model.6/m.0/m/m.0/Add/fq_output_0/output_low" type="Const" version="opset1">
			<data element_type="f16" shape="" offset="1072348" size="2" />
			<output>
				<port id="0" precision="FP16" />
			</output>
		</layer>
		<layer id="242" name="/model.6/m.0/m/m.0/Add/fq_output_0/output_high" type="Const" version="opset1">
			<data element_type="f16" shape="" offset="1072350" size="2" />
			<output>
				<port id="0" precision="FP16" />
			</output>
		</layer>
		<layer id="243" name="/model.6/m.0/m/m.0/Add/fq_output_0" type="FakeQuantize" version="opset1">
			<data levels="256" auto_broadcast="numpy" />
			<input>
				<port id="0" precision="FP16">
					<dim>1</dim>
					<dim>64</dim>
					<dim>40</dim>
					<dim>40</dim>
				</port>
				<port id="1" precision="FP16" />
				<port id="2" precision="FP16" />
				<port id="3" precision="FP16" />
				<port id="4" precision="FP16" />
			</input>
			<output>
				<port id="5" precision="FP16">
					<dim>1</dim>
					<dim>64</dim>
					<dim>40</dim>
					<dim>40</dim>
				</port>
			</output>
		</layer>
		<layer id="244" name="Constant_1613571" type="Const" version="opset1">
			<data element_type="i8" shape="64, 64, 3, 3" offset="1072352" size="36864" />
			<output>
				<port id="0" precision="I8">
					<dim>64</dim>
					<dim>64</dim>
					<dim>3</dim>
					<dim>3</dim>
				</port>
			</output>
		</layer>
		<layer id="245" name="Convert_1613572" type="Convert" version="opset1">
			<data destination_type="f16" />
			<input>
				<port id="0" precision="I8">
					<dim>64</dim>
					<dim>64</dim>
					<dim>3</dim>
					<dim>3</dim>
				</port>
			</input>
			<output>
				<port id="1" precision="FP16">
					<dim>64</dim>
					<dim>64</dim>
					<dim>3</dim>
					<dim>3</dim>
				</port>
			</output>
		</layer>
		<layer id="246" name="Constant_1613573" type="Const" version="opset1">
			<data element_type="f16" shape="64, 1, 1, 1" offset="1109216" size="128" />
			<output>
				<port id="0" precision="FP16">
					<dim>64</dim>
					<dim>1</dim>
					<dim>1</dim>
					<dim>1</dim>
				</port>
			</output>
		</layer>
		<layer id="247" name="/model.6/m.0/m/m.1/cv1/conv/Conv/WithoutBiases/fq_weights_1" type="Multiply" version="opset1">
			<data auto_broadcast="numpy" />
			<input>
				<port id="0" precision="FP16">
					<dim>64</dim>
					<dim>64</dim>
					<dim>3</dim>
					<dim>3</dim>
				</port>
				<port id="1" precision="FP16">
					<dim>64</dim>
					<dim>1</dim>
					<dim>1</dim>
					<dim>1</dim>
				</port>
			</input>
			<output>
				<port id="2" precision="FP16">
					<dim>64</dim>
					<dim>64</dim>
					<dim>3</dim>
					<dim>3</dim>
				</port>
			</output>
		</layer>
		<layer id="248" name="/model.6/m.0/m/m.1/cv1/conv/Conv/WithoutBiases" type="Convolution" version="opset1">
			<data strides="1, 1" dilations="1, 1" pads_begin="1, 1" pads_end="1, 1" auto_pad="explicit" />
			<input>
				<port id="0" precision="FP16">
					<dim>1</dim>
					<dim>64</dim>
					<dim>40</dim>
					<dim>40</dim>
				</port>
				<port id="1" precision="FP16">
					<dim>64</dim>
					<dim>64</dim>
					<dim>3</dim>
					<dim>3</dim>
				</port>
			</input>
			<output>
				<port id="2" precision="FP16">
					<dim>1</dim>
					<dim>64</dim>
					<dim>40</dim>
					<dim>40</dim>
				</port>
			</output>
		</layer>
		<layer id="249" name="Reshape_1056382" type="Const" version="opset1">
			<data element_type="f16" shape="1, 64, 1, 1" offset="1109344" size="128" />
			<output>
				<port id="0" precision="FP16">
					<dim>1</dim>
					<dim>64</dim>
					<dim>1</dim>
					<dim>1</dim>
				</port>
			</output>
		</layer>
		<layer id="250" name="/model.6/m.0/m/m.1/cv1/conv/Conv" type="Add" version="opset1">
			<data auto_broadcast="numpy" />
			<input>
				<port id="0" precision="FP16">
					<dim>1</dim>
					<dim>64</dim>
					<dim>40</dim>
					<dim>40</dim>
				</port>
				<port id="1" precision="FP16">
					<dim>1</dim>
					<dim>64</dim>
					<dim>1</dim>
					<dim>1</dim>
				</port>
			</input>
			<output>
				<port id="2" precision="FP16" names="/model.6/m.0/m/m.1/cv1/conv/Conv_output_0">
					<dim>1</dim>
					<dim>64</dim>
					<dim>40</dim>
					<dim>40</dim>
				</port>
			</output>
		</layer>
		<layer id="251" name="/model.6/m.0/m/m.1/cv1/act/Mul" type="Swish" version="opset4">
			<input>
				<port id="0" precision="FP16">
					<dim>1</dim>
					<dim>64</dim>
					<dim>40</dim>
					<dim>40</dim>
				</port>
			</input>
			<output>
				<port id="1" precision="FP16" names="/model.6/m.0/m/m.1/cv1/act/Mul_output_0">
					<dim>1</dim>
					<dim>64</dim>
					<dim>40</dim>
					<dim>40</dim>
				</port>
			</output>
		</layer>
		<layer id="252" name="/model.6/m.0/m/m.1/cv1/act/Mul/fq_output_0/input_low" type="Const" version="opset1">
			<data element_type="f16" shape="" offset="1109472" size="2" />
			<output>
				<port id="0" precision="FP16" />
			</output>
		</layer>
		<layer id="253" name="/model.6/m.0/m/m.1/cv1/act/Mul/fq_output_0/input_high" type="Const" version="opset1">
			<data element_type="f16" shape="" offset="1109474" size="2" />
			<output>
				<port id="0" precision="FP16" />
			</output>
		</layer>
		<layer id="254" name="/model.6/m.0/m/m.1/cv1/act/Mul/fq_output_0/output_low" type="Const" version="opset1">
			<data element_type="f16" shape="" offset="1109472" size="2" />
			<output>
				<port id="0" precision="FP16" />
			</output>
		</layer>
		<layer id="255" name="/model.6/m.0/m/m.1/cv1/act/Mul/fq_output_0/output_high" type="Const" version="opset1">
			<data element_type="f16" shape="" offset="1109474" size="2" />
			<output>
				<port id="0" precision="FP16" />
			</output>
		</layer>
		<layer id="256" name="/model.6/m.0/m/m.1/cv1/act/Mul/fq_output_0" type="FakeQuantize" version="opset1">
			<data levels="256" auto_broadcast="numpy" />
			<input>
				<port id="0" precision="FP16">
					<dim>1</dim>
					<dim>64</dim>
					<dim>40</dim>
					<dim>40</dim>
				</port>
				<port id="1" precision="FP16" />
				<port id="2" precision="FP16" />
				<port id="3" precision="FP16" />
				<port id="4" precision="FP16" />
			</input>
			<output>
				<port id="5" precision="FP16">
					<dim>1</dim>
					<dim>64</dim>
					<dim>40</dim>
					<dim>40</dim>
				</port>
			</output>
		</layer>
		<layer id="257" name="Constant_1613575" type="Const" version="opset1">
			<data element_type="i8" shape="64, 64, 3, 3" offset="1109476" size="36864" />
			<output>
				<port id="0" precision="I8">
					<dim>64</dim>
					<dim>64</dim>
					<dim>3</dim>
					<dim>3</dim>
				</port>
			</output>
		</layer>
		<layer id="258" name="Convert_1613576" type="Convert" version="opset1">
			<data destination_type="f16" />
			<input>
				<port id="0" precision="I8">
					<dim>64</dim>
					<dim>64</dim>
					<dim>3</dim>
					<dim>3</dim>
				</port>
			</input>
			<output>
				<port id="1" precision="FP16">
					<dim>64</dim>
					<dim>64</dim>
					<dim>3</dim>
					<dim>3</dim>
				</port>
			</output>
		</layer>
		<layer id="259" name="Constant_1613577" type="Const" version="opset1">
			<data element_type="f16" shape="64, 1, 1, 1" offset="1146340" size="128" />
			<output>
				<port id="0" precision="FP16">
					<dim>64</dim>
					<dim>1</dim>
					<dim>1</dim>
					<dim>1</dim>
				</port>
			</output>
		</layer>
		<layer id="260" name="/model.6/m.0/m/m.1/cv2/conv/Conv/WithoutBiases/fq_weights_1" type="Multiply" version="opset1">
			<data auto_broadcast="numpy" />
			<input>
				<port id="0" precision="FP16">
					<dim>64</dim>
					<dim>64</dim>
					<dim>3</dim>
					<dim>3</dim>
				</port>
				<port id="1" precision="FP16">
					<dim>64</dim>
					<dim>1</dim>
					<dim>1</dim>
					<dim>1</dim>
				</port>
			</input>
			<output>
				<port id="2" precision="FP16">
					<dim>64</dim>
					<dim>64</dim>
					<dim>3</dim>
					<dim>3</dim>
				</port>
			</output>
		</layer>
		<layer id="261" name="/model.6/m.0/m/m.1/cv2/conv/Conv/WithoutBiases" type="Convolution" version="opset1">
			<data strides="1, 1" dilations="1, 1" pads_begin="1, 1" pads_end="1, 1" auto_pad="explicit" />
			<input>
				<port id="0" precision="FP16">
					<dim>1</dim>
					<dim>64</dim>
					<dim>40</dim>
					<dim>40</dim>
				</port>
				<port id="1" precision="FP16">
					<dim>64</dim>
					<dim>64</dim>
					<dim>3</dim>
					<dim>3</dim>
				</port>
			</input>
			<output>
				<port id="2" precision="FP16">
					<dim>1</dim>
					<dim>64</dim>
					<dim>40</dim>
					<dim>40</dim>
				</port>
			</output>
		</layer>
		<layer id="262" name="Reshape_1056397" type="Const" version="opset1">
			<data element_type="f16" shape="1, 64, 1, 1" offset="1146468" size="128" />
			<output>
				<port id="0" precision="FP16">
					<dim>1</dim>
					<dim>64</dim>
					<dim>1</dim>
					<dim>1</dim>
				</port>
			</output>
		</layer>
		<layer id="263" name="/model.6/m.0/m/m.1/cv2/conv/Conv" type="Add" version="opset1">
			<data auto_broadcast="numpy" />
			<input>
				<port id="0" precision="FP16">
					<dim>1</dim>
					<dim>64</dim>
					<dim>40</dim>
					<dim>40</dim>
				</port>
				<port id="1" precision="FP16">
					<dim>1</dim>
					<dim>64</dim>
					<dim>1</dim>
					<dim>1</dim>
				</port>
			</input>
			<output>
				<port id="2" precision="FP16" names="/model.6/m.0/m/m.1/cv2/conv/Conv_output_0">
					<dim>1</dim>
					<dim>64</dim>
					<dim>40</dim>
					<dim>40</dim>
				</port>
			</output>
		</layer>
		<layer id="264" name="/model.6/m.0/m/m.1/cv2/act/Mul" type="Swish" version="opset4">
			<input>
				<port id="0" precision="FP16">
					<dim>1</dim>
					<dim>64</dim>
					<dim>40</dim>
					<dim>40</dim>
				</port>
			</input>
			<output>
				<port id="1" precision="FP16" names="/model.6/m.0/m/m.1/cv2/act/Mul_output_0">
					<dim>1</dim>
					<dim>64</dim>
					<dim>40</dim>
					<dim>40</dim>
				</port>
			</output>
		</layer>
		<layer id="265" name="/model.6/m.0/m/m.1/cv2/act/Mul/fq_output_0/input_low" type="Const" version="opset1">
			<data element_type="f16" shape="" offset="1146596" size="2" />
			<output>
				<port id="0" precision="FP16" />
			</output>
		</layer>
		<layer id="266" name="/model.6/m.0/m/m.1/cv2/act/Mul/fq_output_0/input_high" type="Const" version="opset1">
			<data element_type="f16" shape="" offset="1146598" size="2" />
			<output>
				<port id="0" precision="FP16" />
			</output>
		</layer>
		<layer id="267" name="/model.6/m.0/m/m.1/cv2/act/Mul/fq_output_0/output_low" type="Const" version="opset1">
			<data element_type="f16" shape="" offset="1146596" size="2" />
			<output>
				<port id="0" precision="FP16" />
			</output>
		</layer>
		<layer id="268" name="/model.6/m.0/m/m.1/cv2/act/Mul/fq_output_0/output_high" type="Const" version="opset1">
			<data element_type="f16" shape="" offset="1146598" size="2" />
			<output>
				<port id="0" precision="FP16" />
			</output>
		</layer>
		<layer id="269" name="/model.6/m.0/m/m.1/cv2/act/Mul/fq_output_0" type="FakeQuantize" version="opset1">
			<data levels="256" auto_broadcast="numpy" />
			<input>
				<port id="0" precision="FP16">
					<dim>1</dim>
					<dim>64</dim>
					<dim>40</dim>
					<dim>40</dim>
				</port>
				<port id="1" precision="FP16" />
				<port id="2" precision="FP16" />
				<port id="3" precision="FP16" />
				<port id="4" precision="FP16" />
			</input>
			<output>
				<port id="5" precision="FP16">
					<dim>1</dim>
					<dim>64</dim>
					<dim>40</dim>
					<dim>40</dim>
				</port>
			</output>
		</layer>
		<layer id="270" name="/model.6/m.0/m/m.1/Add" type="Add" version="opset1">
			<data auto_broadcast="numpy" />
			<input>
				<port id="0" precision="FP16">
					<dim>1</dim>
					<dim>64</dim>
					<dim>40</dim>
					<dim>40</dim>
				</port>
				<port id="1" precision="FP16">
					<dim>1</dim>
					<dim>64</dim>
					<dim>40</dim>
					<dim>40</dim>
				</port>
			</input>
			<output>
				<port id="2" precision="FP16" names="/model.6/m.0/m/m.1/Add_output_0">
					<dim>1</dim>
					<dim>64</dim>
					<dim>40</dim>
					<dim>40</dim>
				</port>
			</output>
		</layer>
		<layer id="271" name="/model.6/m.0/m/m.1/Add/fq_output_0/input_low" type="Const" version="opset1">
			<data element_type="f16" shape="" offset="1146600" size="2" />
			<output>
				<port id="0" precision="FP16" />
			</output>
		</layer>
		<layer id="272" name="/model.6/m.0/m/m.1/Add/fq_output_0/input_high" type="Const" version="opset1">
			<data element_type="f16" shape="" offset="1146602" size="2" />
			<output>
				<port id="0" precision="FP16" />
			</output>
		</layer>
		<layer id="273" name="/model.6/m.0/m/m.1/Add/fq_output_0/output_low" type="Const" version="opset1">
			<data element_type="f16" shape="" offset="1146600" size="2" />
			<output>
				<port id="0" precision="FP16" />
			</output>
		</layer>
		<layer id="274" name="/model.6/m.0/m/m.1/Add/fq_output_0/output_high" type="Const" version="opset1">
			<data element_type="f16" shape="" offset="1146602" size="2" />
			<output>
				<port id="0" precision="FP16" />
			</output>
		</layer>
		<layer id="275" name="/model.6/m.0/m/m.1/Add/fq_output_0" type="FakeQuantize" version="opset1">
			<data levels="256" auto_broadcast="numpy" />
			<input>
				<port id="0" precision="FP16">
					<dim>1</dim>
					<dim>64</dim>
					<dim>40</dim>
					<dim>40</dim>
				</port>
				<port id="1" precision="FP16" />
				<port id="2" precision="FP16" />
				<port id="3" precision="FP16" />
				<port id="4" precision="FP16" />
			</input>
			<output>
				<port id="5" precision="FP16">
					<dim>1</dim>
					<dim>64</dim>
					<dim>40</dim>
					<dim>40</dim>
				</port>
			</output>
		</layer>
		<layer id="276" name="Constant_1613579" type="Const" version="opset1">
			<data element_type="i8" shape="64, 128, 1, 1" offset="1146604" size="8192" />
			<output>
				<port id="0" precision="I8">
					<dim>64</dim>
					<dim>128</dim>
					<dim>1</dim>
					<dim>1</dim>
				</port>
			</output>
		</layer>
		<layer id="277" name="Convert_1613580" type="Convert" version="opset1">
			<data destination_type="f16" />
			<input>
				<port id="0" precision="I8">
					<dim>64</dim>
					<dim>128</dim>
					<dim>1</dim>
					<dim>1</dim>
				</port>
			</input>
			<output>
				<port id="1" precision="FP16">
					<dim>64</dim>
					<dim>128</dim>
					<dim>1</dim>
					<dim>1</dim>
				</port>
			</output>
		</layer>
		<layer id="278" name="Constant_1613581" type="Const" version="opset1">
			<data element_type="f16" shape="64, 1, 1, 1" offset="1154796" size="128" />
			<output>
				<port id="0" precision="FP16">
					<dim>64</dim>
					<dim>1</dim>
					<dim>1</dim>
					<dim>1</dim>
				</port>
			</output>
		</layer>
		<layer id="279" name="/model.6/m.0/cv2/conv/Conv/WithoutBiases/fq_weights_1" type="Multiply" version="opset1">
			<data auto_broadcast="numpy" />
			<input>
				<port id="0" precision="FP16">
					<dim>64</dim>
					<dim>128</dim>
					<dim>1</dim>
					<dim>1</dim>
				</port>
				<port id="1" precision="FP16">
					<dim>64</dim>
					<dim>1</dim>
					<dim>1</dim>
					<dim>1</dim>
				</port>
			</input>
			<output>
				<port id="2" precision="FP16">
					<dim>64</dim>
					<dim>128</dim>
					<dim>1</dim>
					<dim>1</dim>
				</port>
			</output>
		</layer>
		<layer id="280" name="/model.6/m.0/cv2/conv/Conv/WithoutBiases" type="Convolution" version="opset1">
			<data strides="1, 1" dilations="1, 1" pads_begin="0, 0" pads_end="0, 0" auto_pad="explicit" />
			<input>
				<port id="0" precision="FP16">
					<dim>1</dim>
					<dim>128</dim>
					<dim>40</dim>
					<dim>40</dim>
				</port>
				<port id="1" precision="FP16">
					<dim>64</dim>
					<dim>128</dim>
					<dim>1</dim>
					<dim>1</dim>
				</port>
			</input>
			<output>
				<port id="2" precision="FP16">
					<dim>1</dim>
					<dim>64</dim>
					<dim>40</dim>
					<dim>40</dim>
				</port>
			</output>
		</layer>
		<layer id="281" name="Reshape_1056334" type="Const" version="opset1">
			<data element_type="f16" shape="1, 64, 1, 1" offset="1154924" size="128" />
			<output>
				<port id="0" precision="FP16">
					<dim>1</dim>
					<dim>64</dim>
					<dim>1</dim>
					<dim>1</dim>
				</port>
			</output>
		</layer>
		<layer id="282" name="/model.6/m.0/cv2/conv/Conv" type="Add" version="opset1">
			<data auto_broadcast="numpy" />
			<input>
				<port id="0" precision="FP16">
					<dim>1</dim>
					<dim>64</dim>
					<dim>40</dim>
					<dim>40</dim>
				</port>
				<port id="1" precision="FP16">
					<dim>1</dim>
					<dim>64</dim>
					<dim>1</dim>
					<dim>1</dim>
				</port>
			</input>
			<output>
				<port id="2" precision="FP16" names="/model.6/m.0/cv2/conv/Conv_output_0">
					<dim>1</dim>
					<dim>64</dim>
					<dim>40</dim>
					<dim>40</dim>
				</port>
			</output>
		</layer>
		<layer id="283" name="/model.6/m.0/cv2/act/Mul" type="Swish" version="opset4">
			<input>
				<port id="0" precision="FP16">
					<dim>1</dim>
					<dim>64</dim>
					<dim>40</dim>
					<dim>40</dim>
				</port>
			</input>
			<output>
				<port id="1" precision="FP16" names="/model.6/m.0/cv2/act/Mul_output_0">
					<dim>1</dim>
					<dim>64</dim>
					<dim>40</dim>
					<dim>40</dim>
				</port>
			</output>
		</layer>
		<layer id="284" name="/model.6/m.0/cv2/act/Mul/fq_output_0/input_low" type="Const" version="opset1">
			<data element_type="f16" shape="" offset="1146600" size="2" />
			<output>
				<port id="0" precision="FP16" />
			</output>
		</layer>
		<layer id="285" name="/model.6/m.0/cv2/act/Mul/fq_output_0/input_high" type="Const" version="opset1">
			<data element_type="f16" shape="" offset="1146602" size="2" />
			<output>
				<port id="0" precision="FP16" />
			</output>
		</layer>
		<layer id="286" name="/model.6/m.0/cv2/act/Mul/fq_output_0/output_low" type="Const" version="opset1">
			<data element_type="f16" shape="" offset="1146600" size="2" />
			<output>
				<port id="0" precision="FP16" />
			</output>
		</layer>
		<layer id="287" name="/model.6/m.0/cv2/act/Mul/fq_output_0/output_high" type="Const" version="opset1">
			<data element_type="f16" shape="" offset="1146602" size="2" />
			<output>
				<port id="0" precision="FP16" />
			</output>
		</layer>
		<layer id="288" name="/model.6/m.0/cv2/act/Mul/fq_output_0" type="FakeQuantize" version="opset1">
			<data levels="256" auto_broadcast="numpy" />
			<input>
				<port id="0" precision="FP16">
					<dim>1</dim>
					<dim>64</dim>
					<dim>40</dim>
					<dim>40</dim>
				</port>
				<port id="1" precision="FP16" />
				<port id="2" precision="FP16" />
				<port id="3" precision="FP16" />
				<port id="4" precision="FP16" />
			</input>
			<output>
				<port id="5" precision="FP16">
					<dim>1</dim>
					<dim>64</dim>
					<dim>40</dim>
					<dim>40</dim>
				</port>
			</output>
		</layer>
		<layer id="289" name="/model.6/m.0/Concat" type="Concat" version="opset1">
			<data axis="1" />
			<input>
				<port id="0" precision="FP16">
					<dim>1</dim>
					<dim>64</dim>
					<dim>40</dim>
					<dim>40</dim>
				</port>
				<port id="1" precision="FP16">
					<dim>1</dim>
					<dim>64</dim>
					<dim>40</dim>
					<dim>40</dim>
				</port>
			</input>
			<output>
				<port id="2" precision="FP16" names="/model.6/m.0/Concat_output_0">
					<dim>1</dim>
					<dim>128</dim>
					<dim>40</dim>
					<dim>40</dim>
				</port>
			</output>
		</layer>
		<layer id="290" name="Constant_1613583" type="Const" version="opset1">
			<data element_type="i8" shape="128, 128, 1, 1" offset="1155052" size="16384" />
			<output>
				<port id="0" precision="I8">
					<dim>128</dim>
					<dim>128</dim>
					<dim>1</dim>
					<dim>1</dim>
				</port>
			</output>
		</layer>
		<layer id="291" name="Convert_1613584" type="Convert" version="opset1">
			<data destination_type="f16" />
			<input>
				<port id="0" precision="I8">
					<dim>128</dim>
					<dim>128</dim>
					<dim>1</dim>
					<dim>1</dim>
				</port>
			</input>
			<output>
				<port id="1" precision="FP16">
					<dim>128</dim>
					<dim>128</dim>
					<dim>1</dim>
					<dim>1</dim>
				</port>
			</output>
		</layer>
		<layer id="292" name="Constant_1613585" type="Const" version="opset1">
			<data element_type="f16" shape="128, 1, 1, 1" offset="1171436" size="256" />
			<output>
				<port id="0" precision="FP16">
					<dim>128</dim>
					<dim>1</dim>
					<dim>1</dim>
					<dim>1</dim>
				</port>
			</output>
		</layer>
		<layer id="293" name="/model.6/m.0/cv3/conv/Conv/WithoutBiases/fq_weights_1" type="Multiply" version="opset1">
			<data auto_broadcast="numpy" />
			<input>
				<port id="0" precision="FP16">
					<dim>128</dim>
					<dim>128</dim>
					<dim>1</dim>
					<dim>1</dim>
				</port>
				<port id="1" precision="FP16">
					<dim>128</dim>
					<dim>1</dim>
					<dim>1</dim>
					<dim>1</dim>
				</port>
			</input>
			<output>
				<port id="2" precision="FP16">
					<dim>128</dim>
					<dim>128</dim>
					<dim>1</dim>
					<dim>1</dim>
				</port>
			</output>
		</layer>
		<layer id="294" name="/model.6/m.0/cv3/conv/Conv/WithoutBiases" type="Convolution" version="opset1">
			<data strides="1, 1" dilations="1, 1" pads_begin="0, 0" pads_end="0, 0" auto_pad="explicit" />
			<input>
				<port id="0" precision="FP16">
					<dim>1</dim>
					<dim>128</dim>
					<dim>40</dim>
					<dim>40</dim>
				</port>
				<port id="1" precision="FP16">
					<dim>128</dim>
					<dim>128</dim>
					<dim>1</dim>
					<dim>1</dim>
				</port>
			</input>
			<output>
				<port id="2" precision="FP16">
					<dim>1</dim>
					<dim>128</dim>
					<dim>40</dim>
					<dim>40</dim>
				</port>
			</output>
		</layer>
		<layer id="295" name="Reshape_1056414" type="Const" version="opset1">
			<data element_type="f16" shape="1, 128, 1, 1" offset="1171692" size="256" />
			<output>
				<port id="0" precision="FP16">
					<dim>1</dim>
					<dim>128</dim>
					<dim>1</dim>
					<dim>1</dim>
				</port>
			</output>
		</layer>
		<layer id="296" name="/model.6/m.0/cv3/conv/Conv" type="Add" version="opset1">
			<data auto_broadcast="numpy" />
			<input>
				<port id="0" precision="FP16">
					<dim>1</dim>
					<dim>128</dim>
					<dim>40</dim>
					<dim>40</dim>
				</port>
				<port id="1" precision="FP16">
					<dim>1</dim>
					<dim>128</dim>
					<dim>1</dim>
					<dim>1</dim>
				</port>
			</input>
			<output>
				<port id="2" precision="FP16" names="/model.6/m.0/cv3/conv/Conv_output_0">
					<dim>1</dim>
					<dim>128</dim>
					<dim>40</dim>
					<dim>40</dim>
				</port>
			</output>
		</layer>
		<layer id="297" name="/model.6/m.0/cv3/act/Mul" type="Swish" version="opset4">
			<input>
				<port id="0" precision="FP16">
					<dim>1</dim>
					<dim>128</dim>
					<dim>40</dim>
					<dim>40</dim>
				</port>
			</input>
			<output>
				<port id="1" precision="FP16" names="/model.6/m.0/cv3/act/Mul_output_0">
					<dim>1</dim>
					<dim>128</dim>
					<dim>40</dim>
					<dim>40</dim>
				</port>
			</output>
		</layer>
		<layer id="298" name="/model.6/m.0/cv3/act/Mul/fq_output_0/input_low" type="Const" version="opset1">
			<data element_type="f16" shape="" offset="989628" size="2" />
			<output>
				<port id="0" precision="FP16" />
			</output>
		</layer>
		<layer id="299" name="/model.6/m.0/cv3/act/Mul/fq_output_0/input_high" type="Const" version="opset1">
			<data element_type="f16" shape="" offset="989630" size="2" />
			<output>
				<port id="0" precision="FP16" />
			</output>
		</layer>
		<layer id="300" name="/model.6/m.0/cv3/act/Mul/fq_output_0/output_low" type="Const" version="opset1">
			<data element_type="f16" shape="" offset="989628" size="2" />
			<output>
				<port id="0" precision="FP16" />
			</output>
		</layer>
		<layer id="301" name="/model.6/m.0/cv3/act/Mul/fq_output_0/output_high" type="Const" version="opset1">
			<data element_type="f16" shape="" offset="989630" size="2" />
			<output>
				<port id="0" precision="FP16" />
			</output>
		</layer>
		<layer id="302" name="/model.6/m.0/cv3/act/Mul/fq_output_0" type="FakeQuantize" version="opset1">
			<data levels="256" auto_broadcast="numpy" />
			<input>
				<port id="0" precision="FP16">
					<dim>1</dim>
					<dim>128</dim>
					<dim>40</dim>
					<dim>40</dim>
				</port>
				<port id="1" precision="FP16" />
				<port id="2" precision="FP16" />
				<port id="3" precision="FP16" />
				<port id="4" precision="FP16" />
			</input>
			<output>
				<port id="5" precision="FP16">
					<dim>1</dim>
					<dim>128</dim>
					<dim>40</dim>
					<dim>40</dim>
				</port>
			</output>
		</layer>
		<layer id="303" name="/model.6/Concat" type="Concat" version="opset1">
			<data axis="1" />
			<input>
				<port id="0" precision="FP16">
					<dim>1</dim>
					<dim>128</dim>
					<dim>40</dim>
					<dim>40</dim>
				</port>
				<port id="1" precision="FP16">
					<dim>1</dim>
					<dim>128</dim>
					<dim>40</dim>
					<dim>40</dim>
				</port>
				<port id="2" precision="FP16">
					<dim>1</dim>
					<dim>128</dim>
					<dim>40</dim>
					<dim>40</dim>
				</port>
			</input>
			<output>
				<port id="3" precision="FP16" names="/model.6/Concat_output_0">
					<dim>1</dim>
					<dim>384</dim>
					<dim>40</dim>
					<dim>40</dim>
				</port>
			</output>
		</layer>
		<layer id="304" name="Constant_1613587" type="Const" version="opset1">
			<data element_type="i8" shape="256, 384, 1, 1" offset="1171948" size="98304" />
			<output>
				<port id="0" precision="I8">
					<dim>256</dim>
					<dim>384</dim>
					<dim>1</dim>
					<dim>1</dim>
				</port>
			</output>
		</layer>
		<layer id="305" name="Convert_1613588" type="Convert" version="opset1">
			<data destination_type="f16" />
			<input>
				<port id="0" precision="I8">
					<dim>256</dim>
					<dim>384</dim>
					<dim>1</dim>
					<dim>1</dim>
				</port>
			</input>
			<output>
				<port id="1" precision="FP16">
					<dim>256</dim>
					<dim>384</dim>
					<dim>1</dim>
					<dim>1</dim>
				</port>
			</output>
		</layer>
		<layer id="306" name="Constant_1613589" type="Const" version="opset1">
			<data element_type="f16" shape="256, 1, 1, 1" offset="1270252" size="512" />
			<output>
				<port id="0" precision="FP16">
					<dim>256</dim>
					<dim>1</dim>
					<dim>1</dim>
					<dim>1</dim>
				</port>
			</output>
		</layer>
		<layer id="307" name="/model.6/cv2/conv/Conv/WithoutBiases/fq_weights_1" type="Multiply" version="opset1">
			<data auto_broadcast="numpy" />
			<input>
				<port id="0" precision="FP16">
					<dim>256</dim>
					<dim>384</dim>
					<dim>1</dim>
					<dim>1</dim>
				</port>
				<port id="1" precision="FP16">
					<dim>256</dim>
					<dim>1</dim>
					<dim>1</dim>
					<dim>1</dim>
				</port>
			</input>
			<output>
				<port id="2" precision="FP16">
					<dim>256</dim>
					<dim>384</dim>
					<dim>1</dim>
					<dim>1</dim>
				</port>
			</output>
		</layer>
		<layer id="308" name="/model.6/cv2/conv/Conv/WithoutBiases" type="Convolution" version="opset1">
			<data strides="1, 1" dilations="1, 1" pads_begin="0, 0" pads_end="0, 0" auto_pad="explicit" />
			<input>
				<port id="0" precision="FP16">
					<dim>1</dim>
					<dim>384</dim>
					<dim>40</dim>
					<dim>40</dim>
				</port>
				<port id="1" precision="FP16">
					<dim>256</dim>
					<dim>384</dim>
					<dim>1</dim>
					<dim>1</dim>
				</port>
			</input>
			<output>
				<port id="2" precision="FP16">
					<dim>1</dim>
					<dim>256</dim>
					<dim>40</dim>
					<dim>40</dim>
				</port>
			</output>
		</layer>
		<layer id="309" name="Reshape_1056430" type="Const" version="opset1">
			<data element_type="f16" shape="1, 256, 1, 1" offset="1270764" size="512" />
			<output>
				<port id="0" precision="FP16">
					<dim>1</dim>
					<dim>256</dim>
					<dim>1</dim>
					<dim>1</dim>
				</port>
			</output>
		</layer>
		<layer id="310" name="/model.6/cv2/conv/Conv" type="Add" version="opset1">
			<data auto_broadcast="numpy" />
			<input>
				<port id="0" precision="FP16">
					<dim>1</dim>
					<dim>256</dim>
					<dim>40</dim>
					<dim>40</dim>
				</port>
				<port id="1" precision="FP16">
					<dim>1</dim>
					<dim>256</dim>
					<dim>1</dim>
					<dim>1</dim>
				</port>
			</input>
			<output>
				<port id="2" precision="FP16" names="/model.6/cv2/conv/Conv_output_0">
					<dim>1</dim>
					<dim>256</dim>
					<dim>40</dim>
					<dim>40</dim>
				</port>
			</output>
		</layer>
		<layer id="311" name="/model.6/cv2/act/Mul" type="Swish" version="opset4">
			<input>
				<port id="0" precision="FP16">
					<dim>1</dim>
					<dim>256</dim>
					<dim>40</dim>
					<dim>40</dim>
				</port>
			</input>
			<output>
				<port id="1" precision="FP16" names="/model.6/cv2/act/Mul_output_0">
					<dim>1</dim>
					<dim>256</dim>
					<dim>40</dim>
					<dim>40</dim>
				</port>
			</output>
		</layer>
		<layer id="312" name="/model.6/cv2/act/Mul/fq_output_0/input_low" type="Const" version="opset1">
			<data element_type="f16" shape="" offset="1271276" size="2" />
			<output>
				<port id="0" precision="FP16" />
			</output>
		</layer>
		<layer id="313" name="/model.6/cv2/act/Mul/fq_output_0/input_high" type="Const" version="opset1">
			<data element_type="f16" shape="" offset="1271278" size="2" />
			<output>
				<port id="0" precision="FP16" />
			</output>
		</layer>
		<layer id="314" name="/model.6/cv2/act/Mul/fq_output_0/output_low" type="Const" version="opset1">
			<data element_type="f16" shape="" offset="1271276" size="2" />
			<output>
				<port id="0" precision="FP16" />
			</output>
		</layer>
		<layer id="315" name="/model.6/cv2/act/Mul/fq_output_0/output_high" type="Const" version="opset1">
			<data element_type="f16" shape="" offset="1271278" size="2" />
			<output>
				<port id="0" precision="FP16" />
			</output>
		</layer>
		<layer id="316" name="/model.6/cv2/act/Mul/fq_output_0" type="FakeQuantize" version="opset1">
			<data levels="256" auto_broadcast="numpy" />
			<input>
				<port id="0" precision="FP16">
					<dim>1</dim>
					<dim>256</dim>
					<dim>40</dim>
					<dim>40</dim>
				</port>
				<port id="1" precision="FP16" />
				<port id="2" precision="FP16" />
				<port id="3" precision="FP16" />
				<port id="4" precision="FP16" />
			</input>
			<output>
				<port id="5" precision="FP16">
					<dim>1</dim>
					<dim>256</dim>
					<dim>40</dim>
					<dim>40</dim>
				</port>
			</output>
		</layer>
		<layer id="317" name="Constant_1613591" type="Const" version="opset1">
			<data element_type="i8" shape="512, 256, 3, 3" offset="1271280" size="1179648" />
			<output>
				<port id="0" precision="I8">
					<dim>512</dim>
					<dim>256</dim>
					<dim>3</dim>
					<dim>3</dim>
				</port>
			</output>
		</layer>
		<layer id="318" name="Convert_1613592" type="Convert" version="opset1">
			<data destination_type="f16" />
			<input>
				<port id="0" precision="I8">
					<dim>512</dim>
					<dim>256</dim>
					<dim>3</dim>
					<dim>3</dim>
				</port>
			</input>
			<output>
				<port id="1" precision="FP16">
					<dim>512</dim>
					<dim>256</dim>
					<dim>3</dim>
					<dim>3</dim>
				</port>
			</output>
		</layer>
		<layer id="319" name="Constant_1613593" type="Const" version="opset1">
			<data element_type="f16" shape="512, 1, 1, 1" offset="2450928" size="1024" />
			<output>
				<port id="0" precision="FP16">
					<dim>512</dim>
					<dim>1</dim>
					<dim>1</dim>
					<dim>1</dim>
				</port>
			</output>
		</layer>
		<layer id="320" name="/model.7/conv/Conv/WithoutBiases/fq_weights_1" type="Multiply" version="opset1">
			<data auto_broadcast="numpy" />
			<input>
				<port id="0" precision="FP16">
					<dim>512</dim>
					<dim>256</dim>
					<dim>3</dim>
					<dim>3</dim>
				</port>
				<port id="1" precision="FP16">
					<dim>512</dim>
					<dim>1</dim>
					<dim>1</dim>
					<dim>1</dim>
				</port>
			</input>
			<output>
				<port id="2" precision="FP16">
					<dim>512</dim>
					<dim>256</dim>
					<dim>3</dim>
					<dim>3</dim>
				</port>
			</output>
		</layer>
		<layer id="321" name="/model.7/conv/Conv/WithoutBiases" type="Convolution" version="opset1">
			<data strides="2, 2" dilations="1, 1" pads_begin="1, 1" pads_end="1, 1" auto_pad="explicit" />
			<input>
				<port id="0" precision="FP16">
					<dim>1</dim>
					<dim>256</dim>
					<dim>40</dim>
					<dim>40</dim>
				</port>
				<port id="1" precision="FP16">
					<dim>512</dim>
					<dim>256</dim>
					<dim>3</dim>
					<dim>3</dim>
				</port>
			</input>
			<output>
				<port id="2" precision="FP16">
					<dim>1</dim>
					<dim>512</dim>
					<dim>20</dim>
					<dim>20</dim>
				</port>
			</output>
		</layer>
		<layer id="322" name="Reshape_1056445" type="Const" version="opset1">
			<data element_type="f16" shape="1, 512, 1, 1" offset="2451952" size="1024" />
			<output>
				<port id="0" precision="FP16">
					<dim>1</dim>
					<dim>512</dim>
					<dim>1</dim>
					<dim>1</dim>
				</port>
			</output>
		</layer>
		<layer id="323" name="/model.7/conv/Conv" type="Add" version="opset1">
			<data auto_broadcast="numpy" />
			<input>
				<port id="0" precision="FP16">
					<dim>1</dim>
					<dim>512</dim>
					<dim>20</dim>
					<dim>20</dim>
				</port>
				<port id="1" precision="FP16">
					<dim>1</dim>
					<dim>512</dim>
					<dim>1</dim>
					<dim>1</dim>
				</port>
			</input>
			<output>
				<port id="2" precision="FP16" names="/model.7/conv/Conv_output_0">
					<dim>1</dim>
					<dim>512</dim>
					<dim>20</dim>
					<dim>20</dim>
				</port>
			</output>
		</layer>
		<layer id="324" name="/model.7/act/Mul" type="Swish" version="opset4">
			<input>
				<port id="0" precision="FP16">
					<dim>1</dim>
					<dim>512</dim>
					<dim>20</dim>
					<dim>20</dim>
				</port>
			</input>
			<output>
				<port id="1" precision="FP16" names="/model.7/act/Mul_output_0">
					<dim>1</dim>
					<dim>512</dim>
					<dim>20</dim>
					<dim>20</dim>
				</port>
			</output>
		</layer>
		<layer id="325" name="/model.7/act/Mul/fq_output_0/input_low" type="Const" version="opset1">
			<data element_type="f16" shape="" offset="2452976" size="2" />
			<output>
				<port id="0" precision="FP16" />
			</output>
		</layer>
		<layer id="326" name="/model.7/act/Mul/fq_output_0/input_high" type="Const" version="opset1">
			<data element_type="f16" shape="" offset="2452978" size="2" />
			<output>
				<port id="0" precision="FP16" />
			</output>
		</layer>
		<layer id="327" name="/model.7/act/Mul/fq_output_0/output_low" type="Const" version="opset1">
			<data element_type="f16" shape="" offset="2452976" size="2" />
			<output>
				<port id="0" precision="FP16" />
			</output>
		</layer>
		<layer id="328" name="/model.7/act/Mul/fq_output_0/output_high" type="Const" version="opset1">
			<data element_type="f16" shape="" offset="2452978" size="2" />
			<output>
				<port id="0" precision="FP16" />
			</output>
		</layer>
		<layer id="329" name="/model.7/act/Mul/fq_output_0" type="FakeQuantize" version="opset1">
			<data levels="256" auto_broadcast="numpy" />
			<input>
				<port id="0" precision="FP16">
					<dim>1</dim>
					<dim>512</dim>
					<dim>20</dim>
					<dim>20</dim>
				</port>
				<port id="1" precision="FP16" />
				<port id="2" precision="FP16" />
				<port id="3" precision="FP16" />
				<port id="4" precision="FP16" />
			</input>
			<output>
				<port id="5" precision="FP16">
					<dim>1</dim>
					<dim>512</dim>
					<dim>20</dim>
					<dim>20</dim>
				</port>
			</output>
		</layer>
		<layer id="330" name="Constant_1613595" type="Const" version="opset1">
			<data element_type="i8" shape="512, 512, 1, 1" offset="2452980" size="262144" />
			<output>
				<port id="0" precision="I8">
					<dim>512</dim>
					<dim>512</dim>
					<dim>1</dim>
					<dim>1</dim>
				</port>
			</output>
		</layer>
		<layer id="331" name="Convert_1613596" type="Convert" version="opset1">
			<data destination_type="f16" />
			<input>
				<port id="0" precision="I8">
					<dim>512</dim>
					<dim>512</dim>
					<dim>1</dim>
					<dim>1</dim>
				</port>
			</input>
			<output>
				<port id="1" precision="FP16">
					<dim>512</dim>
					<dim>512</dim>
					<dim>1</dim>
					<dim>1</dim>
				</port>
			</output>
		</layer>
		<layer id="332" name="Constant_1613597" type="Const" version="opset1">
			<data element_type="f16" shape="512, 1, 1, 1" offset="2715124" size="1024" />
			<output>
				<port id="0" precision="FP16">
					<dim>512</dim>
					<dim>1</dim>
					<dim>1</dim>
					<dim>1</dim>
				</port>
			</output>
		</layer>
		<layer id="333" name="/model.8/cv1/conv/Conv/WithoutBiases/fq_weights_1" type="Multiply" version="opset1">
			<data auto_broadcast="numpy" />
			<input>
				<port id="0" precision="FP16">
					<dim>512</dim>
					<dim>512</dim>
					<dim>1</dim>
					<dim>1</dim>
				</port>
				<port id="1" precision="FP16">
					<dim>512</dim>
					<dim>1</dim>
					<dim>1</dim>
					<dim>1</dim>
				</port>
			</input>
			<output>
				<port id="2" precision="FP16">
					<dim>512</dim>
					<dim>512</dim>
					<dim>1</dim>
					<dim>1</dim>
				</port>
			</output>
		</layer>
		<layer id="334" name="/model.8/cv1/conv/Conv/WithoutBiases" type="Convolution" version="opset1">
			<data strides="1, 1" dilations="1, 1" pads_begin="0, 0" pads_end="0, 0" auto_pad="explicit" />
			<input>
				<port id="0" precision="FP16">
					<dim>1</dim>
					<dim>512</dim>
					<dim>20</dim>
					<dim>20</dim>
				</port>
				<port id="1" precision="FP16">
					<dim>512</dim>
					<dim>512</dim>
					<dim>1</dim>
					<dim>1</dim>
				</port>
			</input>
			<output>
				<port id="2" precision="FP16">
					<dim>1</dim>
					<dim>512</dim>
					<dim>20</dim>
					<dim>20</dim>
				</port>
			</output>
		</layer>
		<layer id="335" name="Reshape_1056460" type="Const" version="opset1">
			<data element_type="f16" shape="1, 512, 1, 1" offset="2716148" size="1024" />
			<output>
				<port id="0" precision="FP16">
					<dim>1</dim>
					<dim>512</dim>
					<dim>1</dim>
					<dim>1</dim>
				</port>
			</output>
		</layer>
		<layer id="336" name="/model.8/cv1/conv/Conv" type="Add" version="opset1">
			<data auto_broadcast="numpy" />
			<input>
				<port id="0" precision="FP16">
					<dim>1</dim>
					<dim>512</dim>
					<dim>20</dim>
					<dim>20</dim>
				</port>
				<port id="1" precision="FP16">
					<dim>1</dim>
					<dim>512</dim>
					<dim>1</dim>
					<dim>1</dim>
				</port>
			</input>
			<output>
				<port id="2" precision="FP16" names="/model.8/cv1/conv/Conv_output_0">
					<dim>1</dim>
					<dim>512</dim>
					<dim>20</dim>
					<dim>20</dim>
				</port>
			</output>
		</layer>
		<layer id="337" name="/model.8/cv1/act/Mul" type="Swish" version="opset4">
			<input>
				<port id="0" precision="FP16">
					<dim>1</dim>
					<dim>512</dim>
					<dim>20</dim>
					<dim>20</dim>
				</port>
			</input>
			<output>
				<port id="1" precision="FP16" names="/model.8/cv1/act/Mul_output_0">
					<dim>1</dim>
					<dim>512</dim>
					<dim>20</dim>
					<dim>20</dim>
				</port>
			</output>
		</layer>
		<layer id="338" name="/model.8/cv1/act/Mul/fq_output_0/input_low" type="Const" version="opset1">
			<data element_type="f16" shape="" offset="2717172" size="2" />
			<output>
				<port id="0" precision="FP16" />
			</output>
		</layer>
		<layer id="339" name="/model.8/cv1/act/Mul/fq_output_0/input_high" type="Const" version="opset1">
			<data element_type="f16" shape="" offset="2717174" size="2" />
			<output>
				<port id="0" precision="FP16" />
			</output>
		</layer>
		<layer id="340" name="/model.8/cv1/act/Mul/fq_output_0/output_low" type="Const" version="opset1">
			<data element_type="f16" shape="" offset="2717172" size="2" />
			<output>
				<port id="0" precision="FP16" />
			</output>
		</layer>
		<layer id="341" name="/model.8/cv1/act/Mul/fq_output_0/output_high" type="Const" version="opset1">
			<data element_type="f16" shape="" offset="2717174" size="2" />
			<output>
				<port id="0" precision="FP16" />
			</output>
		</layer>
		<layer id="342" name="/model.8/cv1/act/Mul/fq_output_0" type="FakeQuantize" version="opset1">
			<data levels="256" auto_broadcast="numpy" />
			<input>
				<port id="0" precision="FP16">
					<dim>1</dim>
					<dim>512</dim>
					<dim>20</dim>
					<dim>20</dim>
				</port>
				<port id="1" precision="FP16" />
				<port id="2" precision="FP16" />
				<port id="3" precision="FP16" />
				<port id="4" precision="FP16" />
			</input>
			<output>
				<port id="5" precision="FP16">
					<dim>1</dim>
					<dim>512</dim>
					<dim>20</dim>
					<dim>20</dim>
				</port>
			</output>
		</layer>
		<layer id="343" name="Constant_1056464" type="Const" version="opset1">
			<data element_type="i64" shape="" offset="57648" size="8" />
			<output>
				<port id="0" precision="I64" />
			</output>
		</layer>
		<layer id="344" name="onnx::Split_292" type="Const" version="opset1">
			<data element_type="i64" shape="2" offset="2717176" size="16" />
			<output>
				<port id="0" precision="I64" names="onnx::Split_292">
					<dim>2</dim>
				</port>
			</output>
		</layer>
		<layer id="345" name="/model.8/Split" type="VariadicSplit" version="opset1">
			<input>
				<port id="0" precision="FP16">
					<dim>1</dim>
					<dim>512</dim>
					<dim>20</dim>
					<dim>20</dim>
				</port>
				<port id="1" precision="I64" />
				<port id="2" precision="I64">
					<dim>2</dim>
				</port>
			</input>
			<output>
				<port id="3" precision="FP16" names="/model.8/Split_output_0">
					<dim>1</dim>
					<dim>256</dim>
					<dim>20</dim>
					<dim>20</dim>
				</port>
				<port id="4" precision="FP16" names="/model.8/Split_output_1">
					<dim>1</dim>
					<dim>256</dim>
					<dim>20</dim>
					<dim>20</dim>
				</port>
			</output>
		</layer>
		<layer id="346" name="Constant_1613599" type="Const" version="opset1">
			<data element_type="i8" shape="128, 256, 1, 1" offset="2717192" size="32768" />
			<output>
				<port id="0" precision="I8">
					<dim>128</dim>
					<dim>256</dim>
					<dim>1</dim>
					<dim>1</dim>
				</port>
			</output>
		</layer>
		<layer id="347" name="Convert_1613600" type="Convert" version="opset1">
			<data destination_type="f16" />
			<input>
				<port id="0" precision="I8">
					<dim>128</dim>
					<dim>256</dim>
					<dim>1</dim>
					<dim>1</dim>
				</port>
			</input>
			<output>
				<port id="1" precision="FP16">
					<dim>128</dim>
					<dim>256</dim>
					<dim>1</dim>
					<dim>1</dim>
				</port>
			</output>
		</layer>
		<layer id="348" name="Constant_1613601" type="Const" version="opset1">
			<data element_type="f16" shape="128, 1, 1, 1" offset="2749960" size="256" />
			<output>
				<port id="0" precision="FP16">
					<dim>128</dim>
					<dim>1</dim>
					<dim>1</dim>
					<dim>1</dim>
				</port>
			</output>
		</layer>
		<layer id="349" name="/model.8/m.0/cv1/conv/Conv/WithoutBiases/fq_weights_1" type="Multiply" version="opset1">
			<data auto_broadcast="numpy" />
			<input>
				<port id="0" precision="FP16">
					<dim>128</dim>
					<dim>256</dim>
					<dim>1</dim>
					<dim>1</dim>
				</port>
				<port id="1" precision="FP16">
					<dim>128</dim>
					<dim>1</dim>
					<dim>1</dim>
					<dim>1</dim>
				</port>
			</input>
			<output>
				<port id="2" precision="FP16">
					<dim>128</dim>
					<dim>256</dim>
					<dim>1</dim>
					<dim>1</dim>
				</port>
			</output>
		</layer>
		<layer id="350" name="/model.8/m.0/cv1/conv/Conv/WithoutBiases" type="Convolution" version="opset1">
			<data strides="1, 1" dilations="1, 1" pads_begin="0, 0" pads_end="0, 0" auto_pad="explicit" />
			<input>
				<port id="0" precision="FP16">
					<dim>1</dim>
					<dim>256</dim>
					<dim>20</dim>
					<dim>20</dim>
				</port>
				<port id="1" precision="FP16">
					<dim>128</dim>
					<dim>256</dim>
					<dim>1</dim>
					<dim>1</dim>
				</port>
			</input>
			<output>
				<port id="2" precision="FP16">
					<dim>1</dim>
					<dim>128</dim>
					<dim>20</dim>
					<dim>20</dim>
				</port>
			</output>
		</layer>
		<layer id="351" name="Reshape_1056477" type="Const" version="opset1">
			<data element_type="f16" shape="1, 128, 1, 1" offset="2750216" size="256" />
			<output>
				<port id="0" precision="FP16">
					<dim>1</dim>
					<dim>128</dim>
					<dim>1</dim>
					<dim>1</dim>
				</port>
			</output>
		</layer>
		<layer id="352" name="/model.8/m.0/cv1/conv/Conv" type="Add" version="opset1">
			<data auto_broadcast="numpy" />
			<input>
				<port id="0" precision="FP16">
					<dim>1</dim>
					<dim>128</dim>
					<dim>20</dim>
					<dim>20</dim>
				</port>
				<port id="1" precision="FP16">
					<dim>1</dim>
					<dim>128</dim>
					<dim>1</dim>
					<dim>1</dim>
				</port>
			</input>
			<output>
				<port id="2" precision="FP16" names="/model.8/m.0/cv1/conv/Conv_output_0">
					<dim>1</dim>
					<dim>128</dim>
					<dim>20</dim>
					<dim>20</dim>
				</port>
			</output>
		</layer>
		<layer id="353" name="/model.8/m.0/cv1/act/Mul" type="Swish" version="opset4">
			<input>
				<port id="0" precision="FP16">
					<dim>1</dim>
					<dim>128</dim>
					<dim>20</dim>
					<dim>20</dim>
				</port>
			</input>
			<output>
				<port id="1" precision="FP16" names="/model.8/m.0/cv1/act/Mul_output_0">
					<dim>1</dim>
					<dim>128</dim>
					<dim>20</dim>
					<dim>20</dim>
				</port>
			</output>
		</layer>
		<layer id="354" name="/model.8/m.0/cv1/act/Mul/fq_output_0/input_low" type="Const" version="opset1">
			<data element_type="f16" shape="" offset="2750472" size="2" />
			<output>
				<port id="0" precision="FP16" />
			</output>
		</layer>
		<layer id="355" name="/model.8/m.0/cv1/act/Mul/fq_output_0/input_high" type="Const" version="opset1">
			<data element_type="f16" shape="" offset="2750474" size="2" />
			<output>
				<port id="0" precision="FP16" />
			</output>
		</layer>
		<layer id="356" name="/model.8/m.0/cv1/act/Mul/fq_output_0/output_low" type="Const" version="opset1">
			<data element_type="f16" shape="" offset="2750472" size="2" />
			<output>
				<port id="0" precision="FP16" />
			</output>
		</layer>
		<layer id="357" name="/model.8/m.0/cv1/act/Mul/fq_output_0/output_high" type="Const" version="opset1">
			<data element_type="f16" shape="" offset="2750474" size="2" />
			<output>
				<port id="0" precision="FP16" />
			</output>
		</layer>
		<layer id="358" name="/model.8/m.0/cv1/act/Mul/fq_output_0" type="FakeQuantize" version="opset1">
			<data levels="256" auto_broadcast="numpy" />
			<input>
				<port id="0" precision="FP16">
					<dim>1</dim>
					<dim>128</dim>
					<dim>20</dim>
					<dim>20</dim>
				</port>
				<port id="1" precision="FP16" />
				<port id="2" precision="FP16" />
				<port id="3" precision="FP16" />
				<port id="4" precision="FP16" />
			</input>
			<output>
				<port id="5" precision="FP16">
					<dim>1</dim>
					<dim>128</dim>
					<dim>20</dim>
					<dim>20</dim>
				</port>
			</output>
		</layer>
		<layer id="359" name="Constant_1613603" type="Const" version="opset1">
			<data element_type="i8" shape="128, 128, 3, 3" offset="2750476" size="147456" />
			<output>
				<port id="0" precision="I8">
					<dim>128</dim>
					<dim>128</dim>
					<dim>3</dim>
					<dim>3</dim>
				</port>
			</output>
		</layer>
		<layer id="360" name="Convert_1613604" type="Convert" version="opset1">
			<data destination_type="f16" />
			<input>
				<port id="0" precision="I8">
					<dim>128</dim>
					<dim>128</dim>
					<dim>3</dim>
					<dim>3</dim>
				</port>
			</input>
			<output>
				<port id="1" precision="FP16">
					<dim>128</dim>
					<dim>128</dim>
					<dim>3</dim>
					<dim>3</dim>
				</port>
			</output>
		</layer>
		<layer id="361" name="Constant_1613605" type="Const" version="opset1">
			<data element_type="f16" shape="128, 1, 1, 1" offset="2897932" size="256" />
			<output>
				<port id="0" precision="FP16">
					<dim>128</dim>
					<dim>1</dim>
					<dim>1</dim>
					<dim>1</dim>
				</port>
			</output>
		</layer>
		<layer id="362" name="/model.8/m.0/m/m.0/cv1/conv/Conv/WithoutBiases/fq_weights_1" type="Multiply" version="opset1">
			<data auto_broadcast="numpy" />
			<input>
				<port id="0" precision="FP16">
					<dim>128</dim>
					<dim>128</dim>
					<dim>3</dim>
					<dim>3</dim>
				</port>
				<port id="1" precision="FP16">
					<dim>128</dim>
					<dim>1</dim>
					<dim>1</dim>
					<dim>1</dim>
				</port>
			</input>
			<output>
				<port id="2" precision="FP16">
					<dim>128</dim>
					<dim>128</dim>
					<dim>3</dim>
					<dim>3</dim>
				</port>
			</output>
		</layer>
		<layer id="363" name="/model.8/m.0/m/m.0/cv1/conv/Conv/WithoutBiases" type="Convolution" version="opset1">
			<data strides="1, 1" dilations="1, 1" pads_begin="1, 1" pads_end="1, 1" auto_pad="explicit" />
			<input>
				<port id="0" precision="FP16">
					<dim>1</dim>
					<dim>128</dim>
					<dim>20</dim>
					<dim>20</dim>
				</port>
				<port id="1" precision="FP16">
					<dim>128</dim>
					<dim>128</dim>
					<dim>3</dim>
					<dim>3</dim>
				</port>
			</input>
			<output>
				<port id="2" precision="FP16">
					<dim>1</dim>
					<dim>128</dim>
					<dim>20</dim>
					<dim>20</dim>
				</port>
			</output>
		</layer>
		<layer id="364" name="Reshape_1056507" type="Const" version="opset1">
			<data element_type="f16" shape="1, 128, 1, 1" offset="2898188" size="256" />
			<output>
				<port id="0" precision="FP16">
					<dim>1</dim>
					<dim>128</dim>
					<dim>1</dim>
					<dim>1</dim>
				</port>
			</output>
		</layer>
		<layer id="365" name="/model.8/m.0/m/m.0/cv1/conv/Conv" type="Add" version="opset1">
			<data auto_broadcast="numpy" />
			<input>
				<port id="0" precision="FP16">
					<dim>1</dim>
					<dim>128</dim>
					<dim>20</dim>
					<dim>20</dim>
				</port>
				<port id="1" precision="FP16">
					<dim>1</dim>
					<dim>128</dim>
					<dim>1</dim>
					<dim>1</dim>
				</port>
			</input>
			<output>
				<port id="2" precision="FP16" names="/model.8/m.0/m/m.0/cv1/conv/Conv_output_0">
					<dim>1</dim>
					<dim>128</dim>
					<dim>20</dim>
					<dim>20</dim>
				</port>
			</output>
		</layer>
		<layer id="366" name="/model.8/m.0/m/m.0/cv1/act/Mul" type="Swish" version="opset4">
			<input>
				<port id="0" precision="FP16">
					<dim>1</dim>
					<dim>128</dim>
					<dim>20</dim>
					<dim>20</dim>
				</port>
			</input>
			<output>
				<port id="1" precision="FP16" names="/model.8/m.0/m/m.0/cv1/act/Mul_output_0">
					<dim>1</dim>
					<dim>128</dim>
					<dim>20</dim>
					<dim>20</dim>
				</port>
			</output>
		</layer>
		<layer id="367" name="/model.8/m.0/m/m.0/cv1/act/Mul/fq_output_0/input_low" type="Const" version="opset1">
			<data element_type="f16" shape="" offset="2898444" size="2" />
			<output>
				<port id="0" precision="FP16" />
			</output>
		</layer>
		<layer id="368" name="/model.8/m.0/m/m.0/cv1/act/Mul/fq_output_0/input_high" type="Const" version="opset1">
			<data element_type="f16" shape="" offset="2898446" size="2" />
			<output>
				<port id="0" precision="FP16" />
			</output>
		</layer>
		<layer id="369" name="/model.8/m.0/m/m.0/cv1/act/Mul/fq_output_0/output_low" type="Const" version="opset1">
			<data element_type="f16" shape="" offset="2898444" size="2" />
			<output>
				<port id="0" precision="FP16" />
			</output>
		</layer>
		<layer id="370" name="/model.8/m.0/m/m.0/cv1/act/Mul/fq_output_0/output_high" type="Const" version="opset1">
			<data element_type="f16" shape="" offset="2898446" size="2" />
			<output>
				<port id="0" precision="FP16" />
			</output>
		</layer>
		<layer id="371" name="/model.8/m.0/m/m.0/cv1/act/Mul/fq_output_0" type="FakeQuantize" version="opset1">
			<data levels="256" auto_broadcast="numpy" />
			<input>
				<port id="0" precision="FP16">
					<dim>1</dim>
					<dim>128</dim>
					<dim>20</dim>
					<dim>20</dim>
				</port>
				<port id="1" precision="FP16" />
				<port id="2" precision="FP16" />
				<port id="3" precision="FP16" />
				<port id="4" precision="FP16" />
			</input>
			<output>
				<port id="5" precision="FP16">
					<dim>1</dim>
					<dim>128</dim>
					<dim>20</dim>
					<dim>20</dim>
				</port>
			</output>
		</layer>
		<layer id="372" name="Constant_1613607" type="Const" version="opset1">
			<data element_type="i8" shape="128, 128, 3, 3" offset="2898448" size="147456" />
			<output>
				<port id="0" precision="I8">
					<dim>128</dim>
					<dim>128</dim>
					<dim>3</dim>
					<dim>3</dim>
				</port>
			</output>
		</layer>
		<layer id="373" name="Convert_1613608" type="Convert" version="opset1">
			<data destination_type="f16" />
			<input>
				<port id="0" precision="I8">
					<dim>128</dim>
					<dim>128</dim>
					<dim>3</dim>
					<dim>3</dim>
				</port>
			</input>
			<output>
				<port id="1" precision="FP16">
					<dim>128</dim>
					<dim>128</dim>
					<dim>3</dim>
					<dim>3</dim>
				</port>
			</output>
		</layer>
		<layer id="374" name="Constant_1613609" type="Const" version="opset1">
			<data element_type="f16" shape="128, 1, 1, 1" offset="3045904" size="256" />
			<output>
				<port id="0" precision="FP16">
					<dim>128</dim>
					<dim>1</dim>
					<dim>1</dim>
					<dim>1</dim>
				</port>
			</output>
		</layer>
		<layer id="375" name="/model.8/m.0/m/m.0/cv2/conv/Conv/WithoutBiases/fq_weights_1" type="Multiply" version="opset1">
			<data auto_broadcast="numpy" />
			<input>
				<port id="0" precision="FP16">
					<dim>128</dim>
					<dim>128</dim>
					<dim>3</dim>
					<dim>3</dim>
				</port>
				<port id="1" precision="FP16">
					<dim>128</dim>
					<dim>1</dim>
					<dim>1</dim>
					<dim>1</dim>
				</port>
			</input>
			<output>
				<port id="2" precision="FP16">
					<dim>128</dim>
					<dim>128</dim>
					<dim>3</dim>
					<dim>3</dim>
				</port>
			</output>
		</layer>
		<layer id="376" name="/model.8/m.0/m/m.0/cv2/conv/Conv/WithoutBiases" type="Convolution" version="opset1">
			<data strides="1, 1" dilations="1, 1" pads_begin="1, 1" pads_end="1, 1" auto_pad="explicit" />
			<input>
				<port id="0" precision="FP16">
					<dim>1</dim>
					<dim>128</dim>
					<dim>20</dim>
					<dim>20</dim>
				</port>
				<port id="1" precision="FP16">
					<dim>128</dim>
					<dim>128</dim>
					<dim>3</dim>
					<dim>3</dim>
				</port>
			</input>
			<output>
				<port id="2" precision="FP16">
					<dim>1</dim>
					<dim>128</dim>
					<dim>20</dim>
					<dim>20</dim>
				</port>
			</output>
		</layer>
		<layer id="377" name="Reshape_1056522" type="Const" version="opset1">
			<data element_type="f16" shape="1, 128, 1, 1" offset="3046160" size="256" />
			<output>
				<port id="0" precision="FP16">
					<dim>1</dim>
					<dim>128</dim>
					<dim>1</dim>
					<dim>1</dim>
				</port>
			</output>
		</layer>
		<layer id="378" name="/model.8/m.0/m/m.0/cv2/conv/Conv" type="Add" version="opset1">
			<data auto_broadcast="numpy" />
			<input>
				<port id="0" precision="FP16">
					<dim>1</dim>
					<dim>128</dim>
					<dim>20</dim>
					<dim>20</dim>
				</port>
				<port id="1" precision="FP16">
					<dim>1</dim>
					<dim>128</dim>
					<dim>1</dim>
					<dim>1</dim>
				</port>
			</input>
			<output>
				<port id="2" precision="FP16" names="/model.8/m.0/m/m.0/cv2/conv/Conv_output_0">
					<dim>1</dim>
					<dim>128</dim>
					<dim>20</dim>
					<dim>20</dim>
				</port>
			</output>
		</layer>
		<layer id="379" name="/model.8/m.0/m/m.0/cv2/act/Mul" type="Swish" version="opset4">
			<input>
				<port id="0" precision="FP16">
					<dim>1</dim>
					<dim>128</dim>
					<dim>20</dim>
					<dim>20</dim>
				</port>
			</input>
			<output>
				<port id="1" precision="FP16" names="/model.8/m.0/m/m.0/cv2/act/Mul_output_0">
					<dim>1</dim>
					<dim>128</dim>
					<dim>20</dim>
					<dim>20</dim>
				</port>
			</output>
		</layer>
		<layer id="380" name="/model.8/m.0/m/m.0/cv2/act/Mul/fq_output_0/input_low" type="Const" version="opset1">
			<data element_type="f16" shape="" offset="3046416" size="2" />
			<output>
				<port id="0" precision="FP16" />
			</output>
		</layer>
		<layer id="381" name="/model.8/m.0/m/m.0/cv2/act/Mul/fq_output_0/input_high" type="Const" version="opset1">
			<data element_type="f16" shape="" offset="3046418" size="2" />
			<output>
				<port id="0" precision="FP16" />
			</output>
		</layer>
		<layer id="382" name="/model.8/m.0/m/m.0/cv2/act/Mul/fq_output_0/output_low" type="Const" version="opset1">
			<data element_type="f16" shape="" offset="3046416" size="2" />
			<output>
				<port id="0" precision="FP16" />
			</output>
		</layer>
		<layer id="383" name="/model.8/m.0/m/m.0/cv2/act/Mul/fq_output_0/output_high" type="Const" version="opset1">
			<data element_type="f16" shape="" offset="3046418" size="2" />
			<output>
				<port id="0" precision="FP16" />
			</output>
		</layer>
		<layer id="384" name="/model.8/m.0/m/m.0/cv2/act/Mul/fq_output_0" type="FakeQuantize" version="opset1">
			<data levels="256" auto_broadcast="numpy" />
			<input>
…
		<edge from-layer="923" from-port="5" to-layer="928" to-port="0" />
		<edge from-layer="924" from-port="0" to-layer="925" to-port="0" />
		<edge from-layer="925" from-port="1" to-layer="927" to-port="0" />
		<edge from-layer="926" from-port="0" to-layer="927" to-port="1" />
		<edge from-layer="927" from-port="2" to-layer="928" to-port="1" />
		<edge from-layer="928" from-port="2" to-layer="930" to-port="0" />
		<edge from-layer="929" from-port="0" to-layer="930" to-port="1" />
		<edge from-layer="930" from-port="2" to-layer="931" to-port="0" />
		<edge from-layer="931" from-port="1" to-layer="936" to-port="0" />
		<edge from-layer="932" from-port="0" to-layer="936" to-port="1" />
		<edge from-layer="933" from-port="0" to-layer="936" to-port="2" />
		<edge from-layer="934" from-port="0" to-layer="936" to-port="3" />
		<edge from-layer="935" from-port="0" to-layer="936" to-port="4" />
		<edge from-layer="936" from-port="5" to-layer="941" to-port="0" />
		<edge from-layer="937" from-port="0" to-layer="938" to-port="0" />
		<edge from-layer="938" from-port="1" to-layer="940" to-port="0" />
		<edge from-layer="939" from-port="0" to-layer="940" to-port="1" />
		<edge from-layer="940" from-port="2" to-layer="941" to-port="1" />
		<edge from-layer="941" from-port="2" to-layer="943" to-port="0" />
		<edge from-layer="942" from-port="0" to-layer="943" to-port="1" />
		<edge from-layer="943" from-port="2" to-layer="945" to-port="0" />
		<edge from-layer="944" from-port="0" to-layer="945" to-port="1" />
		<edge from-layer="944" from-port="0" to-layer="1126" to-port="1" />
		<edge from-layer="944" from-port="0" to-layer="1334" to-port="1" />
		<edge from-layer="945" from-port="2" to-layer="1335" to-port="0" />
		<edge from-layer="946" from-port="0" to-layer="947" to-port="0" />
		<edge from-layer="947" from-port="1" to-layer="949" to-port="0" />
		<edge from-layer="948" from-port="0" to-layer="949" to-port="1" />
		<edge from-layer="949" from-port="2" to-layer="950" to-port="1" />
		<edge from-layer="950" from-port="2" to-layer="952" to-port="0" />
		<edge from-layer="951" from-port="0" to-layer="952" to-port="1" />
		<edge from-layer="952" from-port="2" to-layer="953" to-port="0" />
		<edge from-layer="953" from-port="1" to-layer="958" to-port="0" />
		<edge from-layer="954" from-port="0" to-layer="958" to-port="1" />
		<edge from-layer="955" from-port="0" to-layer="958" to-port="2" />
		<edge from-layer="956" from-port="0" to-layer="958" to-port="3" />
		<edge from-layer="957" from-port="0" to-layer="958" to-port="4" />
		<edge from-layer="958" from-port="5" to-layer="959" to-port="0" />
		<edge from-layer="959" from-port="2" to-layer="964" to-port="0" />
		<edge from-layer="960" from-port="0" to-layer="961" to-port="0" />
		<edge from-layer="961" from-port="1" to-layer="963" to-port="0" />
		<edge from-layer="962" from-port="0" to-layer="963" to-port="1" />
		<edge from-layer="963" from-port="2" to-layer="964" to-port="1" />
		<edge from-layer="964" from-port="2" to-layer="966" to-port="0" />
		<edge from-layer="965" from-port="0" to-layer="966" to-port="1" />
		<edge from-layer="966" from-port="2" to-layer="967" to-port="0" />
		<edge from-layer="967" from-port="1" to-layer="972" to-port="0" />
		<edge from-layer="968" from-port="0" to-layer="972" to-port="1" />
		<edge from-layer="969" from-port="0" to-layer="972" to-port="2" />
		<edge from-layer="970" from-port="0" to-layer="972" to-port="3" />
		<edge from-layer="971" from-port="0" to-layer="972" to-port="4" />
		<edge from-layer="972" from-port="5" to-layer="974" to-port="0" />
		<edge from-layer="973" from-port="0" to-layer="974" to-port="1" />
		<edge from-layer="974" from-port="4" to-layer="979" to-port="0" />
		<edge from-layer="974" from-port="4" to-layer="1079" to-port="1" />
		<edge from-layer="974" from-port="4" to-layer="1056" to-port="0" />
		<edge from-layer="974" from-port="3" to-layer="1079" to-port="0" />
		<edge from-layer="975" from-port="0" to-layer="976" to-port="0" />
		<edge from-layer="976" from-port="1" to-layer="978" to-port="0" />
		<edge from-layer="977" from-port="0" to-layer="978" to-port="1" />
		<edge from-layer="978" from-port="2" to-layer="979" to-port="1" />
		<edge from-layer="979" from-port="2" to-layer="981" to-port="0" />
		<edge from-layer="980" from-port="0" to-layer="981" to-port="1" />
		<edge from-layer="981" from-port="2" to-layer="982" to-port="0" />
		<edge from-layer="982" from-port="1" to-layer="987" to-port="0" />
		<edge from-layer="983" from-port="0" to-layer="987" to-port="1" />
		<edge from-layer="984" from-port="0" to-layer="987" to-port="2" />
		<edge from-layer="985" from-port="0" to-layer="987" to-port="3" />
		<edge from-layer="986" from-port="0" to-layer="987" to-port="4" />
		<edge from-layer="987" from-port="5" to-layer="992" to-port="0" />
		<edge from-layer="987" from-port="5" to-layer="1014" to-port="0" />
		<edge from-layer="988" from-port="0" to-layer="989" to-port="0" />
		<edge from-layer="989" from-port="1" to-layer="991" to-port="0" />
		<edge from-layer="990" from-port="0" to-layer="991" to-port="1" />
		<edge from-layer="991" from-port="2" to-layer="992" to-port="1" />
		<edge from-layer="992" from-port="2" to-layer="994" to-port="0" />
		<edge from-layer="993" from-port="0" to-layer="994" to-port="1" />
		<edge from-layer="994" from-port="2" to-layer="995" to-port="0" />
		<edge from-layer="995" from-port="1" to-layer="1000" to-port="0" />
		<edge from-layer="996" from-port="0" to-layer="1000" to-port="1" />
		<edge from-layer="997" from-port="0" to-layer="1000" to-port="2" />
		<edge from-layer="998" from-port="0" to-layer="1000" to-port="3" />
		<edge from-layer="999" from-port="0" to-layer="1000" to-port="4" />
		<edge from-layer="1000" from-port="5" to-layer="1005" to-port="0" />
		<edge from-layer="1001" from-port="0" to-layer="1002" to-port="0" />
		<edge from-layer="1002" from-port="1" to-layer="1004" to-port="0" />
		<edge from-layer="1003" from-port="0" to-layer="1004" to-port="1" />
		<edge from-layer="1004" from-port="2" to-layer="1005" to-port="1" />
		<edge from-layer="1005" from-port="2" to-layer="1007" to-port="0" />
		<edge from-layer="1006" from-port="0" to-layer="1007" to-port="1" />
		<edge from-layer="1007" from-port="2" to-layer="1008" to-port="0" />
		<edge from-layer="1008" from-port="1" to-layer="1013" to-port="0" />
		<edge from-layer="1009" from-port="0" to-layer="1013" to-port="1" />
		<edge from-layer="1010" from-port="0" to-layer="1013" to-port="2" />
		<edge from-layer="1011" from-port="0" to-layer="1013" to-port="3" />
		<edge from-layer="1012" from-port="0" to-layer="1013" to-port="4" />
		<edge from-layer="1013" from-port="5" to-layer="1014" to-port="1" />
		<edge from-layer="1014" from-port="2" to-layer="1019" to-port="0" />
		<edge from-layer="1015" from-port="0" to-layer="1019" to-port="1" />
		<edge from-layer="1016" from-port="0" to-layer="1019" to-port="2" />
		<edge from-layer="1017" from-port="0" to-layer="1019" to-port="3" />
		<edge from-layer="1018" from-port="0" to-layer="1019" to-port="4" />
		<edge from-layer="1019" from-port="5" to-layer="1024" to-port="0" />
		<edge from-layer="1019" from-port="5" to-layer="1046" to-port="0" />
		<edge from-layer="1020" from-port="0" to-layer="1021" to-port="0" />
		<edge from-layer="1021" from-port="1" to-layer="1023" to-port="0" />
		<edge from-layer="1022" from-port="0" to-layer="1023" to-port="1" />
		<edge from-layer="1023" from-port="2" to-layer="1024" to-port="1" />
		<edge from-layer="1024" from-port="2" to-layer="1026" to-port="0" />
		<edge from-layer="1025" from-port="0" to-layer="1026" to-port="1" />
		<edge from-layer="1026" from-port="2" to-layer="1027" to-port="0" />
		<edge from-layer="1027" from-port="1" to-layer="1032" to-port="0" />
		<edge from-layer="1028" from-port="0" to-layer="1032" to-port="1" />
		<edge from-layer="1029" from-port="0" to-layer="1032" to-port="2" />
		<edge from-layer="1030" from-port="0" to-layer="1032" to-port="3" />
		<edge from-layer="1031" from-port="0" to-layer="1032" to-port="4" />
		<edge from-layer="1032" from-port="5" to-layer="1037" to-port="0" />
		<edge from-layer="1033" from-port="0" to-layer="1034" to-port="0" />
		<edge from-layer="1034" from-port="1" to-layer="1036" to-port="0" />
		<edge from-layer="1035" from-port="0" to-layer="1036" to-port="1" />
		<edge from-layer="1036" from-port="2" to-layer="1037" to-port="1" />
		<edge from-layer="1037" from-port="2" to-layer="1039" to-port="0" />
		<edge from-layer="1038" from-port="0" to-layer="1039" to-port="1" />
		<edge from-layer="1039" from-port="2" to-layer="1040" to-port="0" />
		<edge from-layer="1040" from-port="1" to-layer="1045" to-port="0" />
		<edge from-layer="1041" from-port="0" to-layer="1045" to-port="1" />
		<edge from-layer="1042" from-port="0" to-layer="1045" to-port="2" />
		<edge from-layer="1043" from-port="0" to-layer="1045" to-port="3" />
		<edge from-layer="1044" from-port="0" to-layer="1045" to-port="4" />
		<edge from-layer="1045" from-port="5" to-layer="1046" to-port="1" />
		<edge from-layer="1046" from-port="2" to-layer="1051" to-port="0" />
		<edge from-layer="1047" from-port="0" to-layer="1051" to-port="1" />
		<edge from-layer="1048" from-port="0" to-layer="1051" to-port="2" />
		<edge from-layer="1049" from-port="0" to-layer="1051" to-port="3" />
		<edge from-layer="1050" from-port="0" to-layer="1051" to-port="4" />
		<edge from-layer="1051" from-port="5" to-layer="1065" to-port="0" />
		<edge from-layer="1052" from-port="0" to-layer="1053" to-port="0" />
		<edge from-layer="1053" from-port="1" to-layer="1055" to-port="0" />
		<edge from-layer="1054" from-port="0" to-layer="1055" to-port="1" />
		<edge from-layer="1055" from-port="2" to-layer="1056" to-port="1" />
		<edge from-layer="1056" from-port="2" to-layer="1058" to-port="0" />
		<edge from-layer="1057" from-port="0" to-layer="1058" to-port="1" />
		<edge from-layer="1058" from-port="2" to-layer="1059" to-port="0" />
		<edge from-layer="1059" from-port="1" to-layer="1064" to-port="0" />
		<edge from-layer="1060" from-port="0" to-layer="1064" to-port="1" />
		<edge from-layer="1061" from-port="0" to-layer="1064" to-port="2" />
		<edge from-layer="1062" from-port="0" to-layer="1064" to-port="3" />
		<edge from-layer="1063" from-port="0" to-layer="1064" to-port="4" />
		<edge from-layer="1064" from-port="5" to-layer="1065" to-port="1" />
		<edge from-layer="1065" from-port="2" to-layer="1070" to-port="0" />
		<edge from-layer="1066" from-port="0" to-layer="1067" to-port="0" />
		<edge from-layer="1067" from-port="1" to-layer="1069" to-port="0" />
		<edge from-layer="1068" from-port="0" to-layer="1069" to-port="1" />
		<edge from-layer="1069" from-port="2" to-layer="1070" to-port="1" />
		<edge from-layer="1070" from-port="2" to-layer="1072" to-port="0" />
		<edge from-layer="1071" from-port="0" to-layer="1072" to-port="1" />
		<edge from-layer="1072" from-port="2" to-layer="1073" to-port="0" />
		<edge from-layer="1073" from-port="1" to-layer="1078" to-port="0" />
		<edge from-layer="1074" from-port="0" to-layer="1078" to-port="1" />
		<edge from-layer="1075" from-port="0" to-layer="1078" to-port="2" />
		<edge from-layer="1076" from-port="0" to-layer="1078" to-port="3" />
		<edge from-layer="1077" from-port="0" to-layer="1078" to-port="4" />
		<edge from-layer="1078" from-port="5" to-layer="1079" to-port="2" />
		<edge from-layer="1079" from-port="3" to-layer="1084" to-port="0" />
		<edge from-layer="1080" from-port="0" to-layer="1081" to-port="0" />
		<edge from-layer="1081" from-port="1" to-layer="1083" to-port="0" />
		<edge from-layer="1082" from-port="0" to-layer="1083" to-port="1" />
		<edge from-layer="1083" from-port="2" to-layer="1084" to-port="1" />
		<edge from-layer="1084" from-port="2" to-layer="1086" to-port="0" />
		<edge from-layer="1085" from-port="0" to-layer="1086" to-port="1" />
		<edge from-layer="1086" from-port="2" to-layer="1087" to-port="0" />
		<edge from-layer="1087" from-port="1" to-layer="1092" to-port="0" />
		<edge from-layer="1088" from-port="0" to-layer="1092" to-port="1" />
		<edge from-layer="1089" from-port="0" to-layer="1092" to-port="2" />
		<edge from-layer="1090" from-port="0" to-layer="1092" to-port="3" />
		<edge from-layer="1091" from-port="0" to-layer="1092" to-port="4" />
		<edge from-layer="1092" from-port="5" to-layer="1415" to-port="0" />
		<edge from-layer="1092" from-port="5" to-layer="1097" to-port="0" />
		<edge from-layer="1092" from-port="5" to-layer="1131" to-port="0" />
		<edge from-layer="1093" from-port="0" to-layer="1094" to-port="0" />
		<edge from-layer="1094" from-port="1" to-layer="1096" to-port="0" />
		<edge from-layer="1095" from-port="0" to-layer="1096" to-port="1" />
		<edge from-layer="1096" from-port="2" to-layer="1097" to-port="1" />
		<edge from-layer="1097" from-port="2" to-layer="1099" to-port="0" />
		<edge from-layer="1098" from-port="0" to-layer="1099" to-port="1" />
		<edge from-layer="1099" from-port="2" to-layer="1100" to-port="0" />
		<edge from-layer="1100" from-port="1" to-layer="1105" to-port="0" />
		<edge from-layer="1101" from-port="0" to-layer="1105" to-port="1" />
		<edge from-layer="1102" from-port="0" to-layer="1105" to-port="2" />
		<edge from-layer="1103" from-port="0" to-layer="1105" to-port="3" />
		<edge from-layer="1104" from-port="0" to-layer="1105" to-port="4" />
		<edge from-layer="1105" from-port="5" to-layer="1110" to-port="0" />
		<edge from-layer="1106" from-port="0" to-layer="1107" to-port="0" />
		<edge from-layer="1107" from-port="1" to-layer="1109" to-port="0" />
		<edge from-layer="1108" from-port="0" to-layer="1109" to-port="1" />
		<edge from-layer="1109" from-port="2" to-layer="1110" to-port="1" />
		<edge from-layer="1110" from-port="2" to-layer="1112" to-port="0" />
		<edge from-layer="1111" from-port="0" to-layer="1112" to-port="1" />
		<edge from-layer="1112" from-port="2" to-layer="1113" to-port="0" />
		<edge from-layer="1113" from-port="1" to-layer="1118" to-port="0" />
		<edge from-layer="1114" from-port="0" to-layer="1118" to-port="1" />
		<edge from-layer="1115" from-port="0" to-layer="1118" to-port="2" />
		<edge from-layer="1116" from-port="0" to-layer="1118" to-port="3" />
		<edge from-layer="1117" from-port="0" to-layer="1118" to-port="4" />
		<edge from-layer="1118" from-port="5" to-layer="1123" to-port="0" />
		<edge from-layer="1119" from-port="0" to-layer="1120" to-port="0" />
		<edge from-layer="1120" from-port="1" to-layer="1122" to-port="0" />
		<edge from-layer="1121" from-port="0" to-layer="1122" to-port="1" />
		<edge from-layer="1122" from-port="2" to-layer="1123" to-port="1" />
		<edge from-layer="1123" from-port="2" to-layer="1125" to-port="0" />
		<edge from-layer="1124" from-port="0" to-layer="1125" to-port="1" />
		<edge from-layer="1125" from-port="2" to-layer="1126" to-port="0" />
		<edge from-layer="1126" from-port="2" to-layer="1335" to-port="1" />
		<edge from-layer="1127" from-port="0" to-layer="1128" to-port="0" />
		<edge from-layer="1128" from-port="1" to-layer="1130" to-port="0" />
		<edge from-layer="1129" from-port="0" to-layer="1130" to-port="1" />
		<edge from-layer="1130" from-port="2" to-layer="1131" to-port="1" />
		<edge from-layer="1131" from-port="2" to-layer="1133" to-port="0" />
		<edge from-layer="1132" from-port="0" to-layer="1133" to-port="1" />
		<edge from-layer="1133" from-port="2" to-layer="1134" to-port="0" />
		<edge from-layer="1134" from-port="1" to-layer="1139" to-port="0" />
		<edge from-layer="1135" from-port="0" to-layer="1139" to-port="1" />
		<edge from-layer="1136" from-port="0" to-layer="1139" to-port="2" />
		<edge from-layer="1137" from-port="0" to-layer="1139" to-port="3" />
		<edge from-layer="1138" from-port="0" to-layer="1139" to-port="4" />
		<edge from-layer="1139" from-port="5" to-layer="1140" to-port="0" />
		<edge from-layer="1140" from-port="2" to-layer="1145" to-port="0" />
		<edge from-layer="1141" from-port="0" to-layer="1142" to-port="0" />
		<edge from-layer="1142" from-port="1" to-layer="1144" to-port="0" />
		<edge from-layer="1143" from-port="0" to-layer="1144" to-port="1" />
		<edge from-layer="1144" from-port="2" to-layer="1145" to-port="1" />
		<edge from-layer="1145" from-port="2" to-layer="1147" to-port="0" />
		<edge from-layer="1146" from-port="0" to-layer="1147" to-port="1" />
		<edge from-layer="1147" from-port="2" to-layer="1148" to-port="0" />
		<edge from-layer="1148" from-port="1" to-layer="1153" to-port="0" />
		<edge from-layer="1149" from-port="0" to-layer="1153" to-port="1" />
		<edge from-layer="1150" from-port="0" to-layer="1153" to-port="2" />
		<edge from-layer="1151" from-port="0" to-layer="1153" to-port="3" />
		<edge from-layer="1152" from-port="0" to-layer="1153" to-port="4" />
		<edge from-layer="1153" from-port="5" to-layer="1155" to-port="0" />
		<edge from-layer="1154" from-port="0" to-layer="1155" to-port="1" />
		<edge from-layer="1155" from-port="4" to-layer="1182" to-port="0" />
		<edge from-layer="1155" from-port="3" to-layer="1287" to-port="0" />
		<edge from-layer="1155" from-port="4" to-layer="1287" to-port="1" />
		<edge from-layer="1155" from-port="4" to-layer="1160" to-port="0" />
		<edge from-layer="1156" from-port="0" to-layer="1157" to-port="0" />
		<edge from-layer="1157" from-port="1" to-layer="1159" to-port="0" />
		<edge from-layer="1158" from-port="0" to-layer="1159" to-port="1" />
		<edge from-layer="1159" from-port="2" to-layer="1160" to-port="1" />
		<edge from-layer="1160" from-port="2" to-layer="1162" to-port="0" />
		<edge from-layer="1161" from-port="0" to-layer="1162" to-port="1" />
		<edge from-layer="1162" from-port="2" to-layer="1163" to-port="0" />
		<edge from-layer="1163" from-port="1" to-layer="1168" to-port="0" />
		<edge from-layer="1164" from-port="0" to-layer="1168" to-port="1" />
		<edge from-layer="1165" from-port="0" to-layer="1168" to-port="2" />
		<edge from-layer="1166" from-port="0" to-layer="1168" to-port="3" />
		<edge from-layer="1167" from-port="0" to-layer="1168" to-port="4" />
		<edge from-layer="1168" from-port="5" to-layer="1173" to-port="0" />
		<edge from-layer="1169" from-port="0" to-layer="1170" to-port="0" />
		<edge from-layer="1170" from-port="1" to-layer="1172" to-port="0" />
		<edge from-layer="1171" from-port="0" to-layer="1172" to-port="1" />
		<edge from-layer="1172" from-port="2" to-layer="1173" to-port="1" />
		<edge from-layer="1173" from-port="2" to-layer="1175" to-port="0" />
		<edge from-layer="1174" from-port="0" to-layer="1175" to-port="1" />
		<edge from-layer="1175" from-port="2" to-layer="1176" to-port="0" />
		<edge from-layer="1176" from-port="1" to-layer="1181" to-port="0" />
		<edge from-layer="1177" from-port="0" to-layer="1181" to-port="1" />
		<edge from-layer="1178" from-port="0" to-layer="1181" to-port="2" />
		<edge from-layer="1179" from-port="0" to-layer="1181" to-port="3" />
		<edge from-layer="1180" from-port="0" to-layer="1181" to-port="4" />
		<edge from-layer="1181" from-port="5" to-layer="1182" to-port="1" />
		<edge from-layer="1182" from-port="2" to-layer="1187" to-port="0" />
		<edge from-layer="1183" from-port="0" to-layer="1187" to-port="1" />
		<edge from-layer="1184" from-port="0" to-layer="1187" to-port="2" />
		<edge from-layer="1185" from-port="0" to-layer="1187" to-port="3" />
		<edge from-layer="1186" from-port="0" to-layer="1187" to-port="4" />
		<edge from-layer="1187" from-port="5" to-layer="1192" to-port="0" />
		<edge from-layer="1187" from-port="5" to-layer="1250" to-port="0" />
		<edge from-layer="1188" from-port="0" to-layer="1189" to-port="0" />
		<edge from-layer="1189" from-port="1" to-layer="1191" to-port="0" />
		<edge from-layer="1190" from-port="0" to-layer="1191" to-port="1" />
		<edge from-layer="1191" from-port="2" to-layer="1192" to-port="1" />
		<edge from-layer="1192" from-port="2" to-layer="1194" to-port="0" />
		<edge from-layer="1193" from-port="0" to-layer="1194" to-port="1" />
		<edge from-layer="1194" from-port="2" to-layer="1199" to-port="0" />
		<edge from-layer="1195" from-port="0" to-layer="1199" to-port="1" />
		<edge from-layer="1196" from-port="0" to-layer="1199" to-port="2" />
		<edge from-layer="1197" from-port="0" to-layer="1199" to-port="3" />
		<edge from-layer="1198" from-port="0" to-layer="1199" to-port="4" />
		<edge from-layer="1199" from-port="5" to-layer="1200" to-port="0" />
		<edge from-layer="1200" from-port="2" to-layer="1202" to-port="0" />
		<edge from-layer="1201" from-port="0" to-layer="1202" to-port="1" />
		<edge from-layer="1202" from-port="4" to-layer="1203" to-port="1" />
		<edge from-layer="1202" from-port="3" to-layer="1203" to-port="0" />
		<edge from-layer="1202" from-port="5" to-layer="1212" to-port="0" />
		<edge from-layer="1202" from-port="5" to-layer="1219" to-port="0" />
		<edge from-layer="1203" from-port="2" to-layer="1205" to-port="0" />
		<edge from-layer="1204" from-port="0" to-layer="1205" to-port="1" />
		<edge from-layer="1205" from-port="2" to-layer="1206" to-port="0" />
		<edge from-layer="1206" from-port="1" to-layer="1211" to-port="0" />
		<edge from-layer="1207" from-port="0" to-layer="1211" to-port="1" />
		<edge from-layer="1208" from-port="0" to-layer="1211" to-port="2" />
		<edge from-layer="1209" from-port="0" to-layer="1211" to-port="3" />
		<edge from-layer="1210" from-port="0" to-layer="1211" to-port="4" />
		<edge from-layer="1211" from-port="5" to-layer="1212" to-port="1" />
		<edge from-layer="1212" from-port="2" to-layer="1217" to-port="0" />
		<edge from-layer="1213" from-port="0" to-layer="1217" to-port="1" />
		<edge from-layer="1214" from-port="0" to-layer="1217" to-port="2" />
		<edge from-layer="1215" from-port="0" to-layer="1217" to-port="3" />
		<edge from-layer="1216" from-port="0" to-layer="1217" to-port="4" />
		<edge from-layer="1217" from-port="5" to-layer="1218" to-port="0" />
		<edge from-layer="1218" from-port="2" to-layer="1232" to-port="0" />
		<edge from-layer="1219" from-port="2" to-layer="1224" to-port="0" />
		<edge from-layer="1220" from-port="0" to-layer="1221" to-port="0" />
		<edge from-layer="1221" from-port="1" to-layer="1223" to-port="0" />
		<edge from-layer="1222" from-port="0" to-layer="1223" to-port="1" />
		<edge from-layer="1223" from-port="2" to-layer="1224" to-port="1" />
		<edge from-layer="1224" from-port="2" to-layer="1226" to-port="0" />
		<edge from-layer="1225" from-port="0" to-layer="1226" to-port="1" />
		<edge from-layer="1226" from-port="2" to-layer="1231" to-port="0" />
		<edge from-layer="1227" from-port="0" to-layer="1231" to-port="1" />
		<edge from-layer="1228" from-port="0" to-layer="1231" to-port="2" />
		<edge from-layer="1229" from-port="0" to-layer="1231" to-port="3" />
		<edge from-layer="1230" from-port="0" to-layer="1231" to-port="4" />
		<edge from-layer="1231" from-port="5" to-layer="1232" to-port="1" />
		<edge from-layer="1232" from-port="2" to-layer="1237" to-port="0" />
		<edge from-layer="1233" from-port="0" to-layer="1237" to-port="1" />
		<edge from-layer="1234" from-port="0" to-layer="1237" to-port="2" />
		<edge from-layer="1235" from-port="0" to-layer="1237" to-port="3" />
		<edge from-layer="1236" from-port="0" to-layer="1237" to-port="4" />
		<edge from-layer="1237" from-port="5" to-layer="1242" to-port="0" />
		<edge from-layer="1238" from-port="0" to-layer="1239" to-port="0" />
		<edge from-layer="1239" from-port="1" to-layer="1241" to-port="0" />
		<edge from-layer="1240" from-port="0" to-layer="1241" to-port="1" />
		<edge from-layer="1241" from-port="2" to-layer="1242" to-port="1" />
		<edge from-layer="1242" from-port="2" to-layer="1244" to-port="0" />
		<edge from-layer="1243" from-port="0" to-layer="1244" to-port="1" />
		<edge from-layer="1244" from-port="2" to-layer="1249" to-port="0" />
		<edge from-layer="1245" from-port="0" to-layer="1249" to-port="1" />
		<edge from-layer="1246" from-port="0" to-layer="1249" to-port="2" />
		<edge from-layer="1247" from-port="0" to-layer="1249" to-port="3" />
		<edge from-layer="1248" from-port="0" to-layer="1249" to-port="4" />
		<edge from-layer="1249" from-port="5" to-layer="1250" to-port="1" />
		<edge from-layer="1250" from-port="2" to-layer="1255" to-port="0" />
		<edge from-layer="1251" from-port="0" to-layer="1255" to-port="1" />
		<edge from-layer="1252" from-port="0" to-layer="1255" to-port="2" />
		<edge from-layer="1253" from-port="0" to-layer="1255" to-port="3" />
		<edge from-layer="1254" from-port="0" to-layer="1255" to-port="4" />
		<edge from-layer="1255" from-port="5" to-layer="1281" to-port="0" />
		<edge from-layer="1255" from-port="5" to-layer="1260" to-port="0" />
		<edge from-layer="1256" from-port="0" to-layer="1257" to-port="0" />
		<edge from-layer="1257" from-port="1" to-layer="1259" to-port="0" />
		<edge from-layer="1258" from-port="0" to-layer="1259" to-port="1" />
		<edge from-layer="1259" from-port="2" to-layer="1260" to-port="1" />
		<edge from-layer="1260" from-port="2" to-layer="1262" to-port="0" />
		<edge from-layer="1261" from-port="0" to-layer="1262" to-port="1" />
		<edge from-layer="1262" from-port="2" to-layer="1263" to-port="0" />
		<edge from-layer="1263" from-port="1" to-layer="1268" to-port="0" />
		<edge from-layer="1264" from-port="0" to-layer="1268" to-port="1" />
		<edge from-layer="1265" from-port="0" to-layer="1268" to-port="2" />
		<edge from-layer="1266" from-port="0" to-layer="1268" to-port="3" />
		<edge from-layer="1267" from-port="0" to-layer="1268" to-port="4" />
		<edge from-layer="1268" from-port="5" to-layer="1273" to-port="0" />
		<edge from-layer="1269" from-port="0" to-layer="1270" to-port="0" />
		<edge from-layer="1270" from-port="1" to-layer="1272" to-port="0" />
		<edge from-layer="1271" from-port="0" to-layer="1272" to-port="1" />
		<edge from-layer="1272" from-port="2" to-layer="1273" to-port="1" />
		<edge from-layer="1273" from-port="2" to-layer="1275" to-port="0" />
		<edge from-layer="1274" from-port="0" to-layer="1275" to-port="1" />
		<edge from-layer="1275" from-port="2" to-layer="1280" to-port="0" />
		<edge from-layer="1276" from-port="0" to-layer="1280" to-port="1" />
		<edge from-layer="1277" from-port="0" to-layer="1280" to-port="2" />
		<edge from-layer="1278" from-port="0" to-layer="1280" to-port="3" />
		<edge from-layer="1279" from-port="0" to-layer="1280" to-port="4" />
		<edge from-layer="1280" from-port="5" to-layer="1281" to-port="1" />
		<edge from-layer="1281" from-port="2" to-layer="1286" to-port="0" />
		<edge from-layer="1282" from-port="0" to-layer="1286" to-port="1" />
		<edge from-layer="1283" from-port="0" to-layer="1286" to-port="2" />
		<edge from-layer="1284" from-port="0" to-layer="1286" to-port="3" />
		<edge from-layer="1285" from-port="0" to-layer="1286" to-port="4" />
		<edge from-layer="1286" from-port="5" to-layer="1287" to-port="2" />
		<edge from-layer="1287" from-port="3" to-layer="1292" to-port="0" />
		<edge from-layer="1288" from-port="0" to-layer="1289" to-port="0" />
		<edge from-layer="1289" from-port="1" to-layer="1291" to-port="0" />
		<edge from-layer="1290" from-port="0" to-layer="1291" to-port="1" />
		<edge from-layer="1291" from-port="2" to-layer="1292" to-port="1" />
		<edge from-layer="1292" from-port="2" to-layer="1294" to-port="0" />
		<edge from-layer="1293" from-port="0" to-layer="1294" to-port="1" />
		<edge from-layer="1294" from-port="2" to-layer="1295" to-port="0" />
		<edge from-layer="1295" from-port="1" to-layer="1300" to-port="0" />
		<edge from-layer="1296" from-port="0" to-layer="1300" to-port="1" />
		<edge from-layer="1297" from-port="0" to-layer="1300" to-port="2" />
		<edge from-layer="1298" from-port="0" to-layer="1300" to-port="3" />
		<edge from-layer="1299" from-port="0" to-layer="1300" to-port="4" />
		<edge from-layer="1300" from-port="5" to-layer="1305" to-port="0" />
		<edge from-layer="1300" from-port="5" to-layer="1475" to-port="0" />
		<edge from-layer="1301" from-port="0" to-layer="1302" to-port="0" />
		<edge from-layer="1302" from-port="1" to-layer="1304" to-port="0" />
		<edge from-layer="1303" from-port="0" to-layer="1304" to-port="1" />
		<edge from-layer="1304" from-port="2" to-layer="1305" to-port="1" />
		<edge from-layer="1305" from-port="2" to-layer="1307" to-port="0" />
		<edge from-layer="1306" from-port="0" to-layer="1307" to-port="1" />
		<edge from-layer="1307" from-port="2" to-layer="1308" to-port="0" />
		<edge from-layer="1308" from-port="1" to-layer="1313" to-port="0" />
		<edge from-layer="1309" from-port="0" to-layer="1313" to-port="1" />
		<edge from-layer="1310" from-port="0" to-layer="1313" to-port="2" />
		<edge from-layer="1311" from-port="0" to-layer="1313" to-port="3" />
		<edge from-layer="1312" from-port="0" to-layer="1313" to-port="4" />
		<edge from-layer="1313" from-port="5" to-layer="1318" to-port="0" />
		<edge from-layer="1314" from-port="0" to-layer="1315" to-port="0" />
		<edge from-layer="1315" from-port="1" to-layer="1317" to-port="0" />
		<edge from-layer="1316" from-port="0" to-layer="1317" to-port="1" />
		<edge from-layer="1317" from-port="2" to-layer="1318" to-port="1" />
		<edge from-layer="1318" from-port="2" to-layer="1320" to-port="0" />
		<edge from-layer="1319" from-port="0" to-layer="1320" to-port="1" />
		<edge from-layer="1320" from-port="2" to-layer="1321" to-port="0" />
		<edge from-layer="1321" from-port="1" to-layer="1326" to-port="0" />
		<edge from-layer="1322" from-port="0" to-layer="1326" to-port="1" />
		<edge from-layer="1323" from-port="0" to-layer="1326" to-port="2" />
		<edge from-layer="1324" from-port="0" to-layer="1326" to-port="3" />
		<edge from-layer="1325" from-port="0" to-layer="1326" to-port="4" />
		<edge from-layer="1326" from-port="5" to-layer="1331" to-port="0" />
		<edge from-layer="1327" from-port="0" to-layer="1328" to-port="0" />
		<edge from-layer="1328" from-port="1" to-layer="1330" to-port="0" />
		<edge from-layer="1329" from-port="0" to-layer="1330" to-port="1" />
		<edge from-layer="1330" from-port="2" to-layer="1331" to-port="1" />
		<edge from-layer="1331" from-port="2" to-layer="1333" to-port="0" />
		<edge from-layer="1332" from-port="0" to-layer="1333" to-port="1" />
		<edge from-layer="1333" from-port="2" to-layer="1334" to-port="0" />
		<edge from-layer="1334" from-port="2" to-layer="1335" to-port="2" />
		<edge from-layer="1335" from-port="3" to-layer="1340" to-port="0" />
		<edge from-layer="1335" from-port="3" to-layer="1345" to-port="0" />
		<edge from-layer="1336" from-port="0" to-layer="1340" to-port="1" />
		<edge from-layer="1337" from-port="0" to-layer="1340" to-port="2" />
		<edge from-layer="1337" from-port="0" to-layer="1345" to-port="1" />
		<edge from-layer="1337" from-port="0" to-layer="1566" to-port="1" />
		<edge from-layer="1337" from-port="0" to-layer="1562" to-port="1" />
		<edge from-layer="1338" from-port="0" to-layer="1340" to-port="3" />
		<edge from-layer="1339" from-port="0" to-layer="1340" to-port="4" />
		<edge from-layer="1339" from-port="0" to-layer="1345" to-port="4" />
		<edge from-layer="1340" from-port="5" to-layer="1341" to-port="1" />
		<edge from-layer="1341" from-port="2" to-layer="1347" to-port="0" />
		<edge from-layer="1342" from-port="0" to-layer="1346" to-port="0" />
		<edge from-layer="1343" from-port="0" to-layer="1345" to-port="2" />
		<edge from-layer="1344" from-port="0" to-layer="1345" to-port="3" />
		<edge from-layer="1345" from-port="5" to-layer="1346" to-port="1" />
		<edge from-layer="1346" from-port="2" to-layer="1347" to-port="1" />
		<edge from-layer="1347" from-port="2" to-layer="1349" to-port="0" />
		<edge from-layer="1348" from-port="0" to-layer="1349" to-port="1" />
		<edge from-layer="1349" from-port="2" to-layer="1533" to-port="0" />
		<edge from-layer="1350" from-port="0" to-layer="1351" to-port="0" />
		<edge from-layer="1351" from-port="1" to-layer="1353" to-port="0" />
		<edge from-layer="1352" from-port="0" to-layer="1353" to-port="1" />
		<edge from-layer="1353" from-port="2" to-layer="1354" to-port="1" />
		<edge from-layer="1354" from-port="2" to-layer="1356" to-port="0" />
		<edge from-layer="1355" from-port="0" to-layer="1356" to-port="1" />
		<edge from-layer="1356" from-port="2" to-layer="1357" to-port="0" />
		<edge from-layer="1357" from-port="1" to-layer="1362" to-port="0" />
		<edge from-layer="1358" from-port="0" to-layer="1362" to-port="1" />
		<edge from-layer="1359" from-port="0" to-layer="1362" to-port="2" />
		<edge from-layer="1360" from-port="0" to-layer="1362" to-port="3" />
		<edge from-layer="1361" from-port="0" to-layer="1362" to-port="4" />
		<edge from-layer="1362" from-port="5" to-layer="1367" to-port="0" />
		<edge from-layer="1363" from-port="0" to-layer="1364" to-port="0" />
		<edge from-layer="1364" from-port="1" to-layer="1366" to-port="0" />
		<edge from-layer="1365" from-port="0" to-layer="1366" to-port="1" />
		<edge from-layer="1366" from-port="2" to-layer="1367" to-port="1" />
		<edge from-layer="1367" from-port="2" to-layer="1369" to-port="0" />
		<edge from-layer="1368" from-port="0" to-layer="1369" to-port="1" />
		<edge from-layer="1369" from-port="2" to-layer="1370" to-port="0" />
		<edge from-layer="1370" from-port="1" to-layer="1375" to-port="0" />
		<edge from-layer="1371" from-port="0" to-layer="1375" to-port="1" />
		<edge from-layer="1372" from-port="0" to-layer="1375" to-port="2" />
		<edge from-layer="1373" from-port="0" to-layer="1375" to-port="3" />
		<edge from-layer="1374" from-port="0" to-layer="1375" to-port="4" />
		<edge from-layer="1375" from-port="5" to-layer="1380" to-port="0" />
		<edge from-layer="1376" from-port="0" to-layer="1377" to-port="0" />
		<edge from-layer="1377" from-port="1" to-layer="1379" to-port="0" />
		<edge from-layer="1378" from-port="0" to-layer="1379" to-port="1" />
		<edge from-layer="1379" from-port="2" to-layer="1380" to-port="1" />
		<edge from-layer="1380" from-port="2" to-layer="1382" to-port="0" />
		<edge from-layer="1381" from-port="0" to-layer="1382" to-port="1" />
		<edge from-layer="1382" from-port="2" to-layer="1383" to-port="0" />
		<edge from-layer="1383" from-port="1" to-layer="1388" to-port="0" />
		<edge from-layer="1384" from-port="0" to-layer="1388" to-port="1" />
		<edge from-layer="1385" from-port="0" to-layer="1388" to-port="2" />
		<edge from-layer="1386" from-port="0" to-layer="1388" to-port="3" />
		<edge from-layer="1387" from-port="0" to-layer="1388" to-port="4" />
		<edge from-layer="1388" from-port="5" to-layer="1393" to-port="0" />
		<edge from-layer="1389" from-port="0" to-layer="1390" to-port="0" />
		<edge from-layer="1390" from-port="1" to-layer="1392" to-port="0" />
		<edge from-layer="1391" from-port="0" to-layer="1392" to-port="1" />
		<edge from-layer="1392" from-port="2" to-layer="1393" to-port="1" />
		<edge from-layer="1393" from-port="2" to-layer="1395" to-port="0" />
		<edge from-layer="1394" from-port="0" to-layer="1395" to-port="1" />
		<edge from-layer="1395" from-port="2" to-layer="1396" to-port="0" />
		<edge from-layer="1396" from-port="1" to-layer="1401" to-port="0" />
		<edge from-layer="1397" from-port="0" to-layer="1401" to-port="1" />
		<edge from-layer="1398" from-port="0" to-layer="1401" to-port="2" />
		<edge from-layer="1399" from-port="0" to-layer="1401" to-port="3" />
		<edge from-layer="1400" from-port="0" to-layer="1401" to-port="4" />
		<edge from-layer="1401" from-port="5" to-layer="1406" to-port="0" />
		<edge from-layer="1402" from-port="0" to-layer="1403" to-port="0" />
		<edge from-layer="1403" from-port="1" to-layer="1405" to-port="0" />
		<edge from-layer="1404" from-port="0" to-layer="1405" to-port="1" />
		<edge from-layer="1405" from-port="2" to-layer="1406" to-port="1" />
		<edge from-layer="1406" from-port="2" to-layer="1408" to-port="0" />
		<edge from-layer="1407" from-port="0" to-layer="1408" to-port="1" />
		<edge from-layer="1408" from-port="2" to-layer="1410" to-port="0" />
		<edge from-layer="1409" from-port="0" to-layer="1470" to-port="1" />
		<edge from-layer="1409" from-port="0" to-layer="1530" to-port="1" />
		<edge from-layer="1409" from-port="0" to-layer="1410" to-port="1" />
		<edge from-layer="1410" from-port="2" to-layer="1531" to-port="0" />
		<edge from-layer="1411" from-port="0" to-layer="1412" to-port="0" />
		<edge from-layer="1412" from-port="1" to-layer="1414" to-port="0" />
		<edge from-layer="1413" from-port="0" to-layer="1414" to-port="1" />
		<edge from-layer="1414" from-port="2" to-layer="1415" to-port="1" />
		<edge from-layer="1415" from-port="2" to-layer="1417" to-port="0" />
		<edge from-layer="1416" from-port="0" to-layer="1417" to-port="1" />
		<edge from-layer="1417" from-port="2" to-layer="1418" to-port="0" />
		<edge from-layer="1418" from-port="1" to-layer="1423" to-port="0" />
		<edge from-layer="1419" from-port="0" to-layer="1423" to-port="1" />
		<edge from-layer="1420" from-port="0" to-layer="1423" to-port="2" />
		<edge from-layer="1421" from-port="0" to-layer="1423" to-port="3" />
		<edge from-layer="1422" from-port="0" to-layer="1423" to-port="4" />
		<edge from-layer="1423" from-port="5" to-layer="1428" to-port="0" />
		<edge from-layer="1424" from-port="0" to-layer="1425" to-port="0" />
		<edge from-layer="1425" from-port="1" to-layer="1427" to-port="0" />
		<edge from-layer="1426" from-port="0" to-layer="1427" to-port="1" />
		<edge from-layer="1427" from-port="2" to-layer="1428" to-port="1" />
		<edge from-layer="1428" from-port="2" to-layer="1430" to-port="0" />
		<edge from-layer="1429" from-port="0" to-layer="1430" to-port="1" />
		<edge from-layer="1430" from-port="2" to-layer="1431" to-port="0" />
		<edge from-layer="1431" from-port="1" to-layer="1436" to-port="0" />
		<edge from-layer="1432" from-port="0" to-layer="1436" to-port="1" />
		<edge from-layer="1433" from-port="0" to-layer="1436" to-port="2" />
		<edge from-layer="1434" from-port="0" to-layer="1436" to-port="3" />
		<edge from-layer="1435" from-port="0" to-layer="1436" to-port="4" />
		<edge from-layer="1436" from-port="5" to-layer="1441" to-port="0" />
		<edge from-layer="1437" from-port="0" to-layer="1438" to-port="0" />
		<edge from-layer="1438" from-port="1" to-layer="1440" to-port="0" />
		<edge from-layer="1439" from-port="0" to-layer="1440" to-port="1" />
		<edge from-layer="1440" from-port="2" to-layer="1441" to-port="1" />
		<edge from-layer="1441" from-port="2" to-layer="1443" to-port="0" />
		<edge from-layer="1442" from-port="0" to-layer="1443" to-port="1" />
		<edge from-layer="1443" from-port="2" to-layer="1444" to-port="0" />
		<edge from-layer="1444" from-port="1" to-layer="1449" to-port="0" />
		<edge from-layer="1445" from-port="0" to-layer="1449" to-port="1" />
		<edge from-layer="1446" from-port="0" to-layer="1449" to-port="2" />
		<edge from-layer="1447" from-port="0" to-layer="1449" to-port="3" />
		<edge from-layer="1448" from-port="0" to-layer="1449" to-port="4" />
		<edge from-layer="1449" from-port="5" to-layer="1454" to-port="0" />
		<edge from-layer="1450" from-port="0" to-layer="1451" to-port="0" />
		<edge from-layer="1451" from-port="1" to-layer="1453" to-port="0" />
		<edge from-layer="1452" from-port="0" to-layer="1453" to-port="1" />
		<edge from-layer="1453" from-port="2" to-layer="1454" to-port="1" />
		<edge from-layer="1454" from-port="2" to-layer="1456" to-port="0" />
		<edge from-layer="1455" from-port="0" to-layer="1456" to-port="1" />
		<edge from-layer="1456" from-port="2" to-layer="1457" to-port="0" />
		<edge from-layer="1457" from-port="1" to-layer="1462" to-port="0" />
		<edge from-layer="1458" from-port="0" to-layer="1462" to-port="1" />
		<edge from-layer="1459" from-port="0" to-layer="1462" to-port="2" />
		<edge from-layer="1460" from-port="0" to-layer="1462" to-port="3" />
		<edge from-layer="1461" from-port="0" to-layer="1462" to-port="4" />
		<edge from-layer="1462" from-port="5" to-layer="1467" to-port="0" />
		<edge from-layer="1463" from-port="0" to-layer="1464" to-port="0" />
		<edge from-layer="1464" from-port="1" to-layer="1466" to-port="0" />
		<edge from-layer="1465" from-port="0" to-layer="1466" to-port="1" />
		<edge from-layer="1466" from-port="2" to-layer="1467" to-port="1" />
		<edge from-layer="1467" from-port="2" to-layer="1469" to-port="0" />
		<edge from-layer="1468" from-port="0" to-layer="1469" to-port="1" />
		<edge from-layer="1469" from-port="2" to-layer="1470" to-port="0" />
		<edge from-layer="1470" from-port="2" to-layer="1531" to-port="1" />
		<edge from-layer="1471" from-port="0" to-layer="1472" to-port="0" />
		<edge from-layer="1472" from-port="1" to-layer="1474" to-port="0" />
		<edge from-layer="1473" from-port="0" to-layer="1474" to-port="1" />
		<edge from-layer="1474" from-port="2" to-layer="1475" to-port="1" />
		<edge from-layer="1475" from-port="2" to-layer="1477" to-port="0" />
		<edge from-layer="1476" from-port="0" to-layer="1477" to-port="1" />
		<edge from-layer="1477" from-port="2" to-layer="1478" to-port="0" />
		<edge from-layer="1478" from-port="1" to-layer="1483" to-port="0" />
		<edge from-layer="1479" from-port="0" to-layer="1483" to-port="1" />
		<edge from-layer="1480" from-port="0" to-layer="1483" to-port="2" />
		<edge from-layer="1481" from-port="0" to-layer="1483" to-port="3" />
		<edge from-layer="1482" from-port="0" to-layer="1483" to-port="4" />
		<edge from-layer="1483" from-port="5" to-layer="1488" to-port="0" />
		<edge from-layer="1484" from-port="0" to-layer="1485" to-port="0" />
		<edge from-layer="1485" from-port="1" to-layer="1487" to-port="0" />
		<edge from-layer="1486" from-port="0" to-layer="1487" to-port="1" />
		<edge from-layer="1487" from-port="2" to-layer="1488" to-port="1" />
		<edge from-layer="1488" from-port="2" to-layer="1490" to-port="0" />
		<edge from-layer="1489" from-port="0" to-layer="1490" to-port="1" />
		<edge from-layer="1490" from-port="2" to-layer="1491" to-port="0" />
		<edge from-layer="1491" from-port="1" to-layer="1496" to-port="0" />
		<edge from-layer="1492" from-port="0" to-layer="1496" to-port="1" />
		<edge from-layer="1493" from-port="0" to-layer="1496" to-port="2" />
		<edge from-layer="1494" from-port="0" to-layer="1496" to-port="3" />
		<edge from-layer="1495" from-port="0" to-layer="1496" to-port="4" />
		<edge from-layer="1496" from-port="5" to-layer="1501" to-port="0" />
		<edge from-layer="1497" from-port="0" to-layer="1498" to-port="0" />
		<edge from-layer="1498" from-port="1" to-layer="1500" to-port="0" />
		<edge from-layer="1499" from-port="0" to-layer="1500" to-port="1" />
		<edge from-layer="1500" from-port="2" to-layer="1501" to-port="1" />
		<edge from-layer="1501" from-port="2" to-layer="1503" to-port="0" />
		<edge from-layer="1502" from-port="0" to-layer="1503" to-port="1" />
		<edge from-layer="1503" from-port="2" to-layer="1504" to-port="0" />
		<edge from-layer="1504" from-port="1" to-layer="1509" to-port="0" />
		<edge from-layer="1505" from-port="0" to-layer="1509" to-port="1" />
		<edge from-layer="1506" from-port="0" to-layer="1509" to-port="2" />
		<edge from-layer="1507" from-port="0" to-layer="1509" to-port="3" />
		<edge from-layer="1508" from-port="0" to-layer="1509" to-port="4" />
		<edge from-layer="1509" from-port="5" to-layer="1514" to-port="0" />
		<edge from-layer="1510" from-port="0" to-layer="1511" to-port="0" />
		<edge from-layer="1511" from-port="1" to-layer="1513" to-port="0" />
		<edge from-layer="1512" from-port="0" to-layer="1513" to-port="1" />
		<edge from-layer="1513" from-port="2" to-layer="1514" to-port="1" />
		<edge from-layer="1514" from-port="2" to-layer="1516" to-port="0" />
		<edge from-layer="1515" from-port="0" to-layer="1516" to-port="1" />
		<edge from-layer="1516" from-port="2" to-layer="1517" to-port="0" />
		<edge from-layer="1517" from-port="1" to-layer="1522" to-port="0" />
		<edge from-layer="1518" from-port="0" to-layer="1522" to-port="1" />
		<edge from-layer="1519" from-port="0" to-layer="1522" to-port="2" />
		<edge from-layer="1520" from-port="0" to-layer="1522" to-port="3" />
		<edge from-layer="1521" from-port="0" to-layer="1522" to-port="4" />
		<edge from-layer="1522" from-port="5" to-layer="1527" to-port="0" />
		<edge from-layer="1523" from-port="0" to-layer="1524" to-port="0" />
		<edge from-layer="1524" from-port="1" to-layer="1526" to-port="0" />
		<edge from-layer="1525" from-port="0" to-layer="1526" to-port="1" />
		<edge from-layer="1526" from-port="2" to-layer="1527" to-port="1" />
		<edge from-layer="1527" from-port="2" to-layer="1529" to-port="0" />
		<edge from-layer="1528" from-port="0" to-layer="1529" to-port="1" />
		<edge from-layer="1529" from-port="2" to-layer="1530" to-port="0" />
		<edge from-layer="1530" from-port="2" to-layer="1531" to-port="2" />
		<edge from-layer="1531" from-port="3" to-layer="1532" to-port="0" />
		<edge from-layer="1532" from-port="1" to-layer="1533" to-port="1" />
		<edge from-layer="1533" from-port="2" to-layer="1535" to-port="0" />
		<edge from-layer="1534" from-port="0" to-layer="1535" to-port="1" />
		<edge from-layer="1535" from-port="2" to-layer="1538" to-port="0" />
		<edge from-layer="1536" from-port="0" to-layer="1538" to-port="1" />
		<edge from-layer="1537" from-port="0" to-layer="1538" to-port="2" />
		<edge from-layer="1538" from-port="4" to-layer="1540" to-port="0" />
		<edge from-layer="1538" from-port="4" to-layer="1549" to-port="0" />
		<edge from-layer="1538" from-port="3" to-layer="1560" to-port="0" />
		<edge from-layer="1539" from-port="0" to-layer="1540" to-port="1" />
		<edge from-layer="1540" from-port="2" to-layer="1542" to-port="0" />
		<edge from-layer="1541" from-port="0" to-layer="1542" to-port="1" />
		<edge from-layer="1542" from-port="3" to-layer="1544" to-port="0" />
		<edge from-layer="1543" from-port="0" to-layer="1544" to-port="1" />
		<edge from-layer="1544" from-port="2" to-layer="1546" to-port="0" />
		<edge from-layer="1544" from-port="2" to-layer="1548" to-port="0" />
		<edge from-layer="1545" from-port="0" to-layer="1546" to-port="1" />
		<edge from-layer="1546" from-port="2" to-layer="1557" to-port="0" />
		<edge from-layer="1547" from-port="0" to-layer="1548" to-port="1" />
		<edge from-layer="1548" from-port="2" to-layer="1549" to-port="1" />
		<edge from-layer="1549" from-port="2" to-layer="1551" to-port="0" />
		<edge from-layer="1550" from-port="0" to-layer="1551" to-port="1" />
		<edge from-layer="1551" from-port="2" to-layer="1553" to-port="0" />
		<edge from-layer="1552" from-port="0" to-layer="1553" to-port="1" />
		<edge from-layer="1553" from-port="3" to-layer="1555" to-port="0" />
		<edge from-layer="1553" from-port="2" to-layer="1562" to-port="0" />
		<edge from-layer="1553" from-port="3" to-layer="1565" to-port="0" />
		<edge from-layer="1554" from-port="0" to-layer="1555" to-port="1" />
		<edge from-layer="1555" from-port="2" to-layer="1557" to-port="1" />
		<edge from-layer="1556" from-port="0" to-layer="1557" to-port="2" />
		<edge from-layer="1557" from-port="3" to-layer="1559" to-port="0" />
		<edge from-layer="1558" from-port="0" to-layer="1559" to-port="1" />
		<edge from-layer="1559" from-port="2" to-layer="1560" to-port="1" />
		<edge from-layer="1560" from-port="2" to-layer="1561" to-port="0" />
		<edge from-layer="1561" from-port="1" to-layer="1568" to-port="0" />
		<edge from-layer="1562" from-port="2" to-layer="1563" to-port="0" />
		<edge from-layer="1563" from-port="1" to-layer="1568" to-port="1" />
		<edge from-layer="1564" from-port="0" to-layer="1565" to-port="1" />
		<edge from-layer="1565" from-port="2" to-layer="1566" to-port="0" />
		<edge from-layer="1566" from-port="2" to-layer="1567" to-port="0" />
		<edge from-layer="1567" from-port="1" to-layer="1568" to-port="2" />
		<edge from-layer="1568" from-port="3" to-layer="1569" to-port="0" />
	</edges>
	<rt_info>
		<Runtime_version value="2025.4.0-20398-7a975177ff4-releases/2025/4" />
		<conversion_parameters>
			<input_model value="DIR\yolo26s.onnx" />
			<is_python_object value="False" />
		</conversion_parameters>
		<framework>
			<args value="{'batch': 1, 'half': True, 'dynamic': False, 'simplify': True, 'opset': None, 'nms': False}" />
			<author value="Ultralytics" />
			<batch value="1" />
			<channels value="3" />
			<date value="2026-04-15T14:46:38.663362" />
			<description value="Ultralytics YOLO26s model trained on E:\final_exam_test\handcraft\handcrafted\datasets\farukalam\tomato-leaf-diseases-detection-computer-vision\versions\all1\data.yaml" />
			<docs value="https://docs.ultralytics.com" />
			<end2end value="True" />
			<imgsz value="[640, 640]" />
			<license value="AGPL-3.0 License (https://ultralytics.com/license)" />
			<names value="{0: 'Bacterial Spot', 1: 'Early_Blight', 2: 'Healthy', 3: 'Late_blight', 4: 'Leaf Mold', 5: 'Target_Spot', 6: 'black spot', 7: 'Apple Scab Leaf', 8: 'Apple leaf', 9: 'Apple rust leaf', 10: 'Bell_pepper leaf spot', 11: 'Bell_pepper leaf', 12: 'Blueberry leaf', 13: 'Cherry leaf', 14: 'Corn Gray leaf spot', 15: 'Corn leaf blight', 16: 'Corn rust leaf', 17: 'Peach leaf', 18: 'Potato leaf early blight', 19: 'Potato leaf late blight', 20: 'Potato leaf', 21: 'Raspberry leaf', 22: 'Soyabean leaf', 23: 'Soybean leaf', 24: 'Squash Powdery mildew leaf', 25: 'Strawberry leaf', 26: 'Tomato Septoria leaf spot', 27: 'Tomato leaf mosaic virus', 28: 'Tomato leaf yellow virus', 29: 'Tomato leaf', 30: 'Tomato two spotted spider mites leaf', 31: 'grape leaf black rot', 32: 'grape leaf'}" />
			<stride value="32" />
			<task value="detect" />
			<version value="8.4.37" />
		</framework>
		<nncf>
			<friendly_names_were_updated value="True" />
			<quantization>
				<advanced_parameters value="{}" />
				<fast_bias_correction value="True" />
				<ignored_scope value="None" />
				<model_type value="None" />
				<preset value="performance" />
				<subset_size value="150" />
				<target_device value="ANY" />
			</quantization>
			<version value="2.19.0" />
		</nncf>
	</rt_info>
</net>
