<?xml version="1.0"?>
<net name="main_graph" version="11">
	<layers>
		<layer id="0" name="images" type="Parameter" version="opset1">
			<data shape="1,3,640,640" element_type="f32" />
			<output>
				<port id="0" precision="FP32" names="images">
					<dim>1</dim>
					<dim>3</dim>
					<dim>640</dim>
					<dim>640</dim>
				</port>
			</output>
		</layer>
		<layer id="1" name="/model.23/Constant_12_output_0" type="Const" version="opset1">
			<data element_type="f32" shape="1, 2, 8400" offset="0" size="67200" />
			<output>
				<port id="0" precision="FP32" names="/model.23/Constant_12_output_0">
					<dim>1</dim>
					<dim>2</dim>
					<dim>8400</dim>
				</port>
			</output>
		</layer>
		<layer id="2" name="images/fq_output_0/input_low" type="Const" version="opset1">
			<data element_type="f32" shape="" offset="67200" size="4" />
			<output>
				<port id="0" precision="FP32" />
			</output>
		</layer>
		<layer id="3" name="images/fq_output_0/input_high" type="Const" version="opset1">
			<data element_type="f32" shape="" offset="67204" size="4" />
			<output>
				<port id="0" precision="FP32" />
			</output>
		</layer>
		<layer id="4" name="images/fq_output_0/output_low" type="Const" version="opset1">
			<data element_type="f32" shape="" offset="67200" size="4" />
			<output>
				<port id="0" precision="FP32" />
			</output>
		</layer>
		<layer id="5" name="images/fq_output_0/output_high" type="Const" version="opset1">
			<data element_type="f32" shape="" offset="67204" size="4" />
			<output>
				<port id="0" precision="FP32" />
			</output>
		</layer>
		<layer id="6" name="images/fq_output_0" type="FakeQuantize" version="opset1">
			<data levels="256" auto_broadcast="numpy" />
			<input>
				<port id="0" precision="FP32">
					<dim>1</dim>
					<dim>3</dim>
					<dim>640</dim>
					<dim>640</dim>
				</port>
				<port id="1" precision="FP32" />
				<port id="2" precision="FP32" />
				<port id="3" precision="FP32" />
				<port id="4" precision="FP32" />
			</input>
			<output>
				<port id="5" precision="FP32">
					<dim>1</dim>
					<dim>3</dim>
					<dim>640</dim>
					<dim>640</dim>
				</port>
			</output>
		</layer>
		<layer id="7" name="Constant_2882986" type="Const" version="opset1">
			<data element_type="i8" shape="64, 3, 3, 3" offset="67208" size="1728" />
			<output>
				<port id="0" precision="I8">
					<dim>64</dim>
					<dim>3</dim>
					<dim>3</dim>
					<dim>3</dim>
				</port>
			</output>
		</layer>
		<layer id="8" name="Convert_2882987" type="Convert" version="opset1">
			<data destination_type="f32" />
			<input>
				<port id="0" precision="I8">
					<dim>64</dim>
					<dim>3</dim>
					<dim>3</dim>
					<dim>3</dim>
				</port>
			</input>
			<output>
				<port id="1" precision="FP32">
					<dim>64</dim>
					<dim>3</dim>
					<dim>3</dim>
					<dim>3</dim>
				</port>
			</output>
		</layer>
		<layer id="9" name="Constant_2882988" type="Const" version="opset1">
			<data element_type="f32" shape="64, 1, 1, 1" offset="68936" size="256" />
			<output>
				<port id="0" precision="FP32">
					<dim>64</dim>
					<dim>1</dim>
					<dim>1</dim>
					<dim>1</dim>
				</port>
			</output>
		</layer>
		<layer id="10" name="/model.0/conv/Conv/WithoutBiases/fq_weights_1" type="Multiply" version="opset1">
			<data auto_broadcast="numpy" />
			<input>
				<port id="0" precision="FP32">
					<dim>64</dim>
					<dim>3</dim>
					<dim>3</dim>
					<dim>3</dim>
				</port>
				<port id="1" precision="FP32">
					<dim>64</dim>
					<dim>1</dim>
					<dim>1</dim>
					<dim>1</dim>
				</port>
			</input>
			<output>
				<port id="2" precision="FP32">
					<dim>64</dim>
					<dim>3</dim>
					<dim>3</dim>
					<dim>3</dim>
				</port>
			</output>
		</layer>
		<layer id="11" name="/model.0/conv/Conv/WithoutBiases" type="Convolution" version="opset1">
			<data strides="2, 2" dilations="1, 1" pads_begin="1, 1" pads_end="1, 1" auto_pad="explicit" />
			<input>
				<port id="0" precision="FP32">
					<dim>1</dim>
					<dim>3</dim>
					<dim>640</dim>
					<dim>640</dim>
				</port>
				<port id="1" precision="FP32">
					<dim>64</dim>
					<dim>3</dim>
					<dim>3</dim>
					<dim>3</dim>
				</port>
			</input>
			<output>
				<port id="2" precision="FP32">
					<dim>1</dim>
					<dim>64</dim>
					<dim>320</dim>
					<dim>320</dim>
				</port>
			</output>
		</layer>
		<layer id="12" name="Reshape_1364426" type="Const" version="opset1">
			<data element_type="f32" shape="1, 64, 1, 1" offset="69192" size="256" />
			<output>
				<port id="0" precision="FP32">
					<dim>1</dim>
					<dim>64</dim>
					<dim>1</dim>
					<dim>1</dim>
				</port>
			</output>
		</layer>
		<layer id="13" name="/model.0/conv/Conv" type="Add" version="opset1">
			<data auto_broadcast="numpy" />
			<input>
				<port id="0" precision="FP32">
					<dim>1</dim>
					<dim>64</dim>
					<dim>320</dim>
					<dim>320</dim>
				</port>
				<port id="1" precision="FP32">
					<dim>1</dim>
					<dim>64</dim>
					<dim>1</dim>
					<dim>1</dim>
				</port>
			</input>
			<output>
				<port id="2" precision="FP32" names="/model.0/conv/Conv_output_0">
					<dim>1</dim>
					<dim>64</dim>
					<dim>320</dim>
					<dim>320</dim>
				</port>
			</output>
		</layer>
		<layer id="14" name="/model.0/act/Mul" type="Swish" version="opset4">
			<input>
				<port id="0" precision="FP32">
					<dim>1</dim>
					<dim>64</dim>
					<dim>320</dim>
					<dim>320</dim>
				</port>
			</input>
			<output>
				<port id="1" precision="FP32" names="/model.0/act/Mul_output_0">
					<dim>1</dim>
					<dim>64</dim>
					<dim>320</dim>
					<dim>320</dim>
				</port>
			</output>
		</layer>
		<layer id="15" name="/model.0/act/Mul/fq_output_0/input_low" type="Const" version="opset1">
			<data element_type="f32" shape="" offset="69448" size="4" />
			<output>
				<port id="0" precision="FP32" />
			</output>
		</layer>
		<layer id="16" name="/model.0/act/Mul/fq_output_0/input_high" type="Const" version="opset1">
			<data element_type="f32" shape="" offset="69452" size="4" />
			<output>
				<port id="0" precision="FP32" />
			</output>
		</layer>
		<layer id="17" name="/model.0/act/Mul/fq_output_0/output_low" type="Const" version="opset1">
			<data element_type="f32" shape="" offset="69448" size="4" />
			<output>
				<port id="0" precision="FP32" />
			</output>
		</layer>
		<layer id="18" name="/model.0/act/Mul/fq_output_0/output_high" type="Const" version="opset1">
			<data element_type="f32" shape="" offset="69452" size="4" />
			<output>
				<port id="0" precision="FP32" />
			</output>
		</layer>
		<layer id="19" name="/model.0/act/Mul/fq_output_0" type="FakeQuantize" version="opset1">
			<data levels="256" auto_broadcast="numpy" />
			<input>
				<port id="0" precision="FP32">
					<dim>1</dim>
					<dim>64</dim>
					<dim>320</dim>
					<dim>320</dim>
				</port>
				<port id="1" precision="FP32" />
				<port id="2" precision="FP32" />
				<port id="3" precision="FP32" />
				<port id="4" precision="FP32" />
			</input>
			<output>
				<port id="5" precision="FP32">
					<dim>1</dim>
					<dim>64</dim>
					<dim>320</dim>
					<dim>320</dim>
				</port>
			</output>
		</layer>
		<layer id="20" name="Constant_2882990" type="Const" version="opset1">
			<data element_type="i8" shape="128, 64, 3, 3" offset="69456" size="73728" />
			<output>
				<port id="0" precision="I8">
					<dim>128</dim>
					<dim>64</dim>
					<dim>3</dim>
					<dim>3</dim>
				</port>
			</output>
		</layer>
		<layer id="21" name="Convert_2882991" type="Convert" version="opset1">
			<data destination_type="f32" />
			<input>
				<port id="0" precision="I8">
					<dim>128</dim>
					<dim>64</dim>
					<dim>3</dim>
					<dim>3</dim>
				</port>
			</input>
			<output>
				<port id="1" precision="FP32">
					<dim>128</dim>
					<dim>64</dim>
					<dim>3</dim>
					<dim>3</dim>
				</port>
			</output>
		</layer>
		<layer id="22" name="Constant_2882992" type="Const" version="opset1">
			<data element_type="f32" shape="128, 1, 1, 1" offset="143184" size="512" />
			<output>
				<port id="0" precision="FP32">
					<dim>128</dim>
					<dim>1</dim>
					<dim>1</dim>
					<dim>1</dim>
				</port>
			</output>
		</layer>
		<layer id="23" name="/model.1/conv/Conv/WithoutBiases/fq_weights_1" type="Multiply" version="opset1">
			<data auto_broadcast="numpy" />
			<input>
				<port id="0" precision="FP32">
					<dim>128</dim>
					<dim>64</dim>
					<dim>3</dim>
					<dim>3</dim>
				</port>
				<port id="1" precision="FP32">
					<dim>128</dim>
					<dim>1</dim>
					<dim>1</dim>
					<dim>1</dim>
				</port>
			</input>
			<output>
				<port id="2" precision="FP32">
					<dim>128</dim>
					<dim>64</dim>
					<dim>3</dim>
					<dim>3</dim>
				</port>
			</output>
		</layer>
		<layer id="24" name="/model.1/conv/Conv/WithoutBiases" type="Convolution" version="opset1">
			<data strides="2, 2" dilations="1, 1" pads_begin="1, 1" pads_end="1, 1" auto_pad="explicit" />
			<input>
				<port id="0" precision="FP32">
					<dim>1</dim>
					<dim>64</dim>
					<dim>320</dim>
					<dim>320</dim>
				</port>
				<port id="1" precision="FP32">
					<dim>128</dim>
					<dim>64</dim>
					<dim>3</dim>
					<dim>3</dim>
				</port>
			</input>
			<output>
				<port id="2" precision="FP32">
					<dim>1</dim>
					<dim>128</dim>
					<dim>160</dim>
					<dim>160</dim>
				</port>
			</output>
		</layer>
		<layer id="25" name="Reshape_1364441" type="Const" version="opset1">
			<data element_type="f32" shape="1, 128, 1, 1" offset="143696" size="512" />
			<output>
				<port id="0" precision="FP32">
					<dim>1</dim>
					<dim>128</dim>
					<dim>1</dim>
					<dim>1</dim>
				</port>
			</output>
		</layer>
		<layer id="26" name="/model.1/conv/Conv" type="Add" version="opset1">
			<data auto_broadcast="numpy" />
			<input>
				<port id="0" precision="FP32">
					<dim>1</dim>
					<dim>128</dim>
					<dim>160</dim>
					<dim>160</dim>
				</port>
				<port id="1" precision="FP32">
					<dim>1</dim>
					<dim>128</dim>
					<dim>1</dim>
					<dim>1</dim>
				</port>
			</input>
			<output>
				<port id="2" precision="FP32" names="/model.1/conv/Conv_output_0">
					<dim>1</dim>
					<dim>128</dim>
					<dim>160</dim>
					<dim>160</dim>
				</port>
			</output>
		</layer>
		<layer id="27" name="/model.1/act/Mul" type="Swish" version="opset4">
			<input>
				<port id="0" precision="FP32">
					<dim>1</dim>
					<dim>128</dim>
					<dim>160</dim>
					<dim>160</dim>
				</port>
			</input>
			<output>
				<port id="1" precision="FP32" names="/model.1/act/Mul_output_0">
					<dim>1</dim>
					<dim>128</dim>
					<dim>160</dim>
					<dim>160</dim>
				</port>
			</output>
		</layer>
		<layer id="28" name="/model.1/act/Mul/fq_output_0/input_low" type="Const" version="opset1">
			<data element_type="f32" shape="" offset="144208" size="4" />
			<output>
				<port id="0" precision="FP32" />
			</output>
		</layer>
		<layer id="29" name="/model.1/act/Mul/fq_output_0/input_high" type="Const" version="opset1">
			<data element_type="f32" shape="" offset="144212" size="4" />
			<output>
				<port id="0" precision="FP32" />
			</output>
		</layer>
		<layer id="30" name="/model.1/act/Mul/fq_output_0/output_low" type="Const" version="opset1">
			<data element_type="f32" shape="" offset="144208" size="4" />
			<output>
				<port id="0" precision="FP32" />
			</output>
		</layer>
		<layer id="31" name="/model.1/act/Mul/fq_output_0/output_high" type="Const" version="opset1">
			<data element_type="f32" shape="" offset="144212" size="4" />
			<output>
				<port id="0" precision="FP32" />
			</output>
		</layer>
		<layer id="32" name="/model.1/act/Mul/fq_output_0" type="FakeQuantize" version="opset1">
			<data levels="256" auto_broadcast="numpy" />
			<input>
				<port id="0" precision="FP32">
					<dim>1</dim>
					<dim>128</dim>
					<dim>160</dim>
					<dim>160</dim>
				</port>
				<port id="1" precision="FP32" />
				<port id="2" precision="FP32" />
				<port id="3" precision="FP32" />
				<port id="4" precision="FP32" />
			</input>
			<output>
				<port id="5" precision="FP32">
					<dim>1</dim>
					<dim>128</dim>
					<dim>160</dim>
					<dim>160</dim>
				</port>
			</output>
		</layer>
		<layer id="33" name="Constant_2882994" type="Const" version="opset1">
			<data element_type="i8" shape="128, 128, 1, 1" offset="144216" size="16384" />
			<output>
				<port id="0" precision="I8">
					<dim>128</dim>
					<dim>128</dim>
					<dim>1</dim>
					<dim>1</dim>
				</port>
			</output>
		</layer>
		<layer id="34" name="Convert_2882995" type="Convert" version="opset1">
			<data destination_type="f32" />
			<input>
				<port id="0" precision="I8">
					<dim>128</dim>
					<dim>128</dim>
					<dim>1</dim>
					<dim>1</dim>
				</port>
			</input>
			<output>
				<port id="1" precision="FP32">
					<dim>128</dim>
					<dim>128</dim>
					<dim>1</dim>
					<dim>1</dim>
				</port>
			</output>
		</layer>
		<layer id="35" name="Constant_2882996" type="Const" version="opset1">
			<data element_type="f32" shape="128, 1, 1, 1" offset="160600" size="512" />
			<output>
				<port id="0" precision="FP32">
					<dim>128</dim>
					<dim>1</dim>
					<dim>1</dim>
					<dim>1</dim>
				</port>
			</output>
		</layer>
		<layer id="36" name="/model.2/cv1/conv/Conv/WithoutBiases/fq_weights_1" type="Multiply" version="opset1">
			<data auto_broadcast="numpy" />
			<input>
				<port id="0" precision="FP32">
					<dim>128</dim>
					<dim>128</dim>
					<dim>1</dim>
					<dim>1</dim>
				</port>
				<port id="1" precision="FP32">
					<dim>128</dim>
					<dim>1</dim>
					<dim>1</dim>
					<dim>1</dim>
				</port>
			</input>
			<output>
				<port id="2" precision="FP32">
					<dim>128</dim>
					<dim>128</dim>
					<dim>1</dim>
					<dim>1</dim>
				</port>
			</output>
		</layer>
		<layer id="37" name="/model.2/cv1/conv/Conv/WithoutBiases" type="Convolution" version="opset1">
			<data strides="1, 1" dilations="1, 1" pads_begin="0, 0" pads_end="0, 0" auto_pad="explicit" />
			<input>
				<port id="0" precision="FP32">
					<dim>1</dim>
					<dim>128</dim>
					<dim>160</dim>
					<dim>160</dim>
				</port>
				<port id="1" precision="FP32">
					<dim>128</dim>
					<dim>128</dim>
					<dim>1</dim>
					<dim>1</dim>
				</port>
			</input>
			<output>
				<port id="2" precision="FP32">
					<dim>1</dim>
					<dim>128</dim>
					<dim>160</dim>
					<dim>160</dim>
				</port>
			</output>
		</layer>
		<layer id="38" name="Reshape_1364456" type="Const" version="opset1">
			<data element_type="f32" shape="1, 128, 1, 1" offset="161112" size="512" />
			<output>
				<port id="0" precision="FP32">
					<dim>1</dim>
					<dim>128</dim>
					<dim>1</dim>
					<dim>1</dim>
				</port>
			</output>
		</layer>
		<layer id="39" name="/model.2/cv1/conv/Conv" type="Add" version="opset1">
			<data auto_broadcast="numpy" />
			<input>
				<port id="0" precision="FP32">
					<dim>1</dim>
					<dim>128</dim>
					<dim>160</dim>
					<dim>160</dim>
				</port>
				<port id="1" precision="FP32">
					<dim>1</dim>
					<dim>128</dim>
					<dim>1</dim>
					<dim>1</dim>
				</port>
			</input>
			<output>
				<port id="2" precision="FP32" names="/model.2/cv1/conv/Conv_output_0">
					<dim>1</dim>
					<dim>128</dim>
					<dim>160</dim>
					<dim>160</dim>
				</port>
			</output>
		</layer>
		<layer id="40" name="/model.2/cv1/act/Mul" type="Swish" version="opset4">
			<input>
				<port id="0" precision="FP32">
					<dim>1</dim>
					<dim>128</dim>
					<dim>160</dim>
					<dim>160</dim>
				</port>
			</input>
			<output>
				<port id="1" precision="FP32" names="/model.2/cv1/act/Mul_output_0">
					<dim>1</dim>
					<dim>128</dim>
					<dim>160</dim>
					<dim>160</dim>
				</port>
			</output>
		</layer>
		<layer id="41" name="/model.2/cv1/act/Mul/fq_output_0/input_low" type="Const" version="opset1">
			<data element_type="f32" shape="" offset="161624" size="4" />
			<output>
				<port id="0" precision="FP32" />
			</output>
		</layer>
		<layer id="42" name="/model.2/cv1/act/Mul/fq_output_0/input_high" type="Const" version="opset1">
			<data element_type="f32" shape="" offset="161628" size="4" />
			<output>
				<port id="0" precision="FP32" />
			</output>
		</layer>
		<layer id="43" name="/model.2/cv1/act/Mul/fq_output_0/output_low" type="Const" version="opset1">
			<data element_type="f32" shape="" offset="161624" size="4" />
			<output>
				<port id="0" precision="FP32" />
			</output>
		</layer>
		<layer id="44" name="/model.2/cv1/act/Mul/fq_output_0/output_high" type="Const" version="opset1">
			<data element_type="f32" shape="" offset="161628" size="4" />
			<output>
				<port id="0" precision="FP32" />
			</output>
		</layer>
		<layer id="45" name="/model.2/cv1/act/Mul/fq_output_0" type="FakeQuantize" version="opset1">
			<data levels="256" auto_broadcast="numpy" />
			<input>
				<port id="0" precision="FP32">
					<dim>1</dim>
					<dim>128</dim>
					<dim>160</dim>
					<dim>160</dim>
				</port>
				<port id="1" precision="FP32" />
				<port id="2" precision="FP32" />
				<port id="3" precision="FP32" />
				<port id="4" precision="FP32" />
			</input>
			<output>
				<port id="5" precision="FP32">
					<dim>1</dim>
					<dim>128</dim>
					<dim>160</dim>
					<dim>160</dim>
				</port>
			</output>
		</layer>
		<layer id="46" name="Constant_1364460" type="Const" version="opset1">
			<data element_type="i64" shape="" offset="161632" size="8" />
			<output>
				<port id="0" precision="I64" />
			</output>
		</layer>
		<layer id="47" name="onnx::Split_235" type="Const" version="opset1">
			<data element_type="i64" shape="2" offset="161640" size="16" />
			<output>
				<port id="0" precision="I64" names="onnx::Split_235">
					<dim>2</dim>
				</port>
			</output>
		</layer>
		<layer id="48" name="/model.2/Split" type="VariadicSplit" version="opset1">
			<input>
				<port id="0" precision="FP32">
					<dim>1</dim>
					<dim>128</dim>
					<dim>160</dim>
					<dim>160</dim>
				</port>
				<port id="1" precision="I64" />
				<port id="2" precision="I64">
					<dim>2</dim>
				</port>
			</input>
			<output>
				<port id="3" precision="FP32" names="/model.2/Split_output_0">
					<dim>1</dim>
					<dim>64</dim>
					<dim>160</dim>
					<dim>160</dim>
				</port>
				<port id="4" precision="FP32" names="/model.2/Split_output_1">
					<dim>1</dim>
					<dim>64</dim>
					<dim>160</dim>
					<dim>160</dim>
				</port>
			</output>
		</layer>
		<layer id="49" name="Constant_2882998" type="Const" version="opset1">
			<data element_type="i8" shape="32, 64, 1, 1" offset="161656" size="2048" />
			<output>
				<port id="0" precision="I8">
					<dim>32</dim>
					<dim>64</dim>
					<dim>1</dim>
					<dim>1</dim>
				</port>
			</output>
		</layer>
		<layer id="50" name="Convert_2882999" type="Convert" version="opset1">
			<data destination_type="f32" />
			<input>
				<port id="0" precision="I8">
					<dim>32</dim>
					<dim>64</dim>
					<dim>1</dim>
					<dim>1</dim>
				</port>
			</input>
			<output>
				<port id="1" precision="FP32">
					<dim>32</dim>
					<dim>64</dim>
					<dim>1</dim>
					<dim>1</dim>
				</port>
			</output>
		</layer>
		<layer id="51" name="Constant_2883000" type="Const" version="opset1">
			<data element_type="f32" shape="32, 1, 1, 1" offset="163704" size="128" />
			<output>
				<port id="0" precision="FP32">
					<dim>32</dim>
					<dim>1</dim>
					<dim>1</dim>
					<dim>1</dim>
				</port>
			</output>
		</layer>
		<layer id="52" name="/model.2/m.0/cv1/conv/Conv/WithoutBiases/fq_weights_1" type="Multiply" version="opset1">
			<data auto_broadcast="numpy" />
			<input>
				<port id="0" precision="FP32">
					<dim>32</dim>
					<dim>64</dim>
					<dim>1</dim>
					<dim>1</dim>
				</port>
				<port id="1" precision="FP32">
					<dim>32</dim>
					<dim>1</dim>
					<dim>1</dim>
					<dim>1</dim>
				</port>
			</input>
			<output>
				<port id="2" precision="FP32">
					<dim>32</dim>
					<dim>64</dim>
					<dim>1</dim>
					<dim>1</dim>
				</port>
			</output>
		</layer>
		<layer id="53" name="/model.2/m.0/cv1/conv/Conv/WithoutBiases" type="Convolution" version="opset1">
			<data strides="1, 1" dilations="1, 1" pads_begin="0, 0" pads_end="0, 0" auto_pad="explicit" />
			<input>
				<port id="0" precision="FP32">
					<dim>1</dim>
					<dim>64</dim>
					<dim>160</dim>
					<dim>160</dim>
				</port>
				<port id="1" precision="FP32">
					<dim>32</dim>
					<dim>64</dim>
					<dim>1</dim>
					<dim>1</dim>
				</port>
			</input>
			<output>
				<port id="2" precision="FP32">
					<dim>1</dim>
					<dim>32</dim>
					<dim>160</dim>
					<dim>160</dim>
				</port>
			</output>
		</layer>
		<layer id="54" name="Reshape_1364473" type="Const" version="opset1">
			<data element_type="f32" shape="1, 32, 1, 1" offset="163832" size="128" />
			<output>
				<port id="0" precision="FP32">
					<dim>1</dim>
					<dim>32</dim>
					<dim>1</dim>
					<dim>1</dim>
				</port>
			</output>
		</layer>
		<layer id="55" name="/model.2/m.0/cv1/conv/Conv" type="Add" version="opset1">
			<data auto_broadcast="numpy" />
			<input>
				<port id="0" precision="FP32">
					<dim>1</dim>
					<dim>32</dim>
					<dim>160</dim>
					<dim>160</dim>
				</port>
				<port id="1" precision="FP32">
					<dim>1</dim>
					<dim>32</dim>
					<dim>1</dim>
					<dim>1</dim>
				</port>
			</input>
			<output>
				<port id="2" precision="FP32" names="/model.2/m.0/cv1/conv/Conv_output_0">
					<dim>1</dim>
					<dim>32</dim>
					<dim>160</dim>
					<dim>160</dim>
				</port>
			</output>
		</layer>
		<layer id="56" name="/model.2/m.0/cv1/act/Mul" type="Swish" version="opset4">
			<input>
				<port id="0" precision="FP32">
					<dim>1</dim>
					<dim>32</dim>
					<dim>160</dim>
					<dim>160</dim>
				</port>
			</input>
			<output>
				<port id="1" precision="FP32" names="/model.2/m.0/cv1/act/Mul_output_0">
					<dim>1</dim>
					<dim>32</dim>
					<dim>160</dim>
					<dim>160</dim>
				</port>
			</output>
		</layer>
		<layer id="57" name="/model.2/m.0/cv1/act/Mul/fq_output_0/input_low" type="Const" version="opset1">
			<data element_type="f32" shape="" offset="163960" size="4" />
			<output>
				<port id="0" precision="FP32" />
			</output>
		</layer>
		<layer id="58" name="/model.2/m.0/cv1/act/Mul/fq_output_0/input_high" type="Const" version="opset1">
			<data element_type="f32" shape="" offset="163964" size="4" />
			<output>
				<port id="0" precision="FP32" />
			</output>
		</layer>
		<layer id="59" name="/model.2/m.0/cv1/act/Mul/fq_output_0/output_low" type="Const" version="opset1">
			<data element_type="f32" shape="" offset="163960" size="4" />
			<output>
				<port id="0" precision="FP32" />
			</output>
		</layer>
		<layer id="60" name="/model.2/m.0/cv1/act/Mul/fq_output_0/output_high" type="Const" version="opset1">
			<data element_type="f32" shape="" offset="163964" size="4" />
			<output>
				<port id="0" precision="FP32" />
			</output>
		</layer>
		<layer id="61" name="/model.2/m.0/cv1/act/Mul/fq_output_0" type="FakeQuantize" version="opset1">
			<data levels="256" auto_broadcast="numpy" />
			<input>
				<port id="0" precision="FP32">
					<dim>1</dim>
					<dim>32</dim>
					<dim>160</dim>
					<dim>160</dim>
				</port>
				<port id="1" precision="FP32" />
				<port id="2" precision="FP32" />
				<port id="3" precision="FP32" />
				<port id="4" precision="FP32" />
			</input>
			<output>
				<port id="5" precision="FP32">
					<dim>1</dim>
					<dim>32</dim>
					<dim>160</dim>
					<dim>160</dim>
				</port>
			</output>
		</layer>
		<layer id="62" name="Constant_2883002" type="Const" version="opset1">
			<data element_type="i8" shape="32, 32, 3, 3" offset="163968" size="9216" />
			<output>
				<port id="0" precision="I8">
					<dim>32</dim>
					<dim>32</dim>
					<dim>3</dim>
					<dim>3</dim>
				</port>
			</output>
		</layer>
		<layer id="63" name="Convert_2883003" type="Convert" version="opset1">
			<data destination_type="f32" />
			<input>
				<port id="0" precision="I8">
					<dim>32</dim>
					<dim>32</dim>
					<dim>3</dim>
					<dim>3</dim>
				</port>
			</input>
			<output>
				<port id="1" precision="FP32">
					<dim>32</dim>
					<dim>32</dim>
					<dim>3</dim>
					<dim>3</dim>
				</port>
			</output>
		</layer>
		<layer id="64" name="Constant_2883004" type="Const" version="opset1">
			<data element_type="f32" shape="32, 1, 1, 1" offset="173184" size="128" />
			<output>
				<port id="0" precision="FP32">
					<dim>32</dim>
					<dim>1</dim>
					<dim>1</dim>
					<dim>1</dim>
				</port>
			</output>
		</layer>
		<layer id="65" name="/model.2/m.0/m/m.0/cv1/conv/Conv/WithoutBiases/fq_weights_1" type="Multiply" version="opset1">
			<data auto_broadcast="numpy" />
			<input>
				<port id="0" precision="FP32">
					<dim>32</dim>
					<dim>32</dim>
					<dim>3</dim>
					<dim>3</dim>
				</port>
				<port id="1" precision="FP32">
					<dim>32</dim>
					<dim>1</dim>
					<dim>1</dim>
					<dim>1</dim>
				</port>
			</input>
			<output>
				<port id="2" precision="FP32">
					<dim>32</dim>
					<dim>32</dim>
					<dim>3</dim>
					<dim>3</dim>
				</port>
			</output>
		</layer>
		<layer id="66" name="/model.2/m.0/m/m.0/cv1/conv/Conv/WithoutBiases" type="Convolution" version="opset1">
			<data strides="1, 1" dilations="1, 1" pads_begin="1, 1" pads_end="1, 1" auto_pad="explicit" />
			<input>
				<port id="0" precision="FP32">
					<dim>1</dim>
					<dim>32</dim>
					<dim>160</dim>
					<dim>160</dim>
				</port>
				<port id="1" precision="FP32">
					<dim>32</dim>
					<dim>32</dim>
					<dim>3</dim>
					<dim>3</dim>
				</port>
			</input>
			<output>
				<port id="2" precision="FP32">
					<dim>1</dim>
					<dim>32</dim>
					<dim>160</dim>
					<dim>160</dim>
				</port>
			</output>
		</layer>
		<layer id="67" name="Reshape_1364503" type="Const" version="opset1">
			<data element_type="f32" shape="1, 32, 1, 1" offset="173312" size="128" />
			<output>
				<port id="0" precision="FP32">
					<dim>1</dim>
					<dim>32</dim>
					<dim>1</dim>
					<dim>1</dim>
				</port>
			</output>
		</layer>
		<layer id="68" name="/model.2/m.0/m/m.0/cv1/conv/Conv" type="Add" version="opset1">
			<data auto_broadcast="numpy" />
			<input>
				<port id="0" precision="FP32">
					<dim>1</dim>
					<dim>32</dim>
					<dim>160</dim>
					<dim>160</dim>
				</port>
				<port id="1" precision="FP32">
					<dim>1</dim>
					<dim>32</dim>
					<dim>1</dim>
					<dim>1</dim>
				</port>
			</input>
			<output>
				<port id="2" precision="FP32" names="/model.2/m.0/m/m.0/cv1/conv/Conv_output_0">
					<dim>1</dim>
					<dim>32</dim>
					<dim>160</dim>
					<dim>160</dim>
				</port>
			</output>
		</layer>
		<layer id="69" name="/model.2/m.0/m/m.0/cv1/act/Mul" type="Swish" version="opset4">
			<input>
				<port id="0" precision="FP32">
					<dim>1</dim>
					<dim>32</dim>
					<dim>160</dim>
					<dim>160</dim>
				</port>
			</input>
			<output>
				<port id="1" precision="FP32" names="/model.2/m.0/m/m.0/cv1/act/Mul_output_0">
					<dim>1</dim>
					<dim>32</dim>
					<dim>160</dim>
					<dim>160</dim>
				</port>
			</output>
		</layer>
		<layer id="70" name="/model.2/m.0/m/m.0/cv1/act/Mul/fq_output_0/input_low" type="Const" version="opset1">
			<data element_type="f32" shape="" offset="173440" size="4" />
			<output>
				<port id="0" precision="FP32" />
			</output>
		</layer>
		<layer id="71" name="/model.2/m.0/m/m.0/cv1/act/Mul/fq_output_0/input_high" type="Const" version="opset1">
			<data element_type="f32" shape="" offset="173444" size="4" />
			<output>
				<port id="0" precision="FP32" />
			</output>
		</layer>
		<layer id="72" name="/model.2/m.0/m/m.0/cv1/act/Mul/fq_output_0/output_low" type="Const" version="opset1">
			<data element_type="f32" shape="" offset="173440" size="4" />
			<output>
				<port id="0" precision="FP32" />
			</output>
		</layer>
		<layer id="73" name="/model.2/m.0/m/m.0/cv1/act/Mul/fq_output_0/output_high" type="Const" version="opset1">
			<data element_type="f32" shape="" offset="173444" size="4" />
			<output>
				<port id="0" precision="FP32" />
			</output>
		</layer>
		<layer id="74" name="/model.2/m.0/m/m.0/cv1/act/Mul/fq_output_0" type="FakeQuantize" version="opset1">
			<data levels="256" auto_broadcast="numpy" />
			<input>
				<port id="0" precision="FP32">
					<dim>1</dim>
					<dim>32</dim>
					<dim>160</dim>
					<dim>160</dim>
				</port>
				<port id="1" precision="FP32" />
				<port id="2" precision="FP32" />
				<port id="3" precision="FP32" />
				<port id="4" precision="FP32" />
			</input>
			<output>
				<port id="5" precision="FP32">
					<dim>1</dim>
					<dim>32</dim>
					<dim>160</dim>
					<dim>160</dim>
				</port>
			</output>
		</layer>
		<layer id="75" name="Constant_2883006" type="Const" version="opset1">
			<data element_type="i8" shape="32, 32, 3, 3" offset="173448" size="9216" />
			<output>
				<port id="0" precision="I8">
					<dim>32</dim>
					<dim>32</dim>
					<dim>3</dim>
					<dim>3</dim>
				</port>
			</output>
		</layer>
		<layer id="76" name="Convert_2883007" type="Convert" version="opset1">
			<data destination_type="f32" />
			<input>
				<port id="0" precision="I8">
					<dim>32</dim>
					<dim>32</dim>
					<dim>3</dim>
					<dim>3</dim>
				</port>
			</input>
			<output>
				<port id="1" precision="FP32">
					<dim>32</dim>
					<dim>32</dim>
					<dim>3</dim>
					<dim>3</dim>
				</port>
			</output>
		</layer>
		<layer id="77" name="Constant_2883008" type="Const" version="opset1">
			<data element_type="f32" shape="32, 1, 1, 1" offset="182664" size="128" />
			<output>
				<port id="0" precision="FP32">
					<dim>32</dim>
					<dim>1</dim>
					<dim>1</dim>
					<dim>1</dim>
				</port>
			</output>
		</layer>
		<layer id="78" name="/model.2/m.0/m/m.0/cv2/conv/Conv/WithoutBiases/fq_weights_1" type="Multiply" version="opset1">
			<data auto_broadcast="numpy" />
			<input>
				<port id="0" precision="FP32">
					<dim>32</dim>
					<dim>32</dim>
					<dim>3</dim>
					<dim>3</dim>
				</port>
				<port id="1" precision="FP32">
					<dim>32</dim>
					<dim>1</dim>
					<dim>1</dim>
					<dim>1</dim>
				</port>
			</input>
			<output>
				<port id="2" precision="FP32">
					<dim>32</dim>
					<dim>32</dim>
					<dim>3</dim>
					<dim>3</dim>
				</port>
			</output>
		</layer>
		<layer id="79" name="/model.2/m.0/m/m.0/cv2/conv/Conv/WithoutBiases" type="Convolution" version="opset1">
			<data strides="1, 1" dilations="1, 1" pads_begin="1, 1" pads_end="1, 1" auto_pad="explicit" />
			<input>
				<port id="0" precision="FP32">
					<dim>1</dim>
					<dim>32</dim>
					<dim>160</dim>
					<dim>160</dim>
				</port>
				<port id="1" precision="FP32">
					<dim>32</dim>
					<dim>32</dim>
					<dim>3</dim>
					<dim>3</dim>
				</port>
			</input>
			<output>
				<port id="2" precision="FP32">
					<dim>1</dim>
					<dim>32</dim>
					<dim>160</dim>
					<dim>160</dim>
				</port>
			</output>
		</layer>
		<layer id="80" name="Reshape_1364518" type="Const" version="opset1">
			<data element_type="f32" shape="1, 32, 1, 1" offset="182792" size="128" />
			<output>
				<port id="0" precision="FP32">
					<dim>1</dim>
					<dim>32</dim>
					<dim>1</dim>
					<dim>1</dim>
				</port>
			</output>
		</layer>
		<layer id="81" name="/model.2/m.0/m/m.0/cv2/conv/Conv" type="Add" version="opset1">
			<data auto_broadcast="numpy" />
			<input>
				<port id="0" precision="FP32">
					<dim>1</dim>
					<dim>32</dim>
					<dim>160</dim>
					<dim>160</dim>
				</port>
				<port id="1" precision="FP32">
					<dim>1</dim>
					<dim>32</dim>
					<dim>1</dim>
					<dim>1</dim>
				</port>
			</input>
			<output>
				<port id="2" precision="FP32" names="/model.2/m.0/m/m.0/cv2/conv/Conv_output_0">
					<dim>1</dim>
					<dim>32</dim>
					<dim>160</dim>
					<dim>160</dim>
				</port>
			</output>
		</layer>
		<layer id="82" name="/model.2/m.0/m/m.0/cv2/act/Mul" type="Swish" version="opset4">
			<input>
				<port id="0" precision="FP32">
					<dim>1</dim>
					<dim>32</dim>
					<dim>160</dim>
					<dim>160</dim>
				</port>
			</input>
			<output>
				<port id="1" precision="FP32" names="/model.2/m.0/m/m.0/cv2/act/Mul_output_0">
					<dim>1</dim>
					<dim>32</dim>
					<dim>160</dim>
					<dim>160</dim>
				</port>
			</output>
		</layer>
		<layer id="83" name="/model.2/m.0/m/m.0/cv2/act/Mul/fq_output_0/input_low" type="Const" version="opset1">
			<data element_type="f32" shape="" offset="182920" size="4" />
			<output>
				<port id="0" precision="FP32" />
			</output>
		</layer>
		<layer id="84" name="/model.2/m.0/m/m.0/cv2/act/Mul/fq_output_0/input_high" type="Const" version="opset1">
			<data element_type="f32" shape="" offset="182924" size="4" />
			<output>
				<port id="0" precision="FP32" />
			</output>
		</layer>
		<layer id="85" name="/model.2/m.0/m/m.0/cv2/act/Mul/fq_output_0/output_low" type="Const" version="opset1">
			<data element_type="f32" shape="" offset="182920" size="4" />
			<output>
				<port id="0" precision="FP32" />
			</output>
		</layer>
		<layer id="86" name="/model.2/m.0/m/m.0/cv2/act/Mul/fq_output_0/output_high" type="Const" version="opset1">
			<data element_type="f32" shape="" offset="182924" size="4" />
			<output>
				<port id="0" precision="FP32" />
			</output>
		</layer>
		<layer id="87" name="/model.2/m.0/m/m.0/cv2/act/Mul/fq_output_0" type="FakeQuantize" version="opset1">
			<data levels="256" auto_broadcast="numpy" />
			<input>
				<port id="0" precision="FP32">
					<dim>1</dim>
					<dim>32</dim>
					<dim>160</dim>
					<dim>160</dim>
				</port>
				<port id="1" precision="FP32" />
				<port id="2" precision="FP32" />
				<port id="3" precision="FP32" />
				<port id="4" precision="FP32" />
			</input>
			<output>
				<port id="5" precision="FP32">
					<dim>1</dim>
					<dim>32</dim>
					<dim>160</dim>
					<dim>160</dim>
				</port>
			</output>
		</layer>
		<layer id="88" name="/model.2/m.0/m/m.0/Add" type="Add" version="opset1">
			<data auto_broadcast="numpy" />
			<input>
				<port id="0" precision="FP32">
					<dim>1</dim>
					<dim>32</dim>
					<dim>160</dim>
					<dim>160</dim>
				</port>
				<port id="1" precision="FP32">
					<dim>1</dim>
					<dim>32</dim>
					<dim>160</dim>
					<dim>160</dim>
				</port>
			</input>
			<output>
				<port id="2" precision="FP32" names="/model.2/m.0/m/m.0/Add_output_0">
					<dim>1</dim>
					<dim>32</dim>
					<dim>160</dim>
					<dim>160</dim>
				</port>
			</output>
		</layer>
		<layer id="89" name="/model.2/m.0/m/m.0/Add/fq_output_0/input_low" type="Const" version="opset1">
			<data element_type="f32" shape="" offset="182928" size="4" />
			<output>
				<port id="0" precision="FP32" />
			</output>
		</layer>
		<layer id="90" name="/model.2/m.0/m/m.0/Add/fq_output_0/input_high" type="Const" version="opset1">
			<data element_type="f32" shape="" offset="182932" size="4" />
			<output>
				<port id="0" precision="FP32" />
			</output>
		</layer>
		<layer id="91" name="/model.2/m.0/m/m.0/Add/fq_output_0/output_low" type="Const" version="opset1">
			<data element_type="f32" shape="" offset="182928" size="4" />
			<output>
				<port id="0" precision="FP32" />
			</output>
		</layer>
		<layer id="92" name="/model.2/m.0/m/m.0/Add/fq_output_0/output_high" type="Const" version="opset1">
			<data element_type="f32" shape="" offset="182932" size="4" />
			<output>
				<port id="0" precision="FP32" />
			</output>
		</layer>
		<layer id="93" name="/model.2/m.0/m/m.0/Add/fq_output_0" type="FakeQuantize" version="opset1">
			<data levels="256" auto_broadcast="numpy" />
			<input>
				<port id="0" precision="FP32">
					<dim>1</dim>
					<dim>32</dim>
					<dim>160</dim>
					<dim>160</dim>
				</port>
				<port id="1" precision="FP32" />
				<port id="2" precision="FP32" />
				<port id="3" precision="FP32" />
				<port id="4" precision="FP32" />
			</input>
			<output>
				<port id="5" precision="FP32">
					<dim>1</dim>
					<dim>32</dim>
					<dim>160</dim>
					<dim>160</dim>
				</port>
			</output>
		</layer>
		<layer id="94" name="Constant_2883010" type="Const" version="opset1">
			<data element_type="i8" shape="32, 32, 3, 3" offset="182936" size="9216" />
			<output>
				<port id="0" precision="I8">
					<dim>32</dim>
					<dim>32</dim>
					<dim>3</dim>
					<dim>3</dim>
				</port>
			</output>
		</layer>
		<layer id="95" name="Convert_2883011" type="Convert" version="opset1">
			<data destination_type="f32" />
			<input>
				<port id="0" precision="I8">
					<dim>32</dim>
					<dim>32</dim>
					<dim>3</dim>
					<dim>3</dim>
				</port>
			</input>
			<output>
				<port id="1" precision="FP32">
					<dim>32</dim>
					<dim>32</dim>
					<dim>3</dim>
					<dim>3</dim>
				</port>
			</output>
		</layer>
		<layer id="96" name="Constant_2883012" type="Const" version="opset1">
			<data element_type="f32" shape="32, 1, 1, 1" offset="192152" size="128" />
			<output>
				<port id="0" precision="FP32">
					<dim>32</dim>
					<dim>1</dim>
					<dim>1</dim>
					<dim>1</dim>
				</port>
			</output>
		</layer>
		<layer id="97" name="/model.2/m.0/m/m.1/cv1/conv/Conv/WithoutBiases/fq_weights_1" type="Multiply" version="opset1">
			<data auto_broadcast="numpy" />
			<input>
				<port id="0" precision="FP32">
					<dim>32</dim>
					<dim>32</dim>
					<dim>3</dim>
					<dim>3</dim>
				</port>
				<port id="1" precision="FP32">
					<dim>32</dim>
					<dim>1</dim>
					<dim>1</dim>
					<dim>1</dim>
				</port>
			</input>
			<output>
				<port id="2" precision="FP32">
					<dim>32</dim>
					<dim>32</dim>
					<dim>3</dim>
					<dim>3</dim>
				</port>
			</output>
		</layer>
		<layer id="98" name="/model.2/m.0/m/m.1/cv1/conv/Conv/WithoutBiases" type="Convolution" version="opset1">
			<data strides="1, 1" dilations="1, 1" pads_begin="1, 1" pads_end="1, 1" auto_pad="explicit" />
			<input>
				<port id="0" precision="FP32">
					<dim>1</dim>
					<dim>32</dim>
					<dim>160</dim>
					<dim>160</dim>
				</port>
				<port id="1" precision="FP32">
					<dim>32</dim>
					<dim>32</dim>
					<dim>3</dim>
					<dim>3</dim>
				</port>
			</input>
			<output>
				<port id="2" precision="FP32">
					<dim>1</dim>
					<dim>32</dim>
					<dim>160</dim>
					<dim>160</dim>
				</port>
			</output>
		</layer>
		<layer id="99" name="Reshape_1364534" type="Const" version="opset1">
			<data element_type="f32" shape="1, 32, 1, 1" offset="192280" size="128" />
			<output>
				<port id="0" precision="FP32">
					<dim>1</dim>
					<dim>32</dim>
					<dim>1</dim>
					<dim>1</dim>
				</port>
			</output>
		</layer>
		<layer id="100" name="/model.2/m.0/m/m.1/cv1/conv/Conv" type="Add" version="opset1">
			<data auto_broadcast="numpy" />
			<input>
				<port id="0" precision="FP32">
					<dim>1</dim>
					<dim>32</dim>
					<dim>160</dim>
					<dim>160</dim>
				</port>
				<port id="1" precision="FP32">
					<dim>1</dim>
					<dim>32</dim>
					<dim>1</dim>
					<dim>1</dim>
				</port>
			</input>
			<output>
				<port id="2" precision="FP32" names="/model.2/m.0/m/m.1/cv1/conv/Conv_output_0">
					<dim>1</dim>
					<dim>32</dim>
					<dim>160</dim>
					<dim>160</dim>
				</port>
			</output>
		</layer>
		<layer id="101" name="/model.2/m.0/m/m.1/cv1/act/Mul" type="Swish" version="opset4">
			<input>
				<port id="0" precision="FP32">
					<dim>1</dim>
					<dim>32</dim>
					<dim>160</dim>
					<dim>160</dim>
				</port>
			</input>
			<output>
				<port id="1" precision="FP32" names="/model.2/m.0/m/m.1/cv1/act/Mul_output_0">
					<dim>1</dim>
					<dim>32</dim>
					<dim>160</dim>
					<dim>160</dim>
				</port>
			</output>
		</layer>
		<layer id="102" name="/model.2/m.0/m/m.1/cv1/act/Mul/fq_output_0/input_low" type="Const" version="opset1">
			<data element_type="f32" shape="" offset="192408" size="4" />
			<output>
				<port id="0" precision="FP32" />
			</output>
		</layer>
		<layer id="103" name="/model.2/m.0/m/m.1/cv1/act/Mul/fq_output_0/input_high" type="Const" version="opset1">
			<data element_type="f32" shape="" offset="192412" size="4" />
			<output>
				<port id="0" precision="FP32" />
			</output>
		</layer>
		<layer id="104" name="/model.2/m.0/m/m.1/cv1/act/Mul/fq_output_0/output_low" type="Const" version="opset1">
			<data element_type="f32" shape="" offset="192408" size="4" />
			<output>
				<port id="0" precision="FP32" />
			</output>
		</layer>
		<layer id="105" name="/model.2/m.0/m/m.1/cv1/act/Mul/fq_output_0/output_high" type="Const" version="opset1">
			<data element_type="f32" shape="" offset="192412" size="4" />
			<output>
				<port id="0" precision="FP32" />
			</output>
		</layer>
		<layer id="106" name="/model.2/m.0/m/m.1/cv1/act/Mul/fq_output_0" type="FakeQuantize" version="opset1">
			<data levels="256" auto_broadcast="numpy" />
			<input>
				<port id="0" precision="FP32">
					<dim>1</dim>
					<dim>32</dim>
					<dim>160</dim>
					<dim>160</dim>
				</port>
				<port id="1" precision="FP32" />
				<port id="2" precision="FP32" />
				<port id="3" precision="FP32" />
				<port id="4" precision="FP32" />
			</input>
			<output>
				<port id="5" precision="FP32">
					<dim>1</dim>
					<dim>32</dim>
					<dim>160</dim>
					<dim>160</dim>
				</port>
			</output>
		</layer>
		<layer id="107" name="Constant_2883014" type="Const" version="opset1">
			<data element_type="i8" shape="32, 32, 3, 3" offset="192416" size="9216" />
			<output>
				<port id="0" precision="I8">
					<dim>32</dim>
					<dim>32</dim>
					<dim>3</dim>
					<dim>3</dim>
				</port>
			</output>
		</layer>
		<layer id="108" name="Convert_2883015" type="Convert" version="opset1">
			<data destination_type="f32" />
			<input>
				<port id="0" precision="I8">
					<dim>32</dim>
					<dim>32</dim>
					<dim>3</dim>
					<dim>3</dim>
				</port>
			</input>
			<output>
				<port id="1" precision="FP32">
					<dim>32</dim>
					<dim>32</dim>
					<dim>3</dim>
					<dim>3</dim>
				</port>
			</output>
		</layer>
		<layer id="109" name="Constant_2883016" type="Const" version="opset1">
			<data element_type="f32" shape="32, 1, 1, 1" offset="201632" size="128" />
			<output>
				<port id="0" precision="FP32">
					<dim>32</dim>
					<dim>1</dim>
					<dim>1</dim>
					<dim>1</dim>
				</port>
			</output>
		</layer>
		<layer id="110" name="/model.2/m.0/m/m.1/cv2/conv/Conv/WithoutBiases/fq_weights_1" type="Multiply" version="opset1">
			<data auto_broadcast="numpy" />
			<input>
				<port id="0" precision="FP32">
					<dim>32</dim>
					<dim>32</dim>
					<dim>3</dim>
					<dim>3</dim>
				</port>
				<port id="1" precision="FP32">
					<dim>32</dim>
					<dim>1</dim>
					<dim>1</dim>
					<dim>1</dim>
				</port>
			</input>
			<output>
				<port id="2" precision="FP32">
					<dim>32</dim>
					<dim>32</dim>
					<dim>3</dim>
					<dim>3</dim>
				</port>
			</output>
		</layer>
		<layer id="111" name="/model.2/m.0/m/m.1/cv2/conv/Conv/WithoutBiases" type="Convolution" version="opset1">
			<data strides="1, 1" dilations="1, 1" pads_begin="1, 1" pads_end="1, 1" auto_pad="explicit" />
			<input>
				<port id="0" precision="FP32">
					<dim>1</dim>
					<dim>32</dim>
					<dim>160</dim>
					<dim>160</dim>
				</port>
				<port id="1" precision="FP32">
					<dim>32</dim>
					<dim>32</dim>
					<dim>3</dim>
					<dim>3</dim>
				</port>
			</input>
			<output>
				<port id="2" precision="FP32">
					<dim>1</dim>
					<dim>32</dim>
					<dim>160</dim>
					<dim>160</dim>
				</port>
			</output>
		</layer>
		<layer id="112" name="Reshape_1364549" type="Const" version="opset1">
			<data element_type="f32" shape="1, 32, 1, 1" offset="201760" size="128" />
			<output>
				<port id="0" precision="FP32">
					<dim>1</dim>
					<dim>32</dim>
					<dim>1</dim>
					<dim>1</dim>
				</port>
			</output>
		</layer>
		<layer id="113" name="/model.2/m.0/m/m.1/cv2/conv/Conv" type="Add" version="opset1">
			<data auto_broadcast="numpy" />
			<input>
				<port id="0" precision="FP32">
					<dim>1</dim>
					<dim>32</dim>
					<dim>160</dim>
					<dim>160</dim>
				</port>
				<port id="1" precision="FP32">
					<dim>1</dim>
					<dim>32</dim>
					<dim>1</dim>
					<dim>1</dim>
				</port>
			</input>
			<output>
				<port id="2" precision="FP32" names="/model.2/m.0/m/m.1/cv2/conv/Conv_output_0">
					<dim>1</dim>
					<dim>32</dim>
					<dim>160</dim>
					<dim>160</dim>
				</port>
			</output>
		</layer>
		<layer id="114" name="/model.2/m.0/m/m.1/cv2/act/Mul" type="Swish" version="opset4">
			<input>
				<port id="0" precision="FP32">
					<dim>1</dim>
					<dim>32</dim>
					<dim>160</dim>
					<dim>160</dim>
				</port>
			</input>
			<output>
				<port id="1" precision="FP32" names="/model.2/m.0/m/m.1/cv2/act/Mul_output_0">
					<dim>1</dim>
					<dim>32</dim>
					<dim>160</dim>
					<dim>160</dim>
				</port>
			</output>
		</layer>
		<layer id="115" name="/model.2/m.0/m/m.1/cv2/act/Mul/fq_output_0/input_low" type="Const" version="opset1">
			<data element_type="f32" shape="" offset="201888" size="4" />
			<output>
				<port id="0" precision="FP32" />
			</output>
		</layer>
		<layer id="116" name="/model.2/m.0/m/m.1/cv2/act/Mul/fq_output_0/input_high" type="Const" version="opset1">
			<data element_type="f32" shape="" offset="201892" size="4" />
			<output>
				<port id="0" precision="FP32" />
			</output>
		</layer>
		<layer id="117" name="/model.2/m.0/m/m.1/cv2/act/Mul/fq_output_0/output_low" type="Const" version="opset1">
			<data element_type="f32" shape="" offset="201888" size="4" />
			<output>
				<port id="0" precision="FP32" />
			</output>
		</layer>
		<layer id="118" name="/model.2/m.0/m/m.1/cv2/act/Mul/fq_output_0/output_high" type="Const" version="opset1">
			<data element_type="f32" shape="" offset="201892" size="4" />
			<output>
				<port id="0" precision="FP32" />
			</output>
		</layer>
		<layer id="119" name="/model.2/m.0/m/m.1/cv2/act/Mul/fq_output_0" type="FakeQuantize" version="opset1">
			<data levels="256" auto_broadcast="numpy" />
			<input>
				<port id="0" precision="FP32">
					<dim>1</dim>
					<dim>32</dim>
					<dim>160</dim>
					<dim>160</dim>
				</port>
				<port id="1" precision="FP32" />
				<port id="2" precision="FP32" />
				<port id="3" precision="FP32" />
				<port id="4" precision="FP32" />
			</input>
			<output>
				<port id="5" precision="FP32">
					<dim>1</dim>
					<dim>32</dim>
					<dim>160</dim>
					<dim>160</dim>
				</port>
			</output>
		</layer>
		<layer id="120" name="/model.2/m.0/m/m.1/Add" type="Add" version="opset1">
			<data auto_broadcast="numpy" />
			<input>
				<port id="0" precision="FP32">
					<dim>1</dim>
					<dim>32</dim>
					<dim>160</dim>
					<dim>160</dim>
				</port>
				<port id="1" precision="FP32">
					<dim>1</dim>
					<dim>32</dim>
					<dim>160</dim>
					<dim>160</dim>
				</port>
			</input>
			<output>
				<port id="2" precision="FP32" names="/model.2/m.0/m/m.1/Add_output_0">
					<dim>1</dim>
					<dim>32</dim>
					<dim>160</dim>
					<dim>160</dim>
				</port>
			</output>
		</layer>
		<layer id="121" name="/model.2/m.0/m/m.1/Add/fq_output_0/input_low" type="Const" version="opset1">
			<data element_type="f32" shape="" offset="201896" size="4" />
			<output>
				<port id="0" precision="FP32" />
			</output>
		</layer>
		<layer id="122" name="/model.2/m.0/m/m.1/Add/fq_output_0/input_high" type="Const" version="opset1">
			<data element_type="f32" shape="" offset="201900" size="4" />
			<output>
				<port id="0" precision="FP32" />
			</output>
		</layer>
		<layer id="123" name="/model.2/m.0/m/m.1/Add/fq_output_0/output_low" type="Const" version="opset1">
			<data element_type="f32" shape="" offset="201896" size="4" />
			<output>
				<port id="0" precision="FP32" />
			</output>
		</layer>
		<layer id="124" name="/model.2/m.0/m/m.1/Add/fq_output_0/output_high" type="Const" version="opset1">
			<data element_type="f32" shape="" offset="201900" size="4" />
			<output>
				<port id="0" precision="FP32" />
			</output>
		</layer>
		<layer id="125" name="/model.2/m.0/m/m.1/Add/fq_output_0" type="FakeQuantize" version="opset1">
			<data levels="256" auto_broadcast="numpy" />
			<input>
				<port id="0" precision="FP32">
					<dim>1</dim>
					<dim>32</dim>
					<dim>160</dim>
					<dim>160</dim>
				</port>
				<port id="1" precision="FP32" />
				<port id="2" precision="FP32" />
				<port id="3" precision="FP32" />
				<port id="4" precision="FP32" />
			</input>
			<output>
				<port id="5" precision="FP32">
					<dim>1</dim>
					<dim>32</dim>
					<dim>160</dim>
					<dim>160</dim>
				</port>
			</output>
		</layer>
		<layer id="126" name="Constant_2883018" type="Const" version="opset1">
			<data element_type="i8" shape="32, 64, 1, 1" offset="201904" size="2048" />
			<output>
				<port id="0" precision="I8">
					<dim>32</dim>
					<dim>64</dim>
					<dim>1</dim>
					<dim>1</dim>
				</port>
			</output>
		</layer>
		<layer id="127" name="Convert_2883019" type="Convert" version="opset1">
			<data destination_type="f32" />
			<input>
				<port id="0" precision="I8">
					<dim>32</dim>
					<dim>64</dim>
					<dim>1</dim>
					<dim>1</dim>
				</port>
			</input>
			<output>
				<port id="1" precision="FP32">
					<dim>32</dim>
					<dim>64</dim>
					<dim>1</dim>
					<dim>1</dim>
				</port>
			</output>
		</layer>
		<layer id="128" name="Constant_2883020" type="Const" version="opset1">
			<data element_type="f32" shape="32, 1, 1, 1" offset="203952" size="128" />
			<output>
				<port id="0" precision="FP32">
					<dim>32</dim>
					<dim>1</dim>
					<dim>1</dim>
					<dim>1</dim>
				</port>
			</output>
		</layer>
		<layer id="129" name="/model.2/m.0/cv2/conv/Conv/WithoutBiases/fq_weights_1" type="Multiply" version="opset1">
			<data auto_broadcast="numpy" />
			<input>
				<port id="0" precision="FP32">
					<dim>32</dim>
					<dim>64</dim>
					<dim>1</dim>
					<dim>1</dim>
				</port>
				<port id="1" precision="FP32">
					<dim>32</dim>
					<dim>1</dim>
					<dim>1</dim>
					<dim>1</dim>
				</port>
			</input>
			<output>
				<port id="2" precision="FP32">
					<dim>32</dim>
					<dim>64</dim>
					<dim>1</dim>
					<dim>1</dim>
				</port>
			</output>
		</layer>
		<layer id="130" name="/model.2/m.0/cv2/conv/Conv/WithoutBiases" type="Convolution" version="opset1">
			<data strides="1, 1" dilations="1, 1" pads_begin="0, 0" pads_end="0, 0" auto_pad="explicit" />
			<input>
				<port id="0" precision="FP32">
					<dim>1</dim>
					<dim>64</dim>
					<dim>160</dim>
					<dim>160</dim>
				</port>
				<port id="1" precision="FP32">
					<dim>32</dim>
					<dim>64</dim>
					<dim>1</dim>
					<dim>1</dim>
				</port>
			</input>
			<output>
				<port id="2" precision="FP32">
					<dim>1</dim>
					<dim>32</dim>
					<dim>160</dim>
					<dim>160</dim>
				</port>
			</output>
		</layer>
		<layer id="131" name="Reshape_1364486" type="Const" version="opset1">
			<data element_type="f32" shape="1, 32, 1, 1" offset="204080" size="128" />
			<output>
				<port id="0" precision="FP32">
					<dim>1</dim>
					<dim>32</dim>
					<dim>1</dim>
					<dim>1</dim>
				</port>
			</output>
		</layer>
		<layer id="132" name="/model.2/m.0/cv2/conv/Conv" type="Add" version="opset1">
			<data auto_broadcast="numpy" />
			<input>
				<port id="0" precision="FP32">
					<dim>1</dim>
					<dim>32</dim>
					<dim>160</dim>
					<dim>160</dim>
				</port>
				<port id="1" precision="FP32">
					<dim>1</dim>
					<dim>32</dim>
					<dim>1</dim>
					<dim>1</dim>
				</port>
			</input>
			<output>
				<port id="2" precision="FP32" names="/model.2/m.0/cv2/conv/Conv_output_0">
					<dim>1</dim>
					<dim>32</dim>
					<dim>160</dim>
					<dim>160</dim>
				</port>
			</output>
		</layer>
		<layer id="133" name="/model.2/m.0/cv2/act/Mul" type="Swish" version="opset4">
			<input>
				<port id="0" precision="FP32">
					<dim>1</dim>
					<dim>32</dim>
					<dim>160</dim>
					<dim>160</dim>
				</port>
			</input>
			<output>
				<port id="1" precision="FP32" names="/model.2/m.0/cv2/act/Mul_output_0">
					<dim>1</dim>
					<dim>32</dim>
					<dim>160</dim>
					<dim>160</dim>
				</port>
			</output>
		</layer>
		<layer id="134" name="/model.2/m.0/cv2/act/Mul/fq_output_0/input_low" type="Const" version="opset1">
			<data element_type="f32" shape="" offset="201896" size="4" />
			<output>
				<port id="0" precision="FP32" />
			</output>
		</layer>
		<layer id="135" name="/model.2/m.0/cv2/act/Mul/fq_output_0/input_high" type="Const" version="opset1">
			<data element_type="f32" shape="" offset="201900" size="4" />
			<output>
				<port id="0" precision="FP32" />
			</output>
		</layer>
		<layer id="136" name="/model.2/m.0/cv2/act/Mul/fq_output_0/output_low" type="Const" version="opset1">
			<data element_type="f32" shape="" offset="201896" size="4" />
			<output>
				<port id="0" precision="FP32" />
			</output>
		</layer>
		<layer id="137" name="/model.2/m.0/cv2/act/Mul/fq_output_0/output_high" type="Const" version="opset1">
			<data element_type="f32" shape="" offset="201900" size="4" />
			<output>
				<port id="0" precision="FP32" />
			</output>
		</layer>
		<layer id="138" name="/model.2/m.0/cv2/act/Mul/fq_output_0" type="FakeQuantize" version="opset1">
			<data levels="256" auto_broadcast="numpy" />
			<input>
				<port id="0" precision="FP32">
					<dim>1</dim>
					<dim>32</dim>
					<dim>160</dim>
					<dim>160</dim>
				</port>
				<port id="1" precision="FP32" />
				<port id="2" precision="FP32" />
				<port id="3" precision="FP32" />
				<port id="4" precision="FP32" />
			</input>
			<output>
				<port id="5" precision="FP32">
					<dim>1</dim>
					<dim>32</dim>
					<dim>160</dim>
					<dim>160</dim>
				</port>
			</output>
		</layer>
		<layer id="139" name="/model.2/m.0/Concat" type="Concat" version="opset1">
			<data axis="1" />
			<input>
				<port id="0" precision="FP32">
					<dim>1</dim>
					<dim>32</dim>
					<dim>160</dim>
					<dim>160</dim>
				</port>
				<port id="1" precision="FP32">
					<dim>1</dim>
					<dim>32</dim>
					<dim>160</dim>
					<dim>160</dim>
				</port>
			</input>
			<output>
				<port id="2" precision="FP32" names="/model.2/m.0/Concat_output_0">
					<dim>1</dim>
					<dim>64</dim>
					<dim>160</dim>
					<dim>160</dim>
				</port>
			</output>
		</layer>
		<layer id="140" name="Constant_2883022" type="Const" version="opset1">
			<data element_type="i8" shape="64, 64, 1, 1" offset="204208" size="4096" />
			<output>
				<port id="0" precision="I8">
					<dim>64</dim>
					<dim>64</dim>
					<dim>1</dim>
					<dim>1</dim>
				</port>
			</output>
		</layer>
		<layer id="141" name="Convert_2883023" type="Convert" version="opset1">
			<data destination_type="f32" />
			<input>
				<port id="0" precision="I8">
					<dim>64</dim>
					<dim>64</dim>
					<dim>1</dim>
					<dim>1</dim>
				</port>
			</input>
			<output>
				<port id="1" precision="FP32">
					<dim>64</dim>
					<dim>64</dim>
					<dim>1</dim>
					<dim>1</dim>
				</port>
			</output>
		</layer>
		<layer id="142" name="Constant_2883024" type="Const" version="opset1">
			<data element_type="f32" shape="64, 1, 1, 1" offset="208304" size="256" />
			<output>
				<port id="0" precision="FP32">
					<dim>64</dim>
					<dim>1</dim>
					<dim>1</dim>
					<dim>1</dim>
				</port>
			</output>
		</layer>
		<layer id="143" name="/model.2/m.0/cv3/conv/Conv/WithoutBiases/fq_weights_1" type="Multiply" version="opset1">
			<data auto_broadcast="numpy" />
			<input>
				<port id="0" precision="FP32">
					<dim>64</dim>
					<dim>64</dim>
					<dim>1</dim>
					<dim>1</dim>
				</port>
				<port id="1" precision="FP32">
					<dim>64</dim>
					<dim>1</dim>
					<dim>1</dim>
					<dim>1</dim>
				</port>
			</input>
			<output>
				<port id="2" precision="FP32">
					<dim>64</dim>
					<dim>64</dim>
					<dim>1</dim>
					<dim>1</dim>
				</port>
			</output>
		</layer>
		<layer id="144" name="/model.2/m.0/cv3/conv/Conv/WithoutBiases" type="Convolution" version="opset1">
			<data strides="1, 1" dilations="1, 1" pads_begin="0, 0" pads_end="0, 0" auto_pad="explicit" />
			<input>
				<port id="0" precision="FP32">
					<dim>1</dim>
					<dim>64</dim>
					<dim>160</dim>
					<dim>160</dim>
				</port>
				<port id="1" precision="FP32">
					<dim>64</dim>
					<dim>64</dim>
					<dim>1</dim>
					<dim>1</dim>
				</port>
			</input>
			<output>
				<port id="2" precision="FP32">
					<dim>1</dim>
					<dim>64</dim>
					<dim>160</dim>
					<dim>160</dim>
				</port>
			</output>
		</layer>
		<layer id="145" name="Reshape_1364566" type="Const" version="opset1">
			<data element_type="f32" shape="1, 64, 1, 1" offset="208560" size="256" />
			<output>
				<port id="0" precision="FP32">
					<dim>1</dim>
					<dim>64</dim>
					<dim>1</dim>
					<dim>1</dim>
				</port>
			</output>
		</layer>
		<layer id="146" name="/model.2/m.0/cv3/conv/Conv" type="Add" version="opset1">
			<data auto_broadcast="numpy" />
			<input>
				<port id="0" precision="FP32">
					<dim>1</dim>
					<dim>64</dim>
					<dim>160</dim>
					<dim>160</dim>
				</port>
				<port id="1" precision="FP32">
					<dim>1</dim>
					<dim>64</dim>
					<dim>1</dim>
					<dim>1</dim>
				</port>
			</input>
			<output>
				<port id="2" precision="FP32" names="/model.2/m.0/cv3/conv/Conv_output_0">
					<dim>1</dim>
					<dim>64</dim>
					<dim>160</dim>
					<dim>160</dim>
				</port>
			</output>
		</layer>
		<layer id="147" name="/model.2/m.0/cv3/act/Mul" type="Swish" version="opset4">
			<input>
				<port id="0" precision="FP32">
					<dim>1</dim>
					<dim>64</dim>
					<dim>160</dim>
					<dim>160</dim>
				</port>
			</input>
			<output>
				<port id="1" precision="FP32" names="/model.2/m.0/cv3/act/Mul_output_0">
					<dim>1</dim>
					<dim>64</dim>
					<dim>160</dim>
					<dim>160</dim>
				</port>
			</output>
		</layer>
		<layer id="148" name="/model.2/m.0/cv3/act/Mul/fq_output_0/input_low" type="Const" version="opset1">
			<data element_type="f32" shape="" offset="161624" size="4" />
			<output>
				<port id="0" precision="FP32" />
			</output>
		</layer>
		<layer id="149" name="/model.2/m.0/cv3/act/Mul/fq_output_0/input_high" type="Const" version="opset1">
			<data element_type="f32" shape="" offset="161628" size="4" />
			<output>
				<port id="0" precision="FP32" />
			</output>
		</layer>
		<layer id="150" name="/model.2/m.0/cv3/act/Mul/fq_output_0/output_low" type="Const" version="opset1">
			<data element_type="f32" shape="" offset="161624" size="4" />
			<output>
				<port id="0" precision="FP32" />
			</output>
		</layer>
		<layer id="151" name="/model.2/m.0/cv3/act/Mul/fq_output_0/output_high" type="Const" version="opset1">
			<data element_type="f32" shape="" offset="161628" size="4" />
			<output>
				<port id="0" precision="FP32" />
			</output>
		</layer>
		<layer id="152" name="/model.2/m.0/cv3/act/Mul/fq_output_0" type="FakeQuantize" version="opset1">
			<data levels="256" auto_broadcast="numpy" />
			<input>
				<port id="0" precision="FP32">
					<dim>1</dim>
					<dim>64</dim>
					<dim>160</dim>
					<dim>160</dim>
				</port>
				<port id="1" precision="FP32" />
				<port id="2" precision="FP32" />
				<port id="3" precision="FP32" />
				<port id="4" precision="FP32" />
			</input>
			<output>
				<port id="5" precision="FP32">
					<dim>1</dim>
					<dim>64</dim>
					<dim>160</dim>
					<dim>160</dim>
				</port>
			</output>
		</layer>
		<layer id="153" name="/model.2/Concat" type="Concat" version="opset1">
			<data axis="1" />
			<input>
				<port id="0" precision="FP32">
					<dim>1</dim>
					<dim>64</dim>
					<dim>160</dim>
					<dim>160</dim>
				</port>
				<port id="1" precision="FP32">
					<dim>1</dim>
					<dim>64</dim>
					<dim>160</dim>
					<dim>160</dim>
				</port>
				<port id="2" precision="FP32">
					<dim>1</dim>
					<dim>64</dim>
					<dim>160</dim>
					<dim>160</dim>
				</port>
			</input>
			<output>
				<port id="3" precision="FP32" names="/model.2/Concat_output_0">
					<dim>1</dim>
					<dim>192</dim>
					<dim>160</dim>
					<dim>160</dim>
				</port>
			</output>
		</layer>
		<layer id="154" name="Constant_2883026" type="Const" version="opset1">
			<data element_type="i8" shape="256, 192, 1, 1" offset="208816" size="49152" />
			<output>
				<port id="0" precision="I8">
					<dim>256</dim>
					<dim>192</dim>
					<dim>1</dim>
					<dim>1</dim>
				</port>
			</output>
		</layer>
		<layer id="155" name="Convert_2883027" type="Convert" version="opset1">
			<data destination_type="f32" />
			<input>
				<port id="0" precision="I8">
					<dim>256</dim>
					<dim>192</dim>
					<dim>1</dim>
					<dim>1</dim>
				</port>
			</input>
			<output>
				<port id="1" precision="FP32">
					<dim>256</dim>
					<dim>192</dim>
					<dim>1</dim>
					<dim>1</dim>
				</port>
			</output>
		</layer>
		<layer id="156" name="Constant_2883028" type="Const" version="opset1">
			<data element_type="f32" shape="256, 1, 1, 1" offset="257968" size="1024" />
			<output>
				<port id="0" precision="FP32">
					<dim>256</dim>
					<dim>1</dim>
					<dim>1</dim>
					<dim>1</dim>
				</port>
			</output>
		</layer>
		<layer id="157" name="/model.2/cv2/conv/Conv/WithoutBiases/fq_weights_1" type="Multiply" version="opset1">
			<data auto_broadcast="numpy" />
			<input>
				<port id="0" precision="FP32">
					<dim>256</dim>
					<dim>192</dim>
					<dim>1</dim>
					<dim>1</dim>
				</port>
				<port id="1" precision="FP32">
					<dim>256</dim>
					<dim>1</dim>
					<dim>1</dim>
					<dim>1</dim>
				</port>
			</input>
			<output>
				<port id="2" precision="FP32">
					<dim>256</dim>
					<dim>192</dim>
					<dim>1</dim>
					<dim>1</dim>
				</port>
			</output>
		</layer>
		<layer id="158" name="/model.2/cv2/conv/Conv/WithoutBiases" type="Convolution" version="opset1">
			<data strides="1, 1" dilations="1, 1" pads_begin="0, 0" pads_end="0, 0" auto_pad="explicit" />
			<input>
				<port id="0" precision="FP32">
					<dim>1</dim>
					<dim>192</dim>
					<dim>160</dim>
					<dim>160</dim>
				</port>
				<port id="1" precision="FP32">
					<dim>256</dim>
					<dim>192</dim>
					<dim>1</dim>
					<dim>1</dim>
				</port>
			</input>
			<output>
				<port id="2" precision="FP32">
					<dim>1</dim>
					<dim>256</dim>
					<dim>160</dim>
					<dim>160</dim>
				</port>
			</output>
		</layer>
		<layer id="159" name="Reshape_1364582" type="Const" version="opset1">
			<data element_type="f32" shape="1, 256, 1, 1" offset="258992" size="1024" />
			<output>
				<port id="0" precision="FP32">
					<dim>1</dim>
					<dim>256</dim>
					<dim>1</dim>
					<dim>1</dim>
				</port>
			</output>
		</layer>
		<layer id="160" name="/model.2/cv2/conv/Conv" type="Add" version="opset1">
			<data auto_broadcast="numpy" />
			<input>
				<port id="0" precision="FP32">
					<dim>1</dim>
					<dim>256</dim>
					<dim>160</dim>
					<dim>160</dim>
				</port>
				<port id="1" precision="FP32">
					<dim>1</dim>
					<dim>256</dim>
					<dim>1</dim>
					<dim>1</dim>
				</port>
			</input>
			<output>
				<port id="2" precision="FP32" names="/model.2/cv2/conv/Conv_output_0">
					<dim>1</dim>
					<dim>256</dim>
					<dim>160</dim>
					<dim>160</dim>
				</port>
			</output>
		</layer>
		<layer id="161" name="/model.2/cv2/act/Mul" type="Swish" version="opset4">
			<input>
				<port id="0" precision="FP32">
					<dim>1</dim>
					<dim>256</dim>
					<dim>160</dim>
					<dim>160</dim>
				</port>
			</input>
			<output>
				<port id="1" precision="FP32" names="/model.2/cv2/act/Mul_output_0">
					<dim>1</dim>
					<dim>256</dim>
					<dim>160</dim>
					<dim>160</dim>
				</port>
			</output>
		</layer>
		<layer id="162" name="/model.2/cv2/act/Mul/fq_output_0/input_low" type="Const" version="opset1">
			<data element_type="f32" shape="" offset="260016" size="4" />
			<output>
				<port id="0" precision="FP32" />
			</output>
		</layer>
		<layer id="163" name="/model.2/cv2/act/Mul/fq_output_0/input_high" type="Const" version="opset1">
			<data element_type="f32" shape="" offset="260020" size="4" />
			<output>
				<port id="0" precision="FP32" />
			</output>
		</layer>
		<layer id="164" name="/model.2/cv2/act/Mul/fq_output_0/output_low" type="Const" version="opset1">
			<data element_type="f32" shape="" offset="260016" size="4" />
			<output>
				<port id="0" precision="FP32" />
			</output>
		</layer>
		<layer id="165" name="/model.2/cv2/act/Mul/fq_output_0/output_high" type="Const" version="opset1">
			<data element_type="f32" shape="" offset="260020" size="4" />
			<output>
				<port id="0" precision="FP32" />
			</output>
		</layer>
		<layer id="166" name="/model.2/cv2/act/Mul/fq_output_0" type="FakeQuantize" version="opset1">
			<data levels="256" auto_broadcast="numpy" />
			<input>
				<port id="0" precision="FP32">
					<dim>1</dim>
					<dim>256</dim>
					<dim>160</dim>
					<dim>160</dim>
				</port>
				<port id="1" precision="FP32" />
				<port id="2" precision="FP32" />
				<port id="3" precision="FP32" />
				<port id="4" precision="FP32" />
			</input>
			<output>
				<port id="5" precision="FP32">
					<dim>1</dim>
					<dim>256</dim>
					<dim>160</dim>
					<dim>160</dim>
				</port>
			</output>
		</layer>
		<layer id="167" name="Constant_2883030" type="Const" version="opset1">
			<data element_type="i8" shape="256, 256, 3, 3" offset="260024" size="589824" />
			<output>
				<port id="0" precision="I8">
					<dim>256</dim>
					<dim>256</dim>
					<dim>3</dim>
					<dim>3</dim>
				</port>
			</output>
		</layer>
		<layer id="168" name="Convert_2883031" type="Convert" version="opset1">
			<data destination_type="f32" />
			<input>
				<port id="0" precision="I8">
					<dim>256</dim>
					<dim>256</dim>
					<dim>3</dim>
					<dim>3</dim>
				</port>
			</input>
			<output>
				<port id="1" precision="FP32">
					<dim>256</dim>
					<dim>256</dim>
					<dim>3</dim>
					<dim>3</dim>
				</port>
			</output>
		</layer>
		<layer id="169" name="Constant_2883032" type="Const" version="opset1">
			<data element_type="f32" shape="256, 1, 1, 1" offset="849848" size="1024" />
			<output>
				<port id="0" precision="FP32">
					<dim>256</dim>
					<dim>1</dim>
					<dim>1</dim>
					<dim>1</dim>
				</port>
			</output>
		</layer>
		<layer id="170" name="/model.3/conv/Conv/WithoutBiases/fq_weights_1" type="Multiply" version="opset1">
			<data auto_broadcast="numpy" />
			<input>
				<port id="0" precision="FP32">
					<dim>256</dim>
					<dim>256</dim>
					<dim>3</dim>
					<dim>3</dim>
				</port>
				<port id="1" precision="FP32">
					<dim>256</dim>
					<dim>1</dim>
					<dim>1</dim>
					<dim>1</dim>
				</port>
			</input>
			<output>
				<port id="2" precision="FP32">
					<dim>256</dim>
					<dim>256</dim>
					<dim>3</dim>
					<dim>3</dim>
				</port>
			</output>
		</layer>
		<layer id="171" name="/model.3/conv/Conv/WithoutBiases" type="Convolution" version="opset1">
			<data strides="2, 2" dilations="1, 1" pads_begin="1, 1" pads_end="1, 1" auto_pad="explicit" />
			<input>
				<port id="0" precision="FP32">
					<dim>1</dim>
					<dim>256</dim>
					<dim>160</dim>
					<dim>160</dim>
				</port>
				<port id="1" precision="FP32">
					<dim>256</dim>
					<dim>256</dim>
					<dim>3</dim>
					<dim>3</dim>
				</port>
			</input>
			<output>
				<port id="2" precision="FP32">
					<dim>1</dim>
					<dim>256</dim>
					<dim>80</dim>
					<dim>80</dim>
				</port>
			</output>
		</layer>
		<layer id="172" name="Reshape_1364597" type="Const" version="opset1">
			<data element_type="f32" shape="1, 256, 1, 1" offset="850872" size="1024" />
			<output>
				<port id="0" precision="FP32">
					<dim>1</dim>
					<dim>256</dim>
					<dim>1</dim>
					<dim>1</dim>
				</port>
			</output>
		</layer>
		<layer id="173" name="/model.3/conv/Conv" type="Add" version="opset1">
			<data auto_broadcast="numpy" />
			<input>
				<port id="0" precision="FP32">
					<dim>1</dim>
					<dim>256</dim>
					<dim>80</dim>
					<dim>80</dim>
				</port>
				<port id="1" precision="FP32">
					<dim>1</dim>
					<dim>256</dim>
					<dim>1</dim>
					<dim>1</dim>
				</port>
			</input>
			<output>
				<port id="2" precision="FP32" names="/model.3/conv/Conv_output_0">
					<dim>1</dim>
					<dim>256</dim>
					<dim>80</dim>
					<dim>80</dim>
				</port>
			</output>
		</layer>
		<layer id="174" name="/model.3/act/Mul" type="Swish" version="opset4">
			<input>
				<port id="0" precision="FP32">
					<dim>1</dim>
					<dim>256</dim>
					<dim>80</dim>
					<dim>80</dim>
				</port>
			</input>
			<output>
				<port id="1" precision="FP32" names="/model.3/act/Mul_output_0">
					<dim>1</dim>
					<dim>256</dim>
					<dim>80</dim>
					<dim>80</dim>
				</port>
			</output>
		</layer>
		<layer id="175" name="/model.3/act/Mul/fq_output_0/input_low" type="Const" version="opset1">
			<data element_type="f32" shape="" offset="851896" size="4" />
			<output>
				<port id="0" precision="FP32" />
			</output>
		</layer>
		<layer id="176" name="/model.3/act/Mul/fq_output_0/input_high" type="Const" version="opset1">
			<data element_type="f32" shape="" offset="851900" size="4" />
			<output>
				<port id="0" precision="FP32" />
			</output>
		</layer>
		<layer id="177" name="/model.3/act/Mul/fq_output_0/output_low" type="Const" version="opset1">
			<data element_type="f32" shape="" offset="851896" size="4" />
			<output>
				<port id="0" precision="FP32" />
			</output>
		</layer>
		<layer id="178" name="/model.3/act/Mul/fq_output_0/output_high" type="Const" version="opset1">
			<data element_type="f32" shape="" offset="851900" size="4" />
			<output>
				<port id="0" precision="FP32" />
			</output>
		</layer>
		<layer id="179" name="/model.3/act/Mul/fq_output_0" type="FakeQuantize" version="opset1">
			<data levels="256" auto_broadcast="numpy" />
			<input>
				<port id="0" precision="FP32">
					<dim>1</dim>
					<dim>256</dim>
					<dim>80</dim>
					<dim>80</dim>
				</port>
				<port id="1" precision="FP32" />
				<port id="2" precision="FP32" />
				<port id="3" precision="FP32" />
				<port id="4" precision="FP32" />
			</input>
			<output>
				<port id="5" precision="FP32">
					<dim>1</dim>
					<dim>256</dim>
					<dim>80</dim>
					<dim>80</dim>
				</port>
			</output>
		</layer>
		<layer id="180" name="Constant_2883034" type="Const" version="opset1">
			<data element_type="i8" shape="256, 256, 1, 1" offset="851904" size="65536" />
			<output>
				<port id="0" precision="I8">
					<dim>256</dim>
					<dim>256</dim>
					<dim>1</dim>
					<dim>1</dim>
				</port>
			</output>
		</layer>
		<layer id="181" name="Convert_2883035" type="Convert" version="opset1">
			<data destination_type="f32" />
			<input>
				<port id="0" precision="I8">
					<dim>256</dim>
					<dim>256</dim>
					<dim>1</dim>
					<dim>1</dim>
				</port>
			</input>
			<output>
				<port id="1" precision="FP32">
					<dim>256</dim>
					<dim>256</dim>
					<dim>1</dim>
					<dim>1</dim>
				</port>
			</output>
		</layer>
		<layer id="182" name="Constant_2883036" type="Const" version="opset1">
			<data element_type="f32" shape="256, 1, 1, 1" offset="917440" size="1024" />
			<output>
				<port id="0" precision="FP32">
					<dim>256</dim>
					<dim>1</dim>
					<dim>1</dim>
					<dim>1</dim>
				</port>
			</output>
		</layer>
		<layer id="183" name="/model.4/cv1/conv/Conv/WithoutBiases/fq_weights_1" type="Multiply" version="opset1">
			<data auto_broadcast="numpy" />
			<input>
				<port id="0" precision="FP32">
					<dim>256</dim>
					<dim>256</dim>
					<dim>1</dim>
					<dim>1</dim>
				</port>
				<port id="1" precision="FP32">
					<dim>256</dim>
					<dim>1</dim>
					<dim>1</dim>
					<dim>1</dim>
				</port>
			</input>
			<output>
				<port id="2" precision="FP32">
					<dim>256</dim>
					<dim>256</dim>
					<dim>1</dim>
					<dim>1</dim>
				</port>
			</output>
		</layer>
		<layer id="184" name="/model.4/cv1/conv/Conv/WithoutBiases" type="Convolution" version="opset1">
			<data strides="1, 1" dilations="1, 1" pads_begin="0, 0" pads_end="0, 0" auto_pad="explicit" />
			<input>
				<port id="0" precision="FP32">
					<dim>1</dim>
					<dim>256</dim>
					<dim>80</dim>
					<dim>80</dim>
				</port>
				<port id="1" precision="FP32">
					<dim>256</dim>
					<dim>256</dim>
					<dim>1</dim>
					<dim>1</dim>
				</port>
			</input>
			<output>
				<port id="2" precision="FP32">
					<dim>1</dim>
					<dim>256</dim>
					<dim>80</dim>
					<dim>80</dim>
				</port>
			</output>
		</layer>
		<layer id="185" name="Reshape_1364612" type="Const" version="opset1">
			<data element_type="f32" shape="1, 256, 1, 1" offset="918464" size="1024" />
			<output>
				<port id="0" precision="FP32">
					<dim>1</dim>
					<dim>256</dim>
					<dim>1</dim>
					<dim>1</dim>
				</port>
			</output>
		</layer>
		<layer id="186" name="/model.4/cv1/conv/Conv" type="Add" version="opset1">
			<data auto_broadcast="numpy" />
			<input>
				<port id="0" precision="FP32">
					<dim>1</dim>
					<dim>256</dim>
					<dim>80</dim>
					<dim>80</dim>
				</port>
				<port id="1" precision="FP32">
					<dim>1</dim>
					<dim>256</dim>
					<dim>1</dim>
					<dim>1</dim>
				</port>
			</input>
			<output>
				<port id="2" precision="FP32" names="/model.4/cv1/conv/Conv_output_0">
					<dim>1</dim>
					<dim>256</dim>
					<dim>80</dim>
					<dim>80</dim>
				</port>
			</output>
		</layer>
		<layer id="187" name="/model.4/cv1/act/Mul" type="Swish" version="opset4">
			<input>
				<port id="0" precision="FP32">
					<dim>1</dim>
					<dim>256</dim>
					<dim>80</dim>
					<dim>80</dim>
				</port>
			</input>
			<output>
				<port id="1" precision="FP32" names="/model.4/cv1/act/Mul_output_0">
					<dim>1</dim>
					<dim>256</dim>
					<dim>80</dim>
					<dim>80</dim>
				</port>
			</output>
		</layer>
		<layer id="188" name="/model.4/cv1/act/Mul/fq_output_0/input_low" type="Const" version="opset1">
			<data element_type="f32" shape="" offset="919488" size="4" />
			<output>
				<port id="0" precision="FP32" />
			</output>
		</layer>
		<layer id="189" name="/model.4/cv1/act/Mul/fq_output_0/input_high" type="Const" version="opset1">
			<data element_type="f32" shape="" offset="919492" size="4" />
			<output>
				<port id="0" precision="FP32" />
			</output>
		</layer>
		<layer id="190" name="/model.4/cv1/act/Mul/fq_output_0/output_low" type="Const" version="opset1">
			<data element_type="f32" shape="" offset="919488" size="4" />
			<output>
				<port id="0" precision="FP32" />
			</output>
		</layer>
		<layer id="191" name="/model.4/cv1/act/Mul/fq_output_0/output_high" type="Const" version="opset1">
			<data element_type="f32" shape="" offset="919492" size="4" />
			<output>
				<port id="0" precision="FP32" />
			</output>
		</layer>
		<layer id="192" name="/model.4/cv1/act/Mul/fq_output_0" type="FakeQuantize" version="opset1">
			<data levels="256" auto_broadcast="numpy" />
			<input>
				<port id="0" precision="FP32">
					<dim>1</dim>
					<dim>256</dim>
					<dim>80</dim>
					<dim>80</dim>
				</port>
				<port id="1" precision="FP32" />
				<port id="2" precision="FP32" />
				<port id="3" precision="FP32" />
				<port id="4" precision="FP32" />
			</input>
			<output>
				<port id="5" precision="FP32">
					<dim>1</dim>
					<dim>256</dim>
					<dim>80</dim>
					<dim>80</dim>
				</port>
			</output>
		</layer>
		<layer id="193" name="Constant_1364616" type="Const" version="opset1">
			<data element_type="i64" shape="" offset="161632" size="8" />
			<output>
				<port id="0" precision="I64" />
			</output>
		</layer>
		<layer id="194" name="onnx::Split_272" type="Const" version="opset1">
			<data element_type="i64" shape="2" offset="919496" size="16" />
			<output>
				<port id="0" precision="I64" names="onnx::Split_272">
					<dim>2</dim>
				</port>
			</output>
		</layer>
		<layer id="195" name="/model.4/Split" type="VariadicSplit" version="opset1">
			<input>
				<port id="0" precision="FP32">
					<dim>1</dim>
					<dim>256</dim>
					<dim>80</dim>
					<dim>80</dim>
				</port>
				<port id="1" precision="I64" />
				<port id="2" precision="I64">
					<dim>2</dim>
				</port>
			</input>
			<output>
				<port id="3" precision="FP32" names="/model.4/Split_output_0">
					<dim>1</dim>
					<dim>128</dim>
					<dim>80</dim>
					<dim>80</dim>
				</port>
				<port id="4" precision="FP32" names="/model.4/Split_output_1">
					<dim>1</dim>
					<dim>128</dim>
					<dim>80</dim>
					<dim>80</dim>
				</port>
			</output>
		</layer>
		<layer id="196" name="Constant_2883038" type="Const" version="opset1">
			<data element_type="i8" shape="64, 128, 1, 1" offset="919512" size="8192" />
			<output>
				<port id="0" precision="I8">
					<dim>64</dim>
					<dim>128</dim>
					<dim>1</dim>
					<dim>1</dim>
				</port>
			</output>
		</layer>
		<layer id="197" name="Convert_2883039" type="Convert" version="opset1">
			<data destination_type="f32" />
			<input>
				<port id="0" precision="I8">
					<dim>64</dim>
					<dim>128</dim>
					<dim>1</dim>
					<dim>1</dim>
				</port>
			</input>
			<output>
				<port id="1" precision="FP32">
					<dim>64</dim>
					<dim>128</dim>
					<dim>1</dim>
					<dim>1</dim>
				</port>
			</output>
		</layer>
		<layer id="198" name="Constant_2883040" type="Const" version="opset1">
			<data element_type="f32" shape="64, 1, 1, 1" offset="927704" size="256" />
			<output>
				<port id="0" precision="FP32">
					<dim>64</dim>
					<dim>1</dim>
					<dim>1</dim>
					<dim>1</dim>
				</port>
			</output>
		</layer>
		<layer id="199" name="/model.4/m.0/cv1/conv/Conv/WithoutBiases/fq_weights_1" type="Multiply" version="opset1">
			<data auto_broadcast="numpy" />
			<input>
				<port id="0" precision="FP32">
					<dim>64</dim>
					<dim>128</dim>
					<dim>1</dim>
					<dim>1</dim>
				</port>
				<port id="1" precision="FP32">
					<dim>64</dim>
					<dim>1</dim>
					<dim>1</dim>
					<dim>1</dim>
				</port>
			</input>
			<output>
				<port id="2" precision="FP32">
					<dim>64</dim>
					<dim>128</dim>
					<dim>1</dim>
					<dim>1</dim>
				</port>
			</output>
		</layer>
		<layer id="200" name="/model.4/m.0/cv1/conv/Conv/WithoutBiases" type="Convolution" version="opset1">
			<data strides="1, 1" dilations="1, 1" pads_begin="0, 0" pads_end="0, 0" auto_pad="explicit" />
			<input>
				<port id="0" precision="FP32">
					<dim>1</dim>
					<dim>128</dim>
					<dim>80</dim>
					<dim>80</dim>
				</port>
				<port id="1" precision="FP32">
					<dim>64</dim>
					<dim>128</dim>
					<dim>1</dim>
					<dim>1</dim>
				</port>
			</input>
			<output>
				<port id="2" precision="FP32">
					<dim>1</dim>
					<dim>64</dim>
					<dim>80</dim>
					<dim>80</dim>
				</port>
			</output>
		</layer>
		<layer id="201" name="Reshape_1364629" type="Const" version="opset1">
			<data element_type="f32" shape="1, 64, 1, 1" offset="927960" size="256" />
			<output>
				<port id="0" precision="FP32">
					<dim>1</dim>
					<dim>64</dim>
					<dim>1</dim>
					<dim>1</dim>
				</port>
			</output>
		</layer>
		<layer id="202" name="/model.4/m.0/cv1/conv/Conv" type="Add" version="opset1">
			<data auto_broadcast="numpy" />
			<input>
				<port id="0" precision="FP32">
					<dim>1</dim>
					<dim>64</dim>
					<dim>80</dim>
					<dim>80</dim>
				</port>
				<port id="1" precision="FP32">
					<dim>1</dim>
					<dim>64</dim>
					<dim>1</dim>
					<dim>1</dim>
				</port>
			</input>
			<output>
				<port id="2" precision="FP32" names="/model.4/m.0/cv1/conv/Conv_output_0">
					<dim>1</dim>
					<dim>64</dim>
					<dim>80</dim>
					<dim>80</dim>
				</port>
			</output>
		</layer>
		<layer id="203" name="/model.4/m.0/cv1/act/Mul" type="Swish" version="opset4">
			<input>
				<port id="0" precision="FP32">
					<dim>1</dim>
					<dim>64</dim>
					<dim>80</dim>
					<dim>80</dim>
				</port>
			</input>
			<output>
				<port id="1" precision="FP32" names="/model.4/m.0/cv1/act/Mul_output_0">
					<dim>1</dim>
					<dim>64</dim>
					<dim>80</dim>
					<dim>80</dim>
				</port>
			</output>
		</layer>
		<layer id="204" name="/model.4/m.0/cv1/act/Mul/fq_output_0/input_low" type="Const" version="opset1">
			<data element_type="f32" shape="" offset="928216" size="4" />
			<output>
				<port id="0" precision="FP32" />
			</output>
		</layer>
		<layer id="205" name="/model.4/m.0/cv1/act/Mul/fq_output_0/input_high" type="Const" version="opset1">
			<data element_type="f32" shape="" offset="928220" size="4" />
			<output>
				<port id="0" precision="FP32" />
			</output>
		</layer>
		<layer id="206" name="/model.4/m.0/cv1/act/Mul/fq_output_0/output_low" type="Const" version="opset1">
			<data element_type="f32" shape="" offset="928216" size="4" />
			<output>
				<port id="0" precision="FP32" />
			</output>
		</layer>
		<layer id="207" name="/model.4/m.0/cv1/act/Mul/fq_output_0/output_high" type="Const" version="opset1">
			<data element_type="f32" shape="" offset="928220" size="4" />
			<output>
				<port id="0" precision="FP32" />
			</output>
		</layer>
		<layer id="208" name="/model.4/m.0/cv1/act/Mul/fq_output_0" type="FakeQuantize" version="opset1">
			<data levels="256" auto_broadcast="numpy" />
			<input>
				<port id="0" precision="FP32">
					<dim>1</dim>
					<dim>64</dim>
					<dim>80</dim>
					<dim>80</dim>
				</port>
				<port id="1" precision="FP32" />
				<port id="2" precision="FP32" />
				<port id="3" precision="FP32" />
				<port id="4" precision="FP32" />
			</input>
			<output>
				<port id="5" precision="FP32">
					<dim>1</dim>
					<dim>64</dim>
					<dim>80</dim>
					<dim>80</dim>
				</port>
			</output>
		</layer>
		<layer id="209" name="Constant_2883042" type="Const" version="opset1">
			<data element_type="i8" shape="64, 64, 3, 3" offset="928224" size="36864" />
			<output>
				<port id="0" precision="I8">
					<dim>64</dim>
					<dim>64</dim>
					<dim>3</dim>
					<dim>3</dim>
				</port>
			</output>
		</layer>
		<layer id="210" name="Convert_2883043" type="Convert" version="opset1">
			<data destination_type="f32" />
			<input>
				<port id="0" precision="I8">
					<dim>64</dim>
					<dim>64</dim>
					<dim>3</dim>
					<dim>3</dim>
				</port>
			</input>
			<output>
				<port id="1" precision="FP32">
					<dim>64</dim>
					<dim>64</dim>
					<dim>3</dim>
					<dim>3</dim>
				</port>
			</output>
		</layer>
		<layer id="211" name="Constant_2883044" type="Const" version="opset1">
			<data element_type="f32" shape="64, 1, 1, 1" offset="965088" size="256" />
			<output>
				<port id="0" precision="FP32">
					<dim>64</dim>
					<dim>1</dim>
					<dim>1</dim>
					<dim>1</dim>
				</port>
			</output>
		</layer>
		<layer id="212" name="/model.4/m.0/m/m.0/cv1/conv/Conv/WithoutBiases/fq_weights_1" type="Multiply" version="opset1">
			<data auto_broadcast="numpy" />
			<input>
				<port id="0" precision="FP32">
					<dim>64</dim>
					<dim>64</dim>
					<dim>3</dim>
					<dim>3</dim>
				</port>
				<port id="1" precision="FP32">
					<dim>64</dim>
					<dim>1</dim>
					<dim>1</dim>
					<dim>1</dim>
				</port>
			</input>
			<output>
				<port id="2" precision="FP32">
					<dim>64</dim>
					<dim>64</dim>
					<dim>3</dim>
					<dim>3</dim>
				</port>
			</output>
		</layer>
		<layer id="213" name="/model.4/m.0/m/m.0/cv1/conv/Conv/WithoutBiases" type="Convolution" version="opset1">
			<data strides="1, 1" dilations="1, 1" pads_begin="1, 1" pads_end="1, 1" auto_pad="explicit" />
			<input>
				<port id="0" precision="FP32">
					<dim>1</dim>
					<dim>64</dim>
					<dim>80</dim>
					<dim>80</dim>
				</port>
				<port id="1" precision="FP32">
					<dim>64</dim>
					<dim>64</dim>
					<dim>3</dim>
					<dim>3</dim>
				</port>
			</input>
			<output>
				<port id="2" precision="FP32">
					<dim>1</dim>
					<dim>64</dim>
					<dim>80</dim>
					<dim>80</dim>
				</port>
			</output>
		</layer>
		<layer id="214" name="Reshape_1364659" type="Const" version="opset1">
			<data element_type="f32" shape="1, 64, 1, 1" offset="965344" size="256" />
			<output>
				<port id="0" precision="FP32">
					<dim>1</dim>
					<dim>64</dim>
					<dim>1</dim>
					<dim>1</dim>
				</port>
			</output>
		</layer>
		<layer id="215" name="/model.4/m.0/m/m.0/cv1/conv/Conv" type="Add" version="opset1">
			<data auto_broadcast="numpy" />
			<input>
				<port id="0" precision="FP32">
					<dim>1</dim>
					<dim>64</dim>
					<dim>80</dim>
					<dim>80</dim>
				</port>
				<port id="1" precision="FP32">
					<dim>1</dim>
					<dim>64</dim>
					<dim>1</dim>
					<dim>1</dim>
				</port>
			</input>
			<output>
				<port id="2" precision="FP32" names="/model.4/m.0/m/m.0/cv1/conv/Conv_output_0">
					<dim>1</dim>
					<dim>64</dim>
					<dim>80</dim>
					<dim>80</dim>
				</port>
			</output>
		</layer>
		<layer id="216" name="/model.4/m.0/m/m.0/cv1/act/Mul" type="Swish" version="opset4">
			<input>
				<port id="0" precision="FP32">
					<dim>1</dim>
					<dim>64</dim>
					<dim>80</dim>
					<dim>80</dim>
				</port>
			</input>
			<output>
				<port id="1" precision="FP32" names="/model.4/m.0/m/m.0/cv1/act/Mul_output_0">
					<dim>1</dim>
					<dim>64</dim>
					<dim>80</dim>
					<dim>80</dim>
				</port>
			</output>
		</layer>
		<layer id="217" name="/model.4/m.0/m/m.0/cv1/act/Mul/fq_output_0/input_low" type="Const" version="opset1">
			<data element_type="f32" shape="" offset="965600" size="4" />
			<output>
				<port id="0" precision="FP32" />
			</output>
		</layer>
		<layer id="218" name="/model.4/m.0/m/m.0/cv1/act/Mul/fq_output_0/input_high" type="Const" version="opset1">
			<data element_type="f32" shape="" offset="965604" size="4" />
			<output>
				<port id="0" precision="FP32" />
			</output>
		</layer>
		<layer id="219" name="/model.4/m.0/m/m.0/cv1/act/Mul/fq_output_0/output_low" type="Const" version="opset1">
			<data element_type="f32" shape="" offset="965600" size="4" />
			<output>
				<port id="0" precision="FP32" />
			</output>
		</layer>
		<layer id="220" name="/model.4/m.0/m/m.0/cv1/act/Mul/fq_output_0/output_high" type="Const" version="opset1">
			<data element_type="f32" shape="" offset="965604" size="4" />
			<output>
				<port id="0" precision="FP32" />
			</output>
		</layer>
		<layer id="221" name="/model.4/m.0/m/m.0/cv1/act/Mul/fq_output_0" type="FakeQuantize" version="opset1">
			<data levels="256" auto_broadcast="numpy" />
			<input>
				<port id="0" precision="FP32">
					<dim>1</dim>
					<dim>64</dim>
					<dim>80</dim>
					<dim>80</dim>
				</port>
				<port id="1" precision="FP32" />
				<port id="2" precision="FP32" />
				<port id="3" precision="FP32" />
				<port id="4" precision="FP32" />
			</input>
			<output>
				<port id="5" precision="FP32">
					<dim>1</dim>
					<dim>64</dim>
					<dim>80</dim>
					<dim>80</dim>
				</port>
			</output>
		</layer>
		<layer id="222" name="Constant_2883046" type="Const" version="opset1">
			<data element_type="i8" shape="64, 64, 3, 3" offset="965608" size="36864" />
			<output>
				<port id="0" precision="I8">
					<dim>64</dim>
					<dim>64</dim>
					<dim>3</dim>
					<dim>3</dim>
				</port>
			</output>
		</layer>
		<layer id="223" name="Convert_2883047" type="Convert" version="opset1">
			<data destination_type="f32" />
			<input>
				<port id="0" precision="I8">
					<dim>64</dim>
					<dim>64</dim>
					<dim>3</dim>
					<dim>3</dim>
				</port>
			</input>
			<output>
				<port id="1" precision="FP32">
					<dim>64</dim>
					<dim>64</dim>
					<dim>3</dim>
					<dim>3</dim>
				</port>
			</output>
		</layer>
		<layer id="224" name="Constant_2883048" type="Const" version="opset1">
			<data element_type="f32" shape="64, 1, 1, 1" offset="1002472" size="256" />
			<output>
				<port id="0" precision="FP32">
					<dim>64</dim>
					<dim>1</dim>
					<dim>1</dim>
					<dim>1</dim>
				</port>
			</output>
		</layer>
		<layer id="225" name="/model.4/m.0/m/m.0/cv2/conv/Conv/WithoutBiases/fq_weights_1" type="Multiply" version="opset1">
			<data auto_broadcast="numpy" />
			<input>
				<port id="0" precision="FP32">
					<dim>64</dim>
					<dim>64</dim>
					<dim>3</dim>
					<dim>3</dim>
				</port>
				<port id="1" precision="FP32">
					<dim>64</dim>
					<dim>1</dim>
					<dim>1</dim>
					<dim>1</dim>
				</port>
			</input>
			<output>
				<port id="2" precision="FP32">
					<dim>64</dim>
					<dim>64</dim>
					<dim>3</dim>
					<dim>3</dim>
				</port>
			</output>
		</layer>
		<layer id="226" name="/model.4/m.0/m/m.0/cv2/conv/Conv/WithoutBiases" type="Convolution" version="opset1">
			<data strides="1, 1" dilations="1, 1" pads_begin="1, 1" pads_end="1, 1" auto_pad="explicit" />
			<input>
				<port id="0" precision="FP32">
					<dim>1</dim>
					<dim>64</dim>
					<dim>80</dim>
					<dim>80</dim>
				</port>
				<port id="1" precision="FP32">
					<dim>64</dim>
					<dim>64</dim>
					<dim>3</dim>
					<dim>3</dim>
				</port>
			</input>
			<output>
				<port id="2" precision="FP32">
					<dim>1</dim>
					<dim>64</dim>
					<dim>80</dim>
					<dim>80</dim>
				</port>
			</output>
		</layer>
		<layer id="227" name="Reshape_1364674" type="Const" version="opset1">
			<data element_type="f32" shape="1, 64, 1, 1" offset="1002728" size="256" />
			<output>
				<port id="0" precision="FP32">
					<dim>1</dim>
					<dim>64</dim>
					<dim>1</dim>
					<dim>1</dim>
				</port>
			</output>
		</layer>
		<layer id="228" name="/model.4/m.0/m/m.0/cv2/conv/Conv" type="Add" version="opset1">
			<data auto_broadcast="numpy" />
			<input>
				<port id="0" precision="FP32">
					<dim>1</dim>
					<dim>64</dim>
					<dim>80</dim>
					<dim>80</dim>
				</port>
				<port id="1" precision="FP32">
					<dim>1</dim>
					<dim>64</dim>
					<dim>1</dim>
					<dim>1</dim>
				</port>
			</input>
			<output>
				<port id="2" precision="FP32" names="/model.4/m.0/m/m.0/cv2/conv/Conv_output_0">
					<dim>1</dim>
					<dim>64</dim>
					<dim>80</dim>
					<dim>80</dim>
				</port>
			</output>
		</layer>
		<layer id="229" name="/model.4/m.0/m/m.0/cv2/act/Mul" type="Swish" version="opset4">
			<input>
				<port id="0" precision="FP32">
					<dim>1</dim>
					<dim>64</dim>
					<dim>80</dim>
					<dim>80</dim>
				</port>
			</input>
			<output>
				<port id="1" precision="FP32" names="/model.4/m.0/m/m.0/cv2/act/Mul_output_0">
					<dim>1</dim>
					<dim>64</dim>
					<dim>80</dim>
					<dim>80</dim>
				</port>
			</output>
		</layer>
		<layer id="230" name="/model.4/m.0/m/m.0/cv2/act/Mul/fq_output_0/input_low" type="Const" version="opset1">
			<data element_type="f32" shape="" offset="1002984" size="4" />
			<output>
				<port id="0" precision="FP32" />
			</output>
		</layer>
		<layer id="231" name="/model.4/m.0/m/m.0/cv2/act/Mul/fq_output_0/input_high" type="Const" version="opset1">
			<data element_type="f32" shape="" offset="1002988" size="4" />
			<output>
				<port id="0" precision="FP32" />
			</output>
		</layer>
		<layer id="232" name="/model.4/m.0/m/m.0/cv2/act/Mul/fq_output_0/output_low" type="Const" version="opset1">
			<data element_type="f32" shape="" offset="1002984" size="4" />
			<output>
				<port id="0" precision="FP32" />
			</output>
		</layer>
		<layer id="233" name="/model.4/m.0/m/m.0/cv2/act/Mul/fq_output_0/output_high" type="Const" version="opset1">
			<data element_type="f32" shape="" offset="1002988" size="4" />
			<output>
				<port id="0" precision="FP32" />
			</output>
		</layer>
		<layer id="234" name="/model.4/m.0/m/m.0/cv2/act/Mul/fq_output_0" type="FakeQuantize" version="opset1">
			<data levels="256" auto_broadcast="numpy" />
			<input>
				<port id="0" precision="FP32">
					<dim>1</dim>
					<dim>64</dim>
					<dim>80</dim>
					<dim>80</dim>
				</port>
				<port id="1" precision="FP32" />
				<port id="2" precision="FP32" />
				<port id="3" precision="FP32" />
				<port id="4" precision="FP32" />
			</input>
			<output>
				<port id="5" precision="FP32">
					<dim>1</dim>
					<dim>64</dim>
					<dim>80</dim>
					<dim>80</dim>
				</port>
			</output>
		</layer>
		<layer id="235" name="/model.4/m.0/m/m.0/Add" type="Add" version="opset1">
			<data auto_broadcast="numpy" />
			<input>
				<port id="0" precision="FP32">
					<dim>1</dim>
					<dim>64</dim>
					<dim>80</dim>
					<dim>80</dim>
				</port>
				<port id="1" precision="FP32">
					<dim>1</dim>
					<dim>64</dim>
					<dim>80</dim>
					<dim>80</dim>
				</port>
			</input>
			<output>
				<port id="2" precision="FP32" names="/model.4/m.0/m/m.0/Add_output_0">
					<dim>1</dim>
					<dim>64</dim>
					<dim>80</dim>
					<dim>80</dim>
				</port>
			</output>
		</layer>
		<layer id="236" name="/model.4/m.0/m/m.0/Add/fq_output_0/input_low" type="Const" version="opset1">
			<data element_type="f32" shape="" offset="1002992" size="4" />
			<output>
				<port id="0" precision="FP32" />
			</output>
		</layer>
		<layer id="237" name="/model.4/m.0/m/m.0/Add/fq_output_0/input_high" type="Const" version="opset1">
			<data element_type="f32" shape="" offset="1002996" size="4" />
			<output>
				<port id="0" precision="FP32" />
			</output>
		</layer>
		<layer id="238" name="/model.4/m.0/m/m.0/Add/fq_output_0/output_low" type="Const" version="opset1">
			<data element_type="f32" shape="" offset="1002992" size="4" />
			<output>
				<port id="0" precision="FP32" />
			</output>
		</layer>
		<layer id="239" name="/model.4/m.0/m/m.0/Add/fq_output_0/output_high" type="Const" version="opset1">
			<data element_type="f32" shape="" offset="1002996" size="4" />
			<output>
				<port id="0" precision="FP32" />
			</output>
		</layer>
		<layer id="240" name="/model.4/m.0/m/m.0/Add/fq_output_0" type="FakeQuantize" version="opset1">
			<data levels="256" auto_broadcast="numpy" />
			<input>
				<port id="0" precision="FP32">
					<dim>1</dim>
					<dim>64</dim>
					<dim>80</dim>
					<dim>80</dim>
				</port>
				<port id="1" precision="FP32" />
				<port id="2" precision="FP32" />
				<port id="3" precision="FP32" />
				<port id="4" precision="FP32" />
			</input>
			<output>
				<port id="5" precision="FP32">
					<dim>1</dim>
					<dim>64</dim>
					<dim>80</dim>
					<dim>80</dim>
				</port>
			</output>
		</layer>
		<layer id="241" name="Constant_2883050" type="Const" version="opset1">
			<data element_type="i8" shape="64, 64, 3, 3" offset="1003000" size="36864" />
			<output>
				<port id="0" precision="I8">
					<dim>64</dim>
					<dim>64</dim>
					<dim>3</dim>
					<dim>3</dim>
				</port>
			</output>
		</layer>
		<layer id="242" name="Convert_2883051" type="Convert" version="opset1">
			<data destination_type="f32" />
			<input>
				<port id="0" precision="I8">
					<dim>64</dim>
					<dim>64</dim>
					<dim>3</dim>
					<dim>3</dim>
				</port>
			</input>
			<output>
				<port id="1" precision="FP32">
					<dim>64</dim>
					<dim>64</dim>
					<dim>3</dim>
					<dim>3</dim>
				</port>
			</output>
		</layer>
		<layer id="243" name="Constant_2883052" type="Const" version="opset1">
			<data element_type="f32" shape="64, 1, 1, 1" offset="1039864" size="256" />
			<output>
				<port id="0" precision="FP32">
					<dim>64</dim>
					<dim>1</dim>
					<dim>1</dim>
					<dim>1</dim>
				</port>
			</output>
		</layer>
		<layer id="244" name="/model.4/m.0/m/m.1/cv1/conv/Conv/WithoutBiases/fq_weights_1" type="Multiply" version="opset1">
			<data auto_broadcast="numpy" />
			<input>
				<port id="0" precision="FP32">
					<dim>64</dim>
					<dim>64</dim>
					<dim>3</dim>
					<dim>3</dim>
				</port>
				<port id="1" precision="FP32">
					<dim>64</dim>
					<dim>1</dim>
					<dim>1</dim>
					<dim>1</dim>
				</port>
			</input>
			<output>
				<port id="2" precision="FP32">
					<dim>64</dim>
					<dim>64</dim>
					<dim>3</dim>
					<dim>3</dim>
				</port>
			</output>
		</layer>
		<layer id="245" name="/model.4/m.0/m/m.1/cv1/conv/Conv/WithoutBiases" type="Convolution" version="opset1">
			<data strides="1, 1" dilations="1, 1" pads_begin="1, 1" pads_end="1, 1" auto_pad="explicit" />
			<input>
				<port id="0" precision="FP32">
					<dim>1</dim>
					<dim>64</dim>
					<dim>80</dim>
					<dim>80</dim>
				</port>
				<port id="1" precision="FP32">
					<dim>64</dim>
					<dim>64</dim>
					<dim>3</dim>
					<dim>3</dim>
				</port>
			</input>
			<output>
				<port id="2" precision="FP32">
					<dim>1</dim>
					<dim>64</dim>
					<dim>80</dim>
					<dim>80</dim>
				</port>
			</output>
		</layer>
		<layer id="246" name="Reshape_1364690" type="Const" version="opset1">
			<data element_type="f32" shape="1, 64, 1, 1" offset="1040120" size="256" />
			<output>
				<port id="0" precision="FP32">
					<dim>1</dim>
					<dim>64</dim>
					<dim>1</dim>
					<dim>1</dim>
				</port>
			</output>
		</layer>
		<layer id="247" name="/model.4/m.0/m/m.1/cv1/conv/Conv" type="Add" version="opset1">
			<data auto_broadcast="numpy" />
			<input>
				<port id="0" precision="FP32">
					<dim>1</dim>
					<dim>64</dim>
					<dim>80</dim>
					<dim>80</dim>
				</port>
				<port id="1" precision="FP32">
					<dim>1</dim>
					<dim>64</dim>
					<dim>1</dim>
					<dim>1</dim>
				</port>
			</input>
			<output>
				<port id="2" precision="FP32" names="/model.4/m.0/m/m.1/cv1/conv/Conv_output_0">
					<dim>1</dim>
					<dim>64</dim>
					<dim>80</dim>
					<dim>80</dim>
				</port>
			</output>
		</layer>
		<layer id="248" name="/model.4/m.0/m/m.1/cv1/act/Mul" type="Swish" version="opset4">
			<input>
				<port id="0" precision="FP32">
					<dim>1</dim>
					<dim>64</dim>
					<dim>80</dim>
					<dim>80</dim>
				</port>
			</input>
			<output>
				<port id="1" precision="FP32" names="/model.4/m.0/m/m.1/cv1/act/Mul_output_0">
					<dim>1</dim>
					<dim>64</dim>
					<dim>80</dim>
					<dim>80</dim>
				</port>
			</output>
		</layer>
		<layer id="249" name="/model.4/m.0/m/m.1/cv1/act/Mul/fq_output_0/input_low" type="Const" version="opset1">
			<data element_type="f32" shape="" offset="1040376" size="4" />
			<output>
				<port id="0" precision="FP32" />
			</output>
		</layer>
		<layer id="250" name="/model.4/m.0/m/m.1/cv1/act/Mul/fq_output_0/input_high" type="Const" version="opset1">
			<data element_type="f32" shape="" offset="1040380" size="4" />
			<output>
				<port id="0" precision="FP32" />
			</output>
		</layer>
		<layer id="251" name="/model.4/m.0/m/m.1/cv1/act/Mul/fq_output_0/output_low" type="Const" version="opset1">
			<data element_type="f32" shape="" offset="1040376" size="4" />
			<output>
				<port id="0" precision="FP32" />
			</output>
		</layer>
		<layer id="252" name="/model.4/m.0/m/m.1/cv1/act/Mul/fq_output_0/output_high" type="Const" version="opset1">
			<data element_type="f32" shape="" offset="1040380" size="4" />
			<output>
				<port id="0" precision="FP32" />
			</output>
		</layer>
		<layer id="253" name="/model.4/m.0/m/m.1/cv1/act/Mul/fq_output_0" type="FakeQuantize" version="opset1">
			<data levels="256" auto_broadcast="numpy" />
			<input>
				<port id="0" precision="FP32">
					<dim>1</dim>
					<dim>64</dim>
					<dim>80</dim>
					<dim>80</dim>
				</port>
				<port id="1" precision="FP32" />
				<port id="2" precision="FP32" />
				<port id="3" precision="FP32" />
				<port id="4" precision="FP32" />
			</input>
			<output>
				<port id="5" precision="FP32">
					<dim>1</dim>
					<dim>64</dim>
					<dim>80</dim>
					<dim>80</dim>
				</port>
			</output>
		</layer>
		<layer id="254" name="Constant_2883054" type="Const" version="opset1">
			<data element_type="i8" shape="64, 64, 3, 3" offset="1040384" size="36864" />
			<output>
				<port id="0" precision="I8">
					<dim>64</dim>
					<dim>64</dim>
					<dim>3</dim>
					<dim>3</dim>
				</port>
			</output>
		</layer>
		<layer id="255" name="Convert_2883055" type="Convert" version="opset1">
			<data destination_type="f32" />
			<input>
				<port id="0" precision="I8">
					<dim>64</dim>
					<dim>64</dim>
					<dim>3</dim>
					<dim>3</dim>
				</port>
			</input>
			<output>
				<port id="1" precision="FP32">
					<dim>64</dim>
					<dim>64</dim>
					<dim>3</dim>
					<dim>3</dim>
				</port>
			</output>
		</layer>
		<layer id="256" name="Constant_2883056" type="Const" version="opset1">
			<data element_type="f32" shape="64, 1, 1, 1" offset="1077248" size="256" />
			<output>
				<port id="0" precision="FP32">
					<dim>64</dim>
					<dim>1</dim>
					<dim>1</dim>
					<dim>1</dim>
				</port>
			</output>
		</layer>
		<layer id="257" name="/model.4/m.0/m/m.1/cv2/conv/Conv/WithoutBiases/fq_weights_1" type="Multiply" version="opset1">
			<data auto_broadcast="numpy" />
			<input>
				<port id="0" precision="FP32">
					<dim>64</dim>
					<dim>64</dim>
					<dim>3</dim>
					<dim>3</dim>
				</port>
				<port id="1" precision="FP32">
					<dim>64</dim>
					<dim>1</dim>
					<dim>1</dim>
					<dim>1</dim>
				</port>
			</input>
			<output>
				<port id="2" precision="FP32">
					<dim>64</dim>
					<dim>64</dim>
					<dim>3</dim>
					<dim>3</dim>
				</port>
			</output>
		</layer>
		<layer id="258" name="/model.4/m.0/m/m.1/cv2/conv/Conv/WithoutBiases" type="Convolution" version="opset1">
			<data strides="1, 1" dilations="1, 1" pads_begin="1, 1" pads_end="1, 1" auto_pad="explicit" />
			<input>
				<port id="0" precision="FP32">
					<dim>1</dim>
					<dim>64</dim>
					<dim>80</dim>
					<dim>80</dim>
				</port>
				<port id="1" precision="FP32">
					<dim>64</dim>
					<dim>64</dim>
					<dim>3</dim>
					<dim>3</dim>
				</port>
			</input>
			<output>
				<port id="2" precision="FP32">
					<dim>1</dim>
					<dim>64</dim>
					<dim>80</dim>
					<dim>80</dim>
				</port>
			</output>
		</layer>
		<layer id="259" name="Reshape_1364705" type="Const" version="opset1">
			<data element_type="f32" shape="1, 64, 1, 1" offset="1077504" size="256" />
			<output>
				<port id="0" precision="FP32">
					<dim>1</dim>
					<dim>64</dim>
					<dim>1</dim>
					<dim>1</dim>
				</port>
			</output>
		</layer>
		<layer id="260" name="/model.4/m.0/m/m.1/cv2/conv/Conv" type="Add" version="opset1">
			<data auto_broadcast="numpy" />
			<input>
				<port id="0" precision="FP32">
					<dim>1</dim>
					<dim>64</dim>
					<dim>80</dim>
					<dim>80</dim>
				</port>
				<port id="1" precision="FP32">
					<dim>1</dim>
					<dim>64</dim>
					<dim>1</dim>
					<dim>1</dim>
				</port>
			</input>
			<output>
				<port id="2" precision="FP32" names="/model.4/m.0/m/m.1/cv2/conv/Conv_output_0">
					<dim>1</dim>
					<dim>64</dim>
					<dim>80</dim>
					<dim>80</dim>
				</port>
			</output>
		</layer>
		<layer id="261" name="/model.4/m.0/m/m.1/cv2/act/Mul" type="Swish" version="opset4">
			<input>
				<port id="0" precision="FP32">
					<dim>1</dim>
					<dim>64</dim>
					<dim>80</dim>
					<dim>80</dim>
				</port>
			</input>
			<output>
				<port id="1" precision="FP32" names="/model.4/m.0/m/m.1/cv2/act/Mul_output_0">
					<dim>1</dim>
					<dim>64</dim>
					<dim>80</dim>
					<dim>80</dim>
				</port>
			</output>
		</layer>
		<layer id="262" name="/model.4/m.0/m/m.1/cv2/act/Mul/fq_output_0/input_low" type="Const" version="opset1">
			<data element_type="f32" shape="" offset="1077760" size="4" />
			<output>
				<port id="0" precision="FP32" />
			</output>
		</layer>
		<layer id="263" name="/model.4/m.0/m/m.1/cv2/act/Mul/fq_output_0/input_high" type="Const" version="opset1">
			<data element_type="f32" shape="" offset="1077764" size="4" />
			<output>
				<port id="0" precision="FP32" />
			</output>
		</layer>
		<layer id="264" name="/model.4/m.0/m/m.1/cv2/act/Mul/fq_output_0/output_low" type="Const" version="opset1">
			<data element_type="f32" shape="" offset="1077760" size="4" />
			<output>
				<port id="0" precision="FP32" />
			</output>
		</layer>
		<layer id="265" name="/model.4/m.0/m/m.1/cv2/act/Mul/fq_output_0/output_high" type="Const" version="opset1">
			<data element_type="f32" shape="" offset="1077764" size="4" />
			<output>
				<port id="0" precision="FP32" />
			</output>
		</layer>
		<layer id="266" name="/model.4/m.0/m/m.1/cv2/act/Mul/fq_output_0" type="FakeQuantize" version="opset1">
			<data levels="256" auto_broadcast="numpy" />
			<input>
				<port id="0" precision="FP32">
					<dim>1</dim>
					<dim>64</dim>
					<dim>80</dim>
					<dim>80</dim>
				</port>
				<port id="1" precision="FP32" />
				<port id="2" precision="FP32" />
				<port id="3" precision="FP32" />
				<port id="4" precision="FP32" />
			</input>
			<output>
				<port id="5" precision="FP32">
					<dim>1</dim>
					<dim>64</dim>
					<dim>80</dim>
					<dim>80</dim>
				</port>
			</output>
		</layer>
		<layer id="267" name="/model.4/m.0/m/m.1/Add" type="Add" version="opset1">
			<data auto_broadcast="numpy" />
			<input>
				<port id="0" precision="FP32">
					<dim>1</dim>
					<dim>64</dim>
					<dim>80</dim>
					<dim>80</dim>
				</port>
				<port id="1" precision="FP32">
					<dim>1</dim>
					<dim>64</dim>
					<dim>80</dim>
					<dim>80</dim>
				</port>
			</input>
			<output>
				<port id="2" precision="FP32" names="/model.4/m.0/m/m.1/Add_output_0">
					<dim>1</dim>
					<dim>64</dim>
					<dim>80</dim>
					<dim>80</dim>
				</port>
			</output>
		</layer>
		<layer id="268" name="/model.4/m.0/m/m.1/Add/fq_output_0/input_low" type="Const" version="opset1">
			<data element_type="f32" shape="" offset="1077768" size="4" />
			<output>
				<port id="0" precision="FP32" />
			</output>
		</layer>
		<layer id="269" name="/model.4/m.0/m/m.1/Add/fq_output_0/input_high" type="Const" version="opset1">
			<data element_type="f32" shape="" offset="1077772" size="4" />
			<output>
				<port id="0" precision="FP32" />
			</output>
		</layer>
		<layer id="270" name="/model.4/m.0/m/m.1/Add/fq_output_0/output_low" type="Const" version="opset1">
			<data element_type="f32" shape="" offset="1077768" size="4" />
			<output>
				<port id="0" precision="FP32" />
			</output>
		</layer>
		<layer id="271" name="/model.4/m.0/m/m.1/Add/fq_output_0/output_high" type="Const" version="opset1">
			<data element_type="f32" shape="" offset="1077772" size="4" />
			<output>
				<port id="0" precision="FP32" />
			</output>
		</layer>
		<layer id="272" name="/model.4/m.0/m/m.1/Add/fq_output_0" type="FakeQuantize" version="opset1">
			<data levels="256" auto_broadcast="numpy" />
			<input>
				<port id="0" precision="FP32">
					<dim>1</dim>
					<dim>64</dim>
					<dim>80</dim>
					<dim>80</dim>
				</port>
				<port id="1" precision="FP32" />
				<port id="2" precision="FP32" />
				<port id="3" precision="FP32" />
				<port id="4" precision="FP32" />
			</input>
			<output>
				<port id="5" precision="FP32">
					<dim>1</dim>
					<dim>64</dim>
					<dim>80</dim>
					<dim>80</dim>
				</port>
			</output>
		</layer>
		<layer id="273" name="Constant_2883058" type="Const" version="opset1">
			<data element_type="i8" shape="64, 128, 1, 1" offset="1077776" size="8192" />
			<output>
				<port id="0" precision="I8">
					<dim>64</dim>
					<dim>128</dim>
					<dim>1</dim>
					<dim>1</dim>
				</port>
			</output>
		</layer>
		<layer id="274" name="Convert_2883059" type="Convert" version="opset1">
			<data destination_type="f32" />
			<input>
				<port id="0" precision="I8">
					<dim>64</dim>
					<dim>128</dim>
					<dim>1</dim>
					<dim>1</dim>
				</port>
			</input>
			<output>
				<port id="1" precision="FP32">
					<dim>64</dim>
					<dim>128</dim>
					<dim>1</dim>
					<dim>1</dim>
				</port>
			</output>
		</layer>
		<layer id="275" name="Constant_2883060" type="Const" version="opset1">
			<data element_type="f32" shape="64, 1, 1, 1" offset="1085968" size="256" />
			<output>
				<port id="0" precision="FP32">
					<dim>64</dim>
					<dim>1</dim>
					<dim>1</dim>
					<dim>1</dim>
				</port>
			</output>
		</layer>
		<layer id="276" name="/model.4/m.0/cv2/conv/Conv/WithoutBiases/fq_weights_1" type="Multiply" version="opset1">
			<data auto_broadcast="numpy" />
			<input>
				<port id="0" precision="FP32">
					<dim>64</dim>
					<dim>128</dim>
					<dim>1</dim>
					<dim>1</dim>
				</port>
				<port id="1" precision="FP32">
					<dim>64</dim>
					<dim>1</dim>
					<dim>1</dim>
					<dim>1</dim>
				</port>
			</input>
			<output>
				<port id="2" precision="FP32">
					<dim>64</dim>
					<dim>128</dim>
					<dim>1</dim>
					<dim>1</dim>
				</port>
			</output>
		</layer>
		<layer id="277" name="/model.4/m.0/cv2/conv/Conv/WithoutBiases" type="Convolution" version="opset1">
			<data strides="1, 1" dilations="1, 1" pads_begin="0, 0" pads_end="0, 0" auto_pad="explicit" />
			<input>
				<port id="0" precision="FP32">
					<dim>1</dim>
					<dim>128</dim>
					<dim>80</dim>
					<dim>80</dim>
				</port>
				<port id="1" precision="FP32">
					<dim>64</dim>
					<dim>128</dim>
					<dim>1</dim>
					<dim>1</dim>
				</port>
			</input>
			<output>
				<port id="2" precision="FP32">
					<dim>1</dim>
					<dim>64</dim>
					<dim>80</dim>
					<dim>80</dim>
				</port>
			</output>
		</layer>
		<layer id="278" name="Reshape_1364642" type="Const" version="opset1">
			<data element_type="f32" shape="1, 64, 1, 1" offset="1086224" size="256" />
			<output>
				<port id="0" precision="FP32">
					<dim>1</dim>
					<dim>64</dim>
					<dim>1</dim>
					<dim>1</dim>
				</port>
			</output>
		</layer>
		<layer id="279" name="/model.4/m.0/cv2/conv/Conv" type="Add" version="opset1">
			<data auto_broadcast="numpy" />
			<input>
				<port id="0" precision="FP32">
					<dim>1</dim>
					<dim>64</dim>
					<dim>80</dim>
					<dim>80</dim>
				</port>
				<port id="1" precision="FP32">
					<dim>1</dim>
					<dim>64</dim>
					<dim>1</dim>
					<dim>1</dim>
				</port>
			</input>
			<output>
				<port id="2" precision="FP32" names="/model.4/m.0/cv2/conv/Conv_output_0">
					<dim>1</dim>
					<dim>64</dim>
					<dim>80</dim>
					<dim>80</dim>
				</port>
			</output>
		</layer>
		<layer id="280" name="/model.4/m.0/cv2/act/Mul" type="Swish" version="opset4">
			<input>
				<port id="0" precision="FP32">
					<dim>1</dim>
					<dim>64</dim>
					<dim>80</dim>
					<dim>80</dim>
				</port>
			</input>
			<output>
				<port id="1" precision="FP32" names="/model.4/m.0/cv2/act/Mul_output_0">
					<dim>1</dim>
					<dim>64</dim>
					<dim>80</dim>
					<dim>80</dim>
				</port>
			</output>
		</layer>
		<layer id="281" name="/model.4/m.0/cv2/act/Mul/fq_output_0/input_low" type="Const" version="opset1">
			<data element_type="f32" shape="" offset="1077768" size="4" />
			<output>
				<port id="0" precision="FP32" />
			</output>
		</layer>
		<layer id="282" name="/model.4/m.0/cv2/act/Mul/fq_output_0/input_high" type="Const" version="opset1">
			<data element_type="f32" shape="" offset="1077772" size="4" />
			<output>
				<port id="0" precision="FP32" />
			</output>
		</layer>
		<layer id="283" name="/model.4/m.0/cv2/act/Mul/fq_output_0/output_low" type="Const" version="opset1">
			<data element_type="f32" shape="" offset="1077768" size="4" />
			<output>
				<port id="0" precision="FP32" />
			</output>
		</layer>
		<layer id="284" name="/model.4/m.0/cv2/act/Mul/fq_output_0/output_high" type="Const" version="opset1">
			<data element_type="f32" shape="" offset="1077772" size="4" />
			<output>
				<port id="0" precision="FP32" />
			</output>
		</layer>
		<layer id="285" name="/model.4/m.0/cv2/act/Mul/fq_output_0" type="FakeQuantize" version="opset1">
			<data levels="256" auto_broadcast="numpy" />
			<input>
				<port id="0" precision="FP32">
					<dim>1</dim>
					<dim>64</dim>
					<dim>80</dim>
					<dim>80</dim>
				</port>
				<port id="1" precision="FP32" />
				<port id="2" precision="FP32" />
				<port id="3" precision="FP32" />
				<port id="4" precision="FP32" />
			</input>
			<output>
				<port id="5" precision="FP32">
					<dim>1</dim>
					<dim>64</dim>
					<dim>80</dim>
					<dim>80</dim>
				</port>
			</output>
		</layer>
		<layer id="286" name="/model.4/m.0/Concat" type="Concat" version="opset1">
			<data axis="1" />
			<input>
				<port id="0" precision="FP32">
					<dim>1</dim>
					<dim>64</dim>
					<dim>80</dim>
					<dim>80</dim>
				</port>
				<port id="1" precision="FP32">
					<dim>1</dim>
					<dim>64</dim>
					<dim>80</dim>
					<dim>80</dim>
				</port>
			</input>
			<output>
				<port id="2" precision="FP32" names="/model.4/m.0/Concat_output_0">
					<dim>1</dim>
					<dim>128</dim>
					<dim>80</dim>
					<dim>80</dim>
				</port>
			</output>
		</layer>
		<layer id="287" name="Constant_2883062" type="Const" version="opset1">
			<data element_type="i8" shape="128, 128, 1, 1" offset="1086480" size="16384" />
			<output>
				<port id="0" precision="I8">
					<dim>128</dim>
					<dim>128</dim>
					<dim>1</dim>
					<dim>1</dim>
				</port>
			</output>
		</layer>
		<layer id="288" name="Convert_2883063" type="Convert" version="opset1">
			<data destination_type="f32" />
			<input>
				<port id="0" precision="I8">
					<dim>128</dim>
					<dim>128</dim>
					<dim>1</dim>
					<dim>1</dim>
				</port>
			</input>
			<output>
				<port id="1" precision="FP32">
					<dim>128</dim>
					<dim>128</dim>
					<dim>1</dim>
					<dim>1</dim>
				</port>
			</output>
		</layer>
		<layer id="289" name="Constant_2883064" type="Const" version="opset1">
			<data element_type="f32" shape="128, 1, 1, 1" offset="1102864" size="512" />
			<output>
				<port id="0" precision="FP32">
					<dim>128</dim>
					<dim>1</dim>
					<dim>1</dim>
					<dim>1</dim>
				</port>
			</output>
		</layer>
		<layer id="290" name="/model.4/m.0/cv3/conv/Conv/WithoutBiases/fq_weights_1" type="Multiply" version="opset1">
			<data auto_broadcast="numpy" />
			<input>
				<port id="0" precision="FP32">
					<dim>128</dim>
					<dim>128</dim>
					<dim>1</dim>
					<dim>1</dim>
				</port>
				<port id="1" precision="FP32">
					<dim>128</dim>
					<dim>1</dim>
					<dim>1</dim>
					<dim>1</dim>
				</port>
			</input>
			<output>
				<port id="2" precision="FP32">
					<dim>128</dim>
					<dim>128</dim>
					<dim>1</dim>
					<dim>1</dim>
				</port>
			</output>
		</layer>
		<layer id="291" name="/model.4/m.0/cv3/conv/Conv/WithoutBiases" type="Convolution" version="opset1">
			<data strides="1, 1" dilations="1, 1" pads_begin="0, 0" pads_end="0, 0" auto_pad="explicit" />
			<input>
				<port id="0" precision="FP32">
					<dim>1</dim>
					<dim>128</dim>
					<dim>80</dim>
					<dim>80</dim>
				</port>
				<port id="1" precision="FP32">
					<dim>128</dim>
					<dim>128</dim>
					<dim>1</dim>
					<dim>1</dim>
				</port>
			</input>
			<output>
				<port id="2" precision="FP32">
					<dim>1</dim>
					<dim>128</dim>
					<dim>80</dim>
					<dim>80</dim>
				</port>
			</output>
		</layer>
		<layer id="292" name="Reshape_1364722" type="Const" version="opset1">
			<data element_type="f32" shape="1, 128, 1, 1" offset="1103376" size="512" />
			<output>
				<port id="0" precision="FP32">
					<dim>1</dim>
					<dim>128</dim>
					<dim>1</dim>
					<dim>1</dim>
				</port>
			</output>
		</layer>
		<layer id="293" name="/model.4/m.0/cv3/conv/Conv" type="Add" version="opset1">
			<data auto_broadcast="numpy" />
			<input>
				<port id="0" precision="FP32">
					<dim>1</dim>
					<dim>128</dim>
					<dim>80</dim>
					<dim>80</dim>
				</port>
				<port id="1" precision="FP32">
					<dim>1</dim>
					<dim>128</dim>
					<dim>1</dim>
					<dim>1</dim>
				</port>
			</input>
			<output>
				<port id="2" precision="FP32" names="/model.4/m.0/cv3/conv/Conv_output_0">
					<dim>1</dim>
					<dim>128</dim>
					<dim>80</dim>
					<dim>80</dim>
				</port>
			</output>
		</layer>
		<layer id="294" name="/model.4/m.0/cv3/act/Mul" type="Swish" version="opset4">
			<input>
				<port id="0" precision="FP32">
					<dim>1</dim>
					<dim>128</dim>
					<dim>80</dim>
					<dim>80</dim>
				</port>
			</input>
			<output>
				<port id="1" precision="FP32" names="/model.4/m.0/cv3/act/Mul_output_0">
					<dim>1</dim>
					<dim>128</dim>
					<dim>80</dim>
					<dim>80</dim>
				</port>
			</output>
		</layer>
		<layer id="295" name="/model.4/m.0/cv3/act/Mul/fq_output_0/input_low" type="Const" version="opset1">
			<data element_type="f32" shape="" offset="919488" size="4" />
			<output>
				<port id="0" precision="FP32" />
			</output>
		</layer>
		<layer id="296" name="/model.4/m.0/cv3/act/Mul/fq_output_0/input_high" type="Const" version="opset1">
			<data element_type="f32" shape="" offset="919492" size="4" />
			<output>
				<port id="0" precision="FP32" />
			</output>
		</layer>
		<layer id="297" name="/model.4/m.0/cv3/act/Mul/fq_output_0/output_low" type="Const" version="opset1">
			<data element_type="f32" shape="" offset="919488" size="4" />
			<output>
				<port id="0" precision="FP32" />
			</output>
		</layer>
		<layer id="298" name="/model.4/m.0/cv3/act/Mul/fq_output_0/output_high" type="Const" version="opset1">
			<data element_type="f32" shape="" offset="919492" size="4" />
			<output>
				<port id="0" precision="FP32" />
			</output>
		</layer>
		<layer id="299" name="/model.4/m.0/cv3/act/Mul/fq_output_0" type="FakeQuantize" version="opset1">
			<data levels="256" auto_broadcast="numpy" />
			<input>
				<port id="0" precision="FP32">
					<dim>1</dim>
					<dim>128</dim>
					<dim>80</dim>
					<dim>80</dim>
				</port>
				<port id="1" precision="FP32" />
				<port id="2" precision="FP32" />
				<port id="3" precision="FP32" />
				<port id="4" precision="FP32" />
			</input>
			<output>
				<port id="5" precision="FP32">
					<dim>1</dim>
					<dim>128</dim>
					<dim>80</dim>
					<dim>80</dim>
				</port>
			</output>
		</layer>
		<layer id="300" name="/model.4/Concat" type="Concat" version="opset1">
			<data axis="1" />
			<input>
				<port id="0" precision="FP32">
					<dim>1</dim>
					<dim>128</dim>
					<dim>80</dim>
					<dim>80</dim>
				</port>
				<port id="1" precision="FP32">
					<dim>1</dim>
					<dim>128</dim>
					<dim>80</dim>
					<dim>80</dim>
				</port>
				<port id="2" precision="FP32">
					<dim>1</dim>
					<dim>128</dim>
					<dim>80</dim>
					<dim>80</dim>
				</port>
			</input>
			<output>
				<port id="3" precision="FP32" names="/model.4/Concat_output_0">
					<dim>1</dim>
					<dim>384</dim>
					<dim>80</dim>
					<dim>80</dim>
				</port>
			</output>
		</layer>
		<layer id="301" name="Constant_2883066" type="Const" version="opset1">
			<data element_type="i8" shape="512, 384, 1, 1" offset="1103888" size="196608" />
			<output>
				<port id="0" precision="I8">
					<dim>512</dim>
					<dim>384</dim>
					<dim>1</dim>
					<dim>1</dim>
				</port>
			</output>
		</layer>
		<layer id="302" name="Convert_2883067" type="Convert" version="opset1">
			<data destination_type="f32" />
			<input>
				<port id="0" precision="I8">
					<dim>512</dim>
					<dim>384</dim>
					<dim>1</dim>
					<dim>1</dim>
				</port>
			</input>
			<output>
				<port id="1" precision="FP32">
					<dim>512</dim>
					<dim>384</dim>
					<dim>1</dim>
					<dim>1</dim>
				</port>
			</output>
		</layer>
		<layer id="303" name="Constant_2883068" type="Const" version="opset1">
			<data element_type="f32" shape="512, 1, 1, 1" offset="1300496" size="2048" />
			<output>
				<port id="0" precision="FP32">
					<dim>512</dim>
					<dim>1</dim>
					<dim>1</dim>
					<dim>1</dim>
				</port>
			</output>
		</layer>
		<layer id="304" name="/model.4/cv2/conv/Conv/WithoutBiases/fq_weights_1" type="Multiply" version="opset1">
			<data auto_broadcast="numpy" />
			<input>
				<port id="0" precision="FP32">
					<dim>512</dim>
					<dim>384</dim>
					<dim>1</dim>
					<dim>1</dim>
				</port>
				<port id="1" precision="FP32">
					<dim>512</dim>
					<dim>1</dim>
					<dim>1</dim>
					<dim>1</dim>
				</port>
			</input>
			<output>
				<port id="2" precision="FP32">
					<dim>512</dim>
					<dim>384</dim>
					<dim>1</dim>
					<dim>1</dim>
				</port>
			</output>
		</layer>
		<layer id="305" name="/model.4/cv2/conv/Conv/WithoutBiases" type="Convolution" version="opset1">
			<data strides="1, 1" dilations="1, 1" pads_begin="0, 0" pads_end="0, 0" auto_pad="explicit" />
			<input>
				<port id="0" precision="FP32">
					<dim>1</dim>
					<dim>384</dim>
					<dim>80</dim>
					<dim>80</dim>
				</port>
				<port id="1" precision="FP32">
					<dim>512</dim>
					<dim>384</dim>
					<dim>1</dim>
					<dim>1</dim>
				</port>
			</input>
			<output>
				<port id="2" precision="FP32">
					<dim>1</dim>
					<dim>512</dim>
					<dim>80</dim>
					<dim>80</dim>
				</port>
			</output>
		</layer>
		<layer id="306" name="Reshape_1364738" type="Const" version="opset1">
			<data element_type="f32" shape="1, 512, 1, 1" offset="1302544" size="2048" />
			<output>
				<port id="0" precision="FP32">
					<dim>1</dim>
					<dim>512</dim>
					<dim>1</dim>
					<dim>1</dim>
				</port>
			</output>
		</layer>
		<layer id="307" name="/model.4/cv2/conv/Conv" type="Add" version="opset1">
			<data auto_broadcast="numpy" />
			<input>
				<port id="0" precision="FP32">
					<dim>1</dim>
					<dim>512</dim>
					<dim>80</dim>
					<dim>80</dim>
				</port>
				<port id="1" precision="FP32">
					<dim>1</dim>
					<dim>512</dim>
					<dim>1</dim>
					<dim>1</dim>
				</port>
			</input>
			<output>
				<port id="2" precision="FP32" names="/model.4/cv2/conv/Conv_output_0">
					<dim>1</dim>
					<dim>512</dim>
					<dim>80</dim>
					<dim>80</dim>
				</port>
			</output>
		</layer>
		<layer id="308" name="/model.4/cv2/act/Mul" type="Swish" version="opset4">
			<input>
				<port id="0" precision="FP32">
					<dim>1</dim>
					<dim>512</dim>
					<dim>80</dim>
					<dim>80</dim>
				</port>
			</input>
			<output>
				<port id="1" precision="FP32" names="/model.4/cv2/act/Mul_output_0">
					<dim>1</dim>
					<dim>512</dim>
					<dim>80</dim>
					<dim>80</dim>
				</port>
			</output>
		</layer>
		<layer id="309" name="/model.4/cv2/act/Mul/fq_output_0/input_low" type="Const" version="opset1">
			<data element_type="f32" shape="" offset="1304592" size="4" />
			<output>
				<port id="0" precision="FP32" />
			</output>
		</layer>
		<layer id="310" name="/model.4/cv2/act/Mul/fq_output_0/input_high" type="Const" version="opset1">
			<data element_type="f32" shape="" offset="1304596" size="4" />
			<output>
				<port id="0" precision="FP32" />
			</output>
		</layer>
		<layer id="311" name="/model.4/cv2/act/Mul/fq_output_0/output_low" type="Const" version="opset1">
			<data element_type="f32" shape="" offset="1304592" size="4" />
			<output>
				<port id="0" precision="FP32" />
			</output>
		</layer>
		<layer id="312" name="/model.4/cv2/act/Mul/fq_output_0/output_high" type="Const" version="opset1">
			<data element_type="f32" shape="" offset="1304596" size="4" />
			<output>
				<port id="0" precision="FP32" />
			</output>
		</layer>
		<layer id="313" name="/model.4/cv2/act/Mul/fq_output_0" type="FakeQuantize" version="opset1">
			<data levels="256" auto_broadcast="numpy" />
			<input>
				<port id="0" precision="FP32">
					<dim>1</dim>
					<dim>512</dim>
					<dim>80</dim>
					<dim>80</dim>
				</port>
				<port id="1" precision="FP32" />
				<port id="2" precision="FP32" />
				<port id="3" precision="FP32" />
				<port id="4" precision="FP32" />
			</input>
			<output>
				<port id="5" precision="FP32">
					<dim>1</dim>
					<dim>512</dim>
					<dim>80</dim>
					<dim>80</dim>
				</port>
			</output>
		</layer>
		<layer id="314" name="Constant_2883070" type="Const" version="opset1">
			<data element_type="i8" shape="512, 512, 3, 3" offset="1304600" size="2359296" />
			<output>
				<port id="0" precision="I8">
					<dim>512</dim>
					<dim>512</dim>
					<dim>3</dim>
					<dim>3</dim>
				</port>
			</output>
		</layer>
		<layer id="315" name="Convert_2883071" type="Convert" version="opset1">
			<data destination_type="f32" />
			<input>
				<port id="0" precision="I8">
					<dim>512</dim>
					<dim>512</dim>
					<dim>3</dim>
					<dim>3</dim>
				</port>
			</input>
			<output>
				<port id="1" precision="FP32">
					<dim>512</dim>
					<dim>512</dim>
					<dim>3</dim>
					<dim>3</dim>
				</port>
			</output>
		</layer>
		<layer id="316" name="Constant_2883072" type="Const" version="opset1">
			<data element_type="f32" shape="512, 1, 1, 1" offset="3663896" size="2048" />
			<output>
				<port id="0" precision="FP32">
					<dim>512</dim>
					<dim>1</dim>
					<dim>1</dim>
					<dim>1</dim>
				</port>
			</output>
		</layer>
		<layer id="317" name="/model.5/conv/Conv/WithoutBiases/fq_weights_1" type="Multiply" version="opset1">
			<data auto_broadcast="numpy" />
			<input>
				<port id="0" precision="FP32">
					<dim>512</dim>
					<dim>512</dim>
					<dim>3</dim>
					<dim>3</dim>
				</port>
				<port id="1" precision="FP32">
					<dim>512</dim>
					<dim>1</dim>
					<dim>1</dim>
					<dim>1</dim>
				</port>
			</input>
			<output>
				<port id="2" precision="FP32">
					<dim>512</dim>
					<dim>512</dim>
					<dim>3</dim>
					<dim>3</dim>
				</port>
			</output>
		</layer>
		<layer id="318" name="/model.5/conv/Conv/WithoutBiases" type="Convolution" version="opset1">
			<data strides="2, 2" dilations="1, 1" pads_begin="1, 1" pads_end="1, 1" auto_pad="explicit" />
			<input>
				<port id="0" precision="FP32">
					<dim>1</dim>
					<dim>512</dim>
					<dim>80</dim>
					<dim>80</dim>
				</port>
				<port id="1" precision="FP32">
					<dim>512</dim>
					<dim>512</dim>
					<dim>3</dim>
					<dim>3</dim>
				</port>
			</input>
			<output>
				<port id="2" precision="FP32">
					<dim>1</dim>
					<dim>512</dim>
					<dim>40</dim>
					<dim>40</dim>
				</port>
			</output>
		</layer>
		<layer id="319" name="Reshape_1364753" type="Const" version="opset1">
			<data element_type="f32" shape="1, 512, 1, 1" offset="3665944" size="2048" />
			<output>
				<port id="0" precision="FP32">
					<dim>1</dim>
					<dim>512</dim>
					<dim>1</dim>
					<dim>1</dim>
				</port>
			</output>
		</layer>
		<layer id="320" name="/model.5/conv/Conv" type="Add" version="opset1">
			<data auto_broadcast="numpy" />
			<input>
				<port id="0" precision="FP32">
					<dim>1</dim>
					<dim>512</dim>
					<dim>40</dim>
					<dim>40</dim>
				</port>
				<port id="1" precision="FP32">
					<dim>1</dim>
					<dim>512</dim>
					<dim>1</dim>
					<dim>1</dim>
				</port>
			</input>
			<output>
				<port id="2" precision="FP32" names="/model.5/conv/Conv_output_0">
					<dim>1</dim>
					<dim>512</dim>
					<dim>40</dim>
					<dim>40</dim>
				</port>
			</output>
		</layer>
		<layer id="321" name="/model.5/act/Mul" type="Swish" version="opset4">
			<input>
				<port id="0" precision="FP32">
					<dim>1</dim>
					<dim>512</dim>
					<dim>40</dim>
					<dim>40</dim>
				</port>
			</input>
			<output>
				<port id="1" precision="FP32" names="/model.5/act/Mul_output_0">
					<dim>1</dim>
					<dim>512</dim>
					<dim>40</dim>
					<dim>40</dim>
				</port>
			</output>
		</layer>
		<layer id="322" name="/model.5/act/Mul/fq_output_0/input_low" type="Const" version="opset1">
			<data element_type="f32" shape="" offset="3667992" size="4" />
			<output>
				<port id="0" precision="FP32" />
			</output>
		</layer>
		<layer id="323" name="/model.5/act/Mul/fq_output_0/input_high" type="Const" version="opset1">
			<data element_type="f32" shape="" offset="3667996" size="4" />
			<output>
				<port id="0" precision="FP32" />
			</output>
		</layer>
		<layer id="324" name="/model.5/act/Mul/fq_output_0/output_low" type="Const" version="opset1">
			<data element_type="f32" shape="" offset="3667992" size="4" />
			<output>
				<port id="0" precision="FP32" />
			</output>
		</layer>
		<layer id="325" name="/model.5/act/Mul/fq_output_0/output_high" type="Const" version="opset1">
			<data element_type="f32" shape="" offset="3667996" size="4" />
			<output>
				<port id="0" precision="FP32" />
			</output>
		</layer>
		<layer id="326" name="/model.5/act/Mul/fq_output_0" type="FakeQuantize" version="opset1">
			<data levels="256" auto_broadcast="numpy" />
			<input>
				<port id="0" precision="FP32">
					<dim>1</dim>
					<dim>512</dim>
					<dim>40</dim>
					<dim>40</dim>
				</port>
				<port id="1" precision="FP32" />
				<port id="2" precision="FP32" />
				<port id="3" precision="FP32" />
				<port id="4" precision="FP32" />
			</input>
			<output>
				<port id="5" precision="FP32">
					<dim>1</dim>
					<dim>512</dim>
					<dim>40</dim>
					<dim>40</dim>
				</port>
			</output>
		</layer>
		<layer id="327" name="Constant_2883074" type="Const" version="opset1">
			<data element_type="i8" shape="512, 512, 1, 1" offset="3668000" size="262144" />
			<output>
				<port id="0" precision="I8">
					<dim>512</dim>
					<dim>512</dim>
					<dim>1</dim>
					<dim>1</dim>
				</port>
			</output>
		</layer>
		<layer id="328" name="Convert_2883075" type="Convert" version="opset1">
			<data destination_type="f32" />
			<input>
				<port id="0" precision="I8">
					<dim>512</dim>
					<dim>512</dim>
					<dim>1</dim>
					<dim>1</dim>
				</port>
			</input>
			<output>
				<port id="1" precision="FP32">
					<dim>512</dim>
					<dim>512</dim>
					<dim>1</dim>
					<dim>1</dim>
				</port>
			</output>
		</layer>
		<layer id="329" name="Constant_2883076" type="Const" version="opset1">
			<data element_type="f32" shape="512, 1, 1, 1" offset="3930144" size="2048" />
			<output>
				<port id="0" precision="FP32">
					<dim>512</dim>
					<dim>1</dim>
					<dim>1</dim>
					<dim>1</dim>
				</port>
			</output>
		</layer>
		<layer id="330" name="/model.6/cv1/conv/Conv/WithoutBiases/fq_weights_1" type="Multiply" version="opset1">
			<data auto_broadcast="numpy" />
			<input>
				<port id="0" precision="FP32">
					<dim>512</dim>
					<dim>512</dim>
					<dim>1</dim>
					<dim>1</dim>
				</port>
				<port id="1" precision="FP32">
					<dim>512</dim>
					<dim>1</dim>
					<dim>1</dim>
					<dim>1</dim>
				</port>
			</input>
			<output>
				<port id="2" precision="FP32">
					<dim>512</dim>
					<dim>512</dim>
					<dim>1</dim>
					<dim>1</dim>
				</port>
			</output>
		</layer>
		<layer id="331" name="/model.6/cv1/conv/Conv/WithoutBiases" type="Convolution" version="opset1">
			<data strides="1, 1" dilations="1, 1" pads_begin="0, 0" pads_end="0, 0" auto_pad="explicit" />
			<input>
				<port id="0" precision="FP32">
					<dim>1</dim>
					<dim>512</dim>
					<dim>40</dim>
					<dim>40</dim>
				</port>
				<port id="1" precision="FP32">
					<dim>512</dim>
					<dim>512</dim>
					<dim>1</dim>
					<dim>1</dim>
				</port>
			</input>
			<output>
				<port id="2" precision="FP32">
					<dim>1</dim>
					<dim>512</dim>
					<dim>40</dim>
					<dim>40</dim>
				</port>
			</output>
		</layer>
		<layer id="332" name="Reshape_1364768" type="Const" version="opset1">
			<data element_type="f32" shape="1, 512, 1, 1" offset="3932192" size="2048" />
			<output>
				<port id="0" precision="FP32">
					<dim>1</dim>
					<dim>512</dim>
					<dim>1</dim>
					<dim>1</dim>
				</port>
			</output>
		</layer>
		<layer id="333" name="/model.6/cv1/conv/Conv" type="Add" version="opset1">
			<data auto_broadcast="numpy" />
			<input>
				<port id="0" precision="FP32">
					<dim>1</dim>
					<dim>512</dim>
					<dim>40</dim>
					<dim>40</dim>
				</port>
				<port id="1" precision="FP32">
					<dim>1</dim>
					<dim>512</dim>
					<dim>1</dim>
					<dim>1</dim>
				</port>
			</input>
			<output>
				<port id="2" precision="FP32" names="/model.6/cv1/conv/Conv_output_0">
					<dim>1</dim>
					<dim>512</dim>
					<dim>40</dim>
					<dim>40</dim>
				</port>
			</output>
		</layer>
		<layer id="334" name="/model.6/cv1/act/Mul" type="Swish" version="opset4">
			<input>
				<port id="0" precision="FP32">
					<dim>1</dim>
					<dim>512</dim>
					<dim>40</dim>
					<dim>40</dim>
				</port>
			</input>
			<output>
				<port id="1" precision="FP32" names="/model.6/cv1/act/Mul_output_0">
					<dim>1</dim>
					<dim>512</dim>
					<dim>40</dim>
					<dim>40</dim>
				</port>
			</output>
		</layer>
		<layer id="335" name="/model.6/cv1/act/Mul/fq_output_0/input_low" type="Const" version="opset1">
			<data element_type="f32" shape="" offset="3934240" size="4" />
			<output>
				<port id="0" precision="FP32" />
			</output>
		</layer>
		<layer id="336" name="/model.6/cv1/act/Mul/fq_output_0/input_high" type="Const" version="opset1">
			<data element_type="f32" shape="" offset="3934244" size="4" />
			<output>
				<port id="0" precision="FP32" />
			</output>
		</layer>
		<layer id="337" name="/model.6/cv1/act/Mul/fq_output_0/output_low" type="Const" version="opset1">
			<data element_type="f32" shape="" offset="3934240" size="4" />
			<output>
				<port id="0" precision="FP32" />
			</output>
		</layer>
		<layer id="338" name="/model.6/cv1/act/Mul/fq_output_0/output_high" type="Const" version="opset1">
			<data element_type="f32" shape="" offset="3934244" size="4" />
			<output>
				<port id="0" precision="FP32" />
			</output>
		</layer>
		<layer id="339" name="/model.6/cv1/act/Mul/fq_output_0" type="FakeQuantize" version="opset1">
			<data levels="256" auto_broadcast="numpy" />
			<input>
				<port id="0" precision="FP32">
					<dim>1</dim>
					<dim>512</dim>
					<dim>40</dim>
					<dim>40</dim>
				</port>
				<port id="1" precision="FP32" />
				<port id="2" precision="FP32" />
				<port id="3" precision="FP32" />
				<port id="4" precision="FP32" />
			</input>
			<output>
				<port id="5" precision="FP32">
					<dim>1</dim>
					<dim>512</dim>
					<dim>40</dim>
					<dim>40</dim>
				</port>
			</output>
		</layer>
		<layer id="340" name="Constant_1364772" type="Const" version="opset1">
			<data element_type="i64" shape="" offset="161632" size="8" />
			<output>
				<port id="0" precision="I64" />
			</output>
		</layer>
		<layer id="341" name="onnx::Split_309" type="Const" version="opset1">
			<data element_type="i64" shape="2" offset="3934248" size="16" />
			<output>
				<port id="0" precision="I64" names="onnx::Split_309">
					<dim>2</dim>
				</port>
			</output>
		</layer>
		<layer id="342" name="/model.6/Split" type="VariadicSplit" version="opset1">
			<input>
				<port id="0" precision="FP32">
					<dim>1</dim>
					<dim>512</dim>
					<dim>40</dim>
					<dim>40</dim>
				</port>
				<port id="1" precision="I64" />
				<port id="2" precision="I64">
					<dim>2</dim>
				</port>
			</input>
			<output>
				<port id="3" precision="FP32" names="/model.6/Split_output_0">
					<dim>1</dim>
					<dim>256</dim>
					<dim>40</dim>
					<dim>40</dim>
				</port>
				<port id="4" precision="FP32" names="/model.6/Split_output_1">
					<dim>1</dim>
					<dim>256</dim>
					<dim>40</dim>
					<dim>40</dim>
				</port>
			</output>
		</layer>
		<layer id="343" name="Constant_2883078" type="Const" version="opset1">
			<data element_type="i8" shape="128, 256, 1, 1" offset="3934264" size="32768" />
			<output>
				<port id="0" precision="I8">
					<dim>128</dim>
					<dim>256</dim>
					<dim>1</dim>
					<dim>1</dim>
				</port>
			</output>
		</layer>
		<layer id="344" name="Convert_2883079" type="Convert" version="opset1">
			<data destination_type="f32" />
			<input>
				<port id="0" precision="I8">
					<dim>128</dim>
					<dim>256</dim>
					<dim>1</dim>
					<dim>1</dim>
				</port>
			</input>
			<output>
				<port id="1" precision="FP32">
					<dim>128</dim>
					<dim>256</dim>
					<dim>1</dim>
					<dim>1</dim>
				</port>
			</output>
		</layer>
		<layer id="345" name="Constant_2883080" type="Const" version="opset1">
			<data element_type="f32" shape="128, 1, 1, 1" offset="3967032" size="512" />
			<output>
				<port id="0" precision="FP32">
					<dim>128</dim>
					<dim>1</dim>
					<dim>1</dim>
					<dim>1</dim>
				</port>
			</output>
		</layer>
		<layer id="346" name="/model.6/m.0/cv1/conv/Conv/WithoutBiases/fq_weights_1" type="Multiply" version="opset1">
			<data auto_broadcast="numpy" />
			<input>
				<port id="0" precision="FP32">
					<dim>128</dim>
					<dim>256</dim>
					<dim>1</dim>
					<dim>1</dim>
				</port>
				<port id="1" precision="FP32">
					<dim>128</dim>
					<dim>1</dim>
					<dim>1</dim>
					<dim>1</dim>
				</port>
			</input>
			<output>
				<port id="2" precision="FP32">
					<dim>128</dim>
					<dim>256</dim>
					<dim>1</dim>
					<dim>1</dim>
				</port>
			</output>
		</layer>
		<layer id="347" name="/model.6/m.0/cv1/conv/Conv/WithoutBiases" type="Convolution" version="opset1">
			<data strides="1, 1" dilations="1, 1" pads_begin="0, 0" pads_end="0, 0" auto_pad="explicit" />
			<input>
				<port id="0" precision="FP32">
					<dim>1</dim>
					<dim>256</dim>
					<dim>40</dim>
					<dim>40</dim>
				</port>
				<port id="1" precision="FP32">
					<dim>128</dim>
					<dim>256</dim>
					<dim>1</dim>
					<dim>1</dim>
				</port>
			</input>
			<output>
				<port id="2" precision="FP32">
					<dim>1</dim>
					<dim>128</dim>
					<dim>40</dim>
					<dim>40</dim>
				</port>
			</output>
		</layer>
		<layer id="348" name="Reshape_1364785" type="Const" version="opset1">
			<data element_type="f32" shape="1, 128, 1, 1" offset="3967544" size="512" />
			<output>
				<port id="0" precision="FP32">
					<dim>1</dim>
					<dim>128</dim>
					<dim>1</dim>
					<dim>1</dim>
				</port>
			</output>
		</layer>
		<layer id="349" name="/model.6/m.0/cv1/conv/Conv" type="Add" version="opset1">
			<data auto_broadcast="numpy" />
			<input>
				<port id="0" precision="FP32">
					<dim>1</dim>
					<dim>128</dim>
					<dim>40</dim>
					<dim>40</dim>
				</port>
				<port id="1" precision="FP32">
					<dim>1</dim>
					<dim>128</dim>
					<dim>1</dim>
					<dim>1</dim>
				</port>
			</input>
			<output>
				<port id="2" precision="FP32" names="/model.6/m.0/cv1/conv/Conv_output_0">
					<dim>1</dim>
					<dim>128</dim>
					<dim>40</dim>
					<dim>40</dim>
				</port>
			</output>
		</layer>
		<layer id="350" name="/model.6/m.0/cv1/act/Mul" type="Swish" version="opset4">
			<input>
				<port id="0" precision="FP32">
					<dim>1</dim>
					<dim>128</dim>
					<dim>40</dim>
					<dim>40</dim>
				</port>
			</input>
			<output>
				<port id="1" precision="FP32" names="/model.6/m.0/cv1/act/Mul_output_0">
					<dim>1</dim>
					<dim>128</dim>
					<dim>40</dim>
					<dim>40</dim>
				</port>
			</output>
		</layer>
		<layer id="351" name="/model.6/m.0/cv1/act/Mul/fq_output_0/input_low" type="Const" version="opset1">
			<data element_type="f32" shape="" offset="3968056" size="4" />
			<output>
				<port id="0" precision="FP32" />
			</output>
		</layer>
		<layer id="352" name="/model.6/m.0/cv1/act/Mul/fq_output_0/input_high" type="Const" version="opset1">
			<data element_type="f32" shape="" offset="3968060" size="4" />
			<output>
				<port id="0" precision="FP32" />
			</output>
		</layer>
		<layer id="353" name="/model.6/m.0/cv1/act/Mul/fq_output_0/output_low" type="Const" version="opset1">
			<data element_type="f32" shape="" offset="3968056" size="4" />
			<output>
				<port id="0" precision="FP32" />
			</output>
		</layer>
		<layer id="354" name="/model.6/m.0/cv1/act/Mul/fq_output_0/output_high" type="Const" version="opset1">
			<data element_type="f32" shape="" offset="3968060" size="4" />
			<output>
				<port id="0" precision="FP32" />
			</output>
		</layer>
		<layer id="355" name="/model.6/m.0/cv1/act/Mul/fq_output_0" type="FakeQuantize" version="opset1">
			<data levels="256" auto_broadcast="numpy" />
			<input>
				<port id="0" precision="FP32">
					<dim>1</dim>
					<dim>128</dim>
					<dim>40</dim>
					<dim>40</dim>
				</port>
				<port id="1" precision="FP32" />
				<port id="2" precision="FP32" />
				<port id="3" precision="FP32" />
				<port id="4" precision="FP32" />
			</input>
			<output>
				<port id="5" precision="FP32">
					<dim>1</dim>
					<dim>128</dim>
					<dim>40</dim>
					<dim>40</dim>
				</port>
			</output>
		</layer>
		<layer id="356" name="Constant_2883082" type="Const" version="opset1">
			<data element_type="i8" shape="128, 128, 3, 3" offset="3968064" size="147456" />
			<output>
				<port id="0" precision="I8">
					<dim>128</dim>
					<dim>128</dim>
					<dim>3</dim>
					<dim>3</dim>
				</port>
			</output>
		</layer>
		<layer id="357" name="Convert_2883083" type="Convert" version="opset1">
			<data destination_type="f32" />
			<input>
				<port id="0" precision="I8">
					<dim>128</dim>
					<dim>128</dim>
					<dim>3</dim>
					<dim>3</dim>
				</port>
			</input>
			<output>
				<port id="1" precision="FP32">
					<dim>128</dim>
					<dim>128</dim>
					<dim>3</dim>
					<dim>3</dim>
				</port>
			</output>
		</layer>
		<layer id="358" name="Constant_2883084" type="Const" version="opset1">
			<data element_type="f32" shape="128, 1, 1, 1" offset="4115520" size="512" />
			<output>
				<port id="0" precision="FP32">
					<dim>128</dim>
					<dim>1</dim>
					<dim>1</dim>
					<dim>1</dim>
				</port>
			</output>
		</layer>
		<layer id="359" name="/model.6/m.0/m/m.0/cv1/conv/Conv/WithoutBiases/fq_weights_1" type="Multiply" version="opset1">
			<data auto_broadcast="numpy" />
			<input>
				<port id="0" precision="FP32">
					<dim>128</dim>
					<dim>128</dim>
					<dim>3</dim>
					<dim>3</dim>
				</port>
				<port id="1" precision="FP32">
					<dim>128</dim>
					<dim>1</dim>
					<dim>1</dim>
					<dim>1</dim>
				</port>
			</input>
			<output>
				<port id="2" precision="FP32">
					<dim>128</dim>
					<dim>128</dim>
					<dim>3</dim>
					<dim>3</dim>
				</port>
			</output>
		</layer>
		<layer id="360" name="/model.6/m.0/m/m.0/cv1/conv/Conv/WithoutBiases" type="Convolution" version="opset1">
			<data strides="1, 1" dilations="1, 1" pads_begin="1, 1" pads_end="1, 1" auto_pad="explicit" />
			<input>
				<port id="0" precision="FP32">
					<dim>1</dim>
					<dim>128</dim>
					<dim>40</dim>
					<dim>40</dim>
				</port>
				<port id="1" precision="FP32">
					<dim>128</dim>
					<dim>128</dim>
					<dim>3</dim>
					<dim>3</dim>
				</port>
			</input>
			<output>
				<port id="2" precision="FP32">
					<dim>1</dim>
					<dim>128</dim>
					<dim>40</dim>
					<dim>40</dim>
				</port>
			</output>
		</layer>
		<layer id="361" name="Reshape_1364815" type="Const" version="opset1">
			<data element_type="f32" shape="1, 128, 1, 1" offset="4116032" size="512" />
			<output>
				<port id="0" precision="FP32">
					<dim>1</dim>
					<dim>128</dim>
					<dim>1</dim>
					<dim>1</dim>
				</port>
			</output>
		</layer>
		<layer id="362" name="/model.6/m.0/m/m.0/cv1/conv/Conv" type="Add" version="opset1">
			<data auto_broadcast="numpy" />
			<input>
				<port id="0" precision="FP32">
					<dim>1</dim>
					<dim>128</dim>
					<dim>40</dim>
					<dim>40</dim>
				</port>
				<port id="1" precision="FP32">
					<dim>1</dim>
					<dim>128</dim>
					<dim>1</dim>
					<dim>1</dim>
				</port>
			</input>
			<output>
				<port id="2" precision="FP32" names="/model.6/m.0/m/m.0/cv1/conv/Conv_output_0">
					<dim>1</dim>
					<dim>128</dim>
					<dim>40</dim>
					<dim>40</dim>
				</port>
			</output>
		</layer>
		<layer id="363" name="/model.6/m.0/m/m.0/cv1/act/Mul" type="Swish" version="opset4">
			<input>
				<port id="0" precision="FP32">
					<dim>1</dim>
					<dim>128</dim>
					<dim>40</dim>
					<dim>40</dim>
				</port>
			</input>
			<output>
				<port id="1" precision="FP32" names="/model.6/m.0/m/m.0/cv1/act/Mul_output_0">
					<dim>1</dim>
					<dim>128</dim>
					<dim>40</dim>
					<dim>40</dim>
				</port>
			</output>
		</layer>
		<layer id="364" name="/model.6/m.0/m/m.0/cv1/act/Mul/fq_output_0/input_low" type="Const" version="opset1">
			<data element_type="f32" shape="" offset="4116544" size="4" />
			<output>
				<port id="0" precision="FP32" />
			</output>
		</layer>
		<layer id="365" name="/model.6/m.0/m/m.0/cv1/act/Mul/fq_output_0/input_high" type="Const" version="opset1">
			<data element_type="f32" shape="" offset="4116548" size="4" />
			<output>
				<port id="0" precision="FP32" />
			</output>
		</layer>
		<layer id="366" name="/model.6/m.0/m/m.0/cv1/act/Mul/fq_output_0/output_low" type="Const" version="opset1">
			<data element_type="f32" shape="" offset="4116544" size="4" />
			<output>
				<port id="0" precision="FP32" />
			</output>
		</layer>
		<layer id="367" name="/model.6/m.0/m/m.0/cv1/act/Mul/fq_output_0/output_high" type="Const" version="opset1">
			<data element_type="f32" shape="" offset="4116548" size="4" />
			<output>
				<port id="0" precision="FP32" />
			</output>
		</layer>
		<layer id="368" name="/model.6/m.0/m/m.0/cv1/act/Mul/fq_output_0" type="FakeQuantize" version="opset1">
			<data levels="256" auto_broadcast="numpy" />
			<input>
				<port id="0" precision="FP32">
					<dim>1</dim>
					<dim>128</dim>
					<dim>40</dim>
					<dim>40</dim>
				</port>
				<port id="1" precision="FP32" />
				<port id="2" precision="FP32" />
				<port id="3" precision="FP32" />
				<port id="4" precision="FP32" />
			</input>
			<output>
				<port id="5" precision="FP32">
					<dim>1</dim>
					<dim>128</dim>
					<dim>40</dim>
					<dim>40</dim>
				</port>
			</output>
		</layer>
		<layer id="369" name="Constant_2883086" type="Const" version="opset1">
			<data element_type="i8" shape="128, 128, 3, 3" offset="4116552" size="147456" />
			<output>
				<port id="0" precision="I8">
					<dim>128</dim>
					<dim>128</dim>
					<dim>3</dim>
					<dim>3</dim>
				</port>
			</output>
		</layer>
		<layer id="370" name="Convert_2883087" type="Convert" version="opset1">
			<data destination_type="f32" />
			<input>
				<port id="0" precision="I8">
					<dim>128</dim>
					<dim>128</dim>
					<dim>3</dim>
					<dim>3</dim>
				</port>
			</input>
			<output>
				<port id="1" precision="FP32">
					<dim>128</dim>
					<dim>128</dim>
					<dim>3</dim>
					<dim>3</dim>
				</port>
			</output>
		</layer>
		<layer id="371" name="Constant_2883088" type="Const" version="opset1">
			<data element_type="f32" shape="128, 1, 1, 1" offset="4264008" size="512" />
			<output>
				<port id="0" precision="FP32">
					<dim>128</dim>
					<dim>1</dim>
					<dim>1</dim>
					<dim>1</dim>
				</port>
			</output>
		</layer>
		<layer id="372" name="/model.6/m.0/m/m.0/cv2/conv/Conv/WithoutBiases/fq_weights_1" type="Multiply" version="opset1">
			<data auto_broadcast="numpy" />
			<input>
				<port id="0" precision="FP32">
					<dim>128</dim>
					<dim>128</dim>
					<dim>3</dim>
					<dim>3</dim>
				</port>
				<port id="1" precision="FP32">
					<dim>128</dim>
					<dim>1</dim>
					<dim>1</dim>
					<dim>1</dim>
				</port>
			</input>
			<output>
				<port id="2" precision="FP32">
					<dim>128</dim>
					<dim>128</dim>
					<dim>3</dim>
					<dim>3</dim>
				</port>
			</output>
		</layer>
		<layer id="373" name="/model.6/m.0/m/m.0/cv2/conv/Conv/WithoutBiases" type="Convolution" version="opset1">
			<data strides="1, 1" dilations="1, 1" pads_begin="1, 1" pads_end="1, 1" auto_pad="explicit" />
			<input>
				<port id="0" precision="FP32">
					<dim>1</dim>
					<dim>128</dim>
					<dim>40</dim>
					<dim>40</dim>
				</port>
				<port id="1" precision="FP32">
					<dim>128</dim>
					<dim>128</dim>
					<dim>3</dim>
					<dim>3</dim>
				</port>
			</input>
			<output>
				<port id="2" precision="FP32">
					<dim>1</dim>
					<dim>128</dim>
					<dim>40</dim>
					<dim>40</dim>
				</port>
			</output>
		</layer>
		<layer id="374" name="Reshape_1364830" type="Const" version="opset1">
			<data element_type="f32" shape="1, 128, 1, 1" offset="4264520" size="512" />
			<output>
				<port id="0" precision="FP32">
					<dim>1</dim>
					<dim>128</dim>
					<dim>1</dim>
					<dim>1</dim>
				</port>
			</output>
		</layer>
		<layer id="375" name="/model.6/m.0/m/m.0/cv2/conv/Conv" type="Add" version="opset1">
			<data auto_broadcast="numpy" />
			<input>
				<port id="0" precision="FP32">
					<dim>1</dim>
					<dim>128</dim>
					<dim>40</dim>
					<dim>40</dim>
				</port>
				<port id="1" precision="FP32">
					<dim>1</dim>
					<dim>128</dim>
					<dim>1</dim>
					<dim>1</dim>
				</port>
			</input>
			<output>
				<port id="2" precision="FP32" names="/model.6/m.0/m/m.0/cv2/conv/Conv_output_0">
					<dim>1</dim>
					<dim>128</dim>
					<dim>40</dim>
					<dim>40</dim>
				</port>
			</output>
		</layer>
		<layer id="376" name="/model.6/m.0/m/m.0/cv2/act/Mul" type="Swish" version="opset4">
			<input>
				<port id="0" precision="FP32">
					<dim>1</dim>
					<dim>128</dim>
					<dim>40</dim>
					<dim>40</dim>
				</port>
			</input>
			<output>
				<port id="1" precision="FP32" names="/model.6/m.0/m/m.0/cv2/act/Mul_output_0">
					<dim>1</dim>
					<dim>128</dim>
					<dim>40</dim>
					<dim>40</dim>
				</port>
			</output>
		</layer>
		<layer id="377" name="/model.6/m.0/m/m.0/cv2/act/Mul/fq_output_0/input_low" type="Const" version="opset1">
			<data element_type="f32" shape="" offset="4265032" size="4" />
			<output>
				<port id="0" precision="FP32" />
			</output>
		</layer>
		<layer id="378" name="/model.6/m.0/m/m.0/cv2/act/Mul/fq_output_0/input_high" type="Const" version="opset1">
			<data element_type="f32" shape="" offset="4265036" size="4" />
			<output>
				<port id="0" precision="FP32" />
			</output>
		</layer>
		<layer id="379" name="/model.6/m.0/m/m.0/cv2/act/Mul/fq_output_0/output_low" type="Const" version="opset1">
			<data element_type="f32" shape="" offset="4265032" size="4" />
			<output>
				<port id="0" precision="FP32" />
			</output>
		</layer>
		<layer id="380" name="/model.6/m.0/m/m.0/cv2/act/Mul/fq_output_0/output_high" type="Const" version="opset1">
			<data element_type="f32" shape="" offset="4265036" size="4" />
			<output>
				<port id="0" precision="FP32" />
			</output>
		</layer>
		<layer id="381" name="/model.6/m.0/m/m.0/cv2/act/Mul/fq_output_0" type="FakeQuantize" version="opset1">
			<data levels="256" auto_broadcast="numpy" />
			<input>
				<port id="0" precision="FP32">
					<dim>1</dim>
					<dim>128</dim>
					<dim>40</dim>
					<dim>40</dim>
				</port>
				<port id="1" precision="FP32" />
				<port id="2" precision="FP32" />
				<port id="3" precision="FP32" />
				<port id="4" precision="FP32" />
			</input>
			<output>
				<port id="5" precision="FP32">
					<dim>1</dim>
					<dim>128</dim>
					<dim>40</dim>
					<dim>40</dim>
				</port>
			</output>
		</layer>
		<layer id="382" name="/model.6/m.0/m/m.0/Add" type="Add" version="opset1">
			<data auto_broadcast="numpy" />
			<input>
				<port id="0" precision="FP32">
					<dim>1</dim>
					<dim>128</dim>
…
		<edge from-layer="1066" from-port="5" to-layer="1071" to-port="0" />
		<edge from-layer="1067" from-port="0" to-layer="1068" to-port="0" />
		<edge from-layer="1068" from-port="1" to-layer="1070" to-port="0" />
		<edge from-layer="1069" from-port="0" to-layer="1070" to-port="1" />
		<edge from-layer="1070" from-port="2" to-layer="1071" to-port="1" />
		<edge from-layer="1071" from-port="2" to-layer="1073" to-port="0" />
		<edge from-layer="1072" from-port="0" to-layer="1073" to-port="1" />
		<edge from-layer="1073" from-port="2" to-layer="1074" to-port="0" />
		<edge from-layer="1074" from-port="1" to-layer="1079" to-port="0" />
		<edge from-layer="1075" from-port="0" to-layer="1079" to-port="1" />
		<edge from-layer="1076" from-port="0" to-layer="1079" to-port="2" />
		<edge from-layer="1077" from-port="0" to-layer="1079" to-port="3" />
		<edge from-layer="1078" from-port="0" to-layer="1079" to-port="4" />
		<edge from-layer="1079" from-port="5" to-layer="1084" to-port="0" />
		<edge from-layer="1080" from-port="0" to-layer="1081" to-port="0" />
		<edge from-layer="1081" from-port="1" to-layer="1083" to-port="0" />
		<edge from-layer="1082" from-port="0" to-layer="1083" to-port="1" />
		<edge from-layer="1083" from-port="2" to-layer="1084" to-port="1" />
		<edge from-layer="1084" from-port="2" to-layer="1086" to-port="0" />
		<edge from-layer="1085" from-port="0" to-layer="1086" to-port="1" />
		<edge from-layer="1086" from-port="2" to-layer="1088" to-port="0" />
		<edge from-layer="1087" from-port="0" to-layer="1088" to-port="1" />
		<edge from-layer="1087" from-port="0" to-layer="1269" to-port="1" />
		<edge from-layer="1087" from-port="0" to-layer="1477" to-port="1" />
		<edge from-layer="1088" from-port="2" to-layer="1478" to-port="0" />
		<edge from-layer="1089" from-port="0" to-layer="1090" to-port="0" />
		<edge from-layer="1090" from-port="1" to-layer="1092" to-port="0" />
		<edge from-layer="1091" from-port="0" to-layer="1092" to-port="1" />
		<edge from-layer="1092" from-port="2" to-layer="1093" to-port="1" />
		<edge from-layer="1093" from-port="2" to-layer="1095" to-port="0" />
		<edge from-layer="1094" from-port="0" to-layer="1095" to-port="1" />
		<edge from-layer="1095" from-port="2" to-layer="1096" to-port="0" />
		<edge from-layer="1096" from-port="1" to-layer="1101" to-port="0" />
		<edge from-layer="1097" from-port="0" to-layer="1101" to-port="1" />
		<edge from-layer="1098" from-port="0" to-layer="1101" to-port="2" />
		<edge from-layer="1099" from-port="0" to-layer="1101" to-port="3" />
		<edge from-layer="1100" from-port="0" to-layer="1101" to-port="4" />
		<edge from-layer="1101" from-port="5" to-layer="1102" to-port="0" />
		<edge from-layer="1102" from-port="2" to-layer="1107" to-port="0" />
		<edge from-layer="1103" from-port="0" to-layer="1104" to-port="0" />
		<edge from-layer="1104" from-port="1" to-layer="1106" to-port="0" />
		<edge from-layer="1105" from-port="0" to-layer="1106" to-port="1" />
		<edge from-layer="1106" from-port="2" to-layer="1107" to-port="1" />
		<edge from-layer="1107" from-port="2" to-layer="1109" to-port="0" />
		<edge from-layer="1108" from-port="0" to-layer="1109" to-port="1" />
		<edge from-layer="1109" from-port="2" to-layer="1110" to-port="0" />
		<edge from-layer="1110" from-port="1" to-layer="1115" to-port="0" />
		<edge from-layer="1111" from-port="0" to-layer="1115" to-port="1" />
		<edge from-layer="1112" from-port="0" to-layer="1115" to-port="2" />
		<edge from-layer="1113" from-port="0" to-layer="1115" to-port="3" />
		<edge from-layer="1114" from-port="0" to-layer="1115" to-port="4" />
		<edge from-layer="1115" from-port="5" to-layer="1117" to-port="0" />
		<edge from-layer="1116" from-port="0" to-layer="1117" to-port="1" />
		<edge from-layer="1117" from-port="3" to-layer="1222" to-port="0" />
		<edge from-layer="1117" from-port="4" to-layer="1199" to-port="0" />
		<edge from-layer="1117" from-port="4" to-layer="1222" to-port="1" />
		<edge from-layer="1117" from-port="4" to-layer="1122" to-port="0" />
		<edge from-layer="1118" from-port="0" to-layer="1119" to-port="0" />
		<edge from-layer="1119" from-port="1" to-layer="1121" to-port="0" />
		<edge from-layer="1120" from-port="0" to-layer="1121" to-port="1" />
		<edge from-layer="1121" from-port="2" to-layer="1122" to-port="1" />
		<edge from-layer="1122" from-port="2" to-layer="1124" to-port="0" />
		<edge from-layer="1123" from-port="0" to-layer="1124" to-port="1" />
		<edge from-layer="1124" from-port="2" to-layer="1125" to-port="0" />
		<edge from-layer="1125" from-port="1" to-layer="1130" to-port="0" />
		<edge from-layer="1126" from-port="0" to-layer="1130" to-port="1" />
		<edge from-layer="1127" from-port="0" to-layer="1130" to-port="2" />
		<edge from-layer="1128" from-port="0" to-layer="1130" to-port="3" />
		<edge from-layer="1129" from-port="0" to-layer="1130" to-port="4" />
		<edge from-layer="1130" from-port="5" to-layer="1157" to-port="0" />
		<edge from-layer="1130" from-port="5" to-layer="1135" to-port="0" />
		<edge from-layer="1131" from-port="0" to-layer="1132" to-port="0" />
		<edge from-layer="1132" from-port="1" to-layer="1134" to-port="0" />
		<edge from-layer="1133" from-port="0" to-layer="1134" to-port="1" />
		<edge from-layer="1134" from-port="2" to-layer="1135" to-port="1" />
		<edge from-layer="1135" from-port="2" to-layer="1137" to-port="0" />
		<edge from-layer="1136" from-port="0" to-layer="1137" to-port="1" />
		<edge from-layer="1137" from-port="2" to-layer="1138" to-port="0" />
		<edge from-layer="1138" from-port="1" to-layer="1143" to-port="0" />
		<edge from-layer="1139" from-port="0" to-layer="1143" to-port="1" />
		<edge from-layer="1140" from-port="0" to-layer="1143" to-port="2" />
		<edge from-layer="1141" from-port="0" to-layer="1143" to-port="3" />
		<edge from-layer="1142" from-port="0" to-layer="1143" to-port="4" />
		<edge from-layer="1143" from-port="5" to-layer="1148" to-port="0" />
		<edge from-layer="1144" from-port="0" to-layer="1145" to-port="0" />
		<edge from-layer="1145" from-port="1" to-layer="1147" to-port="0" />
		<edge from-layer="1146" from-port="0" to-layer="1147" to-port="1" />
		<edge from-layer="1147" from-port="2" to-layer="1148" to-port="1" />
		<edge from-layer="1148" from-port="2" to-layer="1150" to-port="0" />
		<edge from-layer="1149" from-port="0" to-layer="1150" to-port="1" />
		<edge from-layer="1150" from-port="2" to-layer="1151" to-port="0" />
		<edge from-layer="1151" from-port="1" to-layer="1156" to-port="0" />
		<edge from-layer="1152" from-port="0" to-layer="1156" to-port="1" />
		<edge from-layer="1153" from-port="0" to-layer="1156" to-port="2" />
		<edge from-layer="1154" from-port="0" to-layer="1156" to-port="3" />
		<edge from-layer="1155" from-port="0" to-layer="1156" to-port="4" />
		<edge from-layer="1156" from-port="5" to-layer="1157" to-port="1" />
		<edge from-layer="1157" from-port="2" to-layer="1162" to-port="0" />
		<edge from-layer="1158" from-port="0" to-layer="1162" to-port="1" />
		<edge from-layer="1159" from-port="0" to-layer="1162" to-port="2" />
		<edge from-layer="1160" from-port="0" to-layer="1162" to-port="3" />
		<edge from-layer="1161" from-port="0" to-layer="1162" to-port="4" />
		<edge from-layer="1162" from-port="5" to-layer="1167" to-port="0" />
		<edge from-layer="1162" from-port="5" to-layer="1189" to-port="0" />
		<edge from-layer="1163" from-port="0" to-layer="1164" to-port="0" />
		<edge from-layer="1164" from-port="1" to-layer="1166" to-port="0" />
		<edge from-layer="1165" from-port="0" to-layer="1166" to-port="1" />
		<edge from-layer="1166" from-port="2" to-layer="1167" to-port="1" />
		<edge from-layer="1167" from-port="2" to-layer="1169" to-port="0" />
		<edge from-layer="1168" from-port="0" to-layer="1169" to-port="1" />
		<edge from-layer="1169" from-port="2" to-layer="1170" to-port="0" />
		<edge from-layer="1170" from-port="1" to-layer="1175" to-port="0" />
		<edge from-layer="1171" from-port="0" to-layer="1175" to-port="1" />
		<edge from-layer="1172" from-port="0" to-layer="1175" to-port="2" />
		<edge from-layer="1173" from-port="0" to-layer="1175" to-port="3" />
		<edge from-layer="1174" from-port="0" to-layer="1175" to-port="4" />
		<edge from-layer="1175" from-port="5" to-layer="1180" to-port="0" />
		<edge from-layer="1176" from-port="0" to-layer="1177" to-port="0" />
		<edge from-layer="1177" from-port="1" to-layer="1179" to-port="0" />
		<edge from-layer="1178" from-port="0" to-layer="1179" to-port="1" />
		<edge from-layer="1179" from-port="2" to-layer="1180" to-port="1" />
		<edge from-layer="1180" from-port="2" to-layer="1182" to-port="0" />
		<edge from-layer="1181" from-port="0" to-layer="1182" to-port="1" />
		<edge from-layer="1182" from-port="2" to-layer="1183" to-port="0" />
		<edge from-layer="1183" from-port="1" to-layer="1188" to-port="0" />
		<edge from-layer="1184" from-port="0" to-layer="1188" to-port="1" />
		<edge from-layer="1185" from-port="0" to-layer="1188" to-port="2" />
		<edge from-layer="1186" from-port="0" to-layer="1188" to-port="3" />
		<edge from-layer="1187" from-port="0" to-layer="1188" to-port="4" />
		<edge from-layer="1188" from-port="5" to-layer="1189" to-port="1" />
		<edge from-layer="1189" from-port="2" to-layer="1194" to-port="0" />
		<edge from-layer="1190" from-port="0" to-layer="1194" to-port="1" />
		<edge from-layer="1191" from-port="0" to-layer="1194" to-port="2" />
		<edge from-layer="1192" from-port="0" to-layer="1194" to-port="3" />
		<edge from-layer="1193" from-port="0" to-layer="1194" to-port="4" />
		<edge from-layer="1194" from-port="5" to-layer="1208" to-port="0" />
		<edge from-layer="1195" from-port="0" to-layer="1196" to-port="0" />
		<edge from-layer="1196" from-port="1" to-layer="1198" to-port="0" />
		<edge from-layer="1197" from-port="0" to-layer="1198" to-port="1" />
		<edge from-layer="1198" from-port="2" to-layer="1199" to-port="1" />
		<edge from-layer="1199" from-port="2" to-layer="1201" to-port="0" />
		<edge from-layer="1200" from-port="0" to-layer="1201" to-port="1" />
		<edge from-layer="1201" from-port="2" to-layer="1202" to-port="0" />
		<edge from-layer="1202" from-port="1" to-layer="1207" to-port="0" />
		<edge from-layer="1203" from-port="0" to-layer="1207" to-port="1" />
		<edge from-layer="1204" from-port="0" to-layer="1207" to-port="2" />
		<edge from-layer="1205" from-port="0" to-layer="1207" to-port="3" />
		<edge from-layer="1206" from-port="0" to-layer="1207" to-port="4" />
		<edge from-layer="1207" from-port="5" to-layer="1208" to-port="1" />
		<edge from-layer="1208" from-port="2" to-layer="1213" to-port="0" />
		<edge from-layer="1209" from-port="0" to-layer="1210" to-port="0" />
		<edge from-layer="1210" from-port="1" to-layer="1212" to-port="0" />
		<edge from-layer="1211" from-port="0" to-layer="1212" to-port="1" />
		<edge from-layer="1212" from-port="2" to-layer="1213" to-port="1" />
		<edge from-layer="1213" from-port="2" to-layer="1215" to-port="0" />
		<edge from-layer="1214" from-port="0" to-layer="1215" to-port="1" />
		<edge from-layer="1215" from-port="2" to-layer="1216" to-port="0" />
		<edge from-layer="1216" from-port="1" to-layer="1221" to-port="0" />
		<edge from-layer="1217" from-port="0" to-layer="1221" to-port="1" />
		<edge from-layer="1218" from-port="0" to-layer="1221" to-port="2" />
		<edge from-layer="1219" from-port="0" to-layer="1221" to-port="3" />
		<edge from-layer="1220" from-port="0" to-layer="1221" to-port="4" />
		<edge from-layer="1221" from-port="5" to-layer="1222" to-port="2" />
		<edge from-layer="1222" from-port="3" to-layer="1227" to-port="0" />
		<edge from-layer="1223" from-port="0" to-layer="1224" to-port="0" />
		<edge from-layer="1224" from-port="1" to-layer="1226" to-port="0" />
		<edge from-layer="1225" from-port="0" to-layer="1226" to-port="1" />
		<edge from-layer="1226" from-port="2" to-layer="1227" to-port="1" />
		<edge from-layer="1227" from-port="2" to-layer="1229" to-port="0" />
		<edge from-layer="1228" from-port="0" to-layer="1229" to-port="1" />
		<edge from-layer="1229" from-port="2" to-layer="1230" to-port="0" />
		<edge from-layer="1230" from-port="1" to-layer="1235" to-port="0" />
		<edge from-layer="1231" from-port="0" to-layer="1235" to-port="1" />
		<edge from-layer="1232" from-port="0" to-layer="1235" to-port="2" />
		<edge from-layer="1233" from-port="0" to-layer="1235" to-port="3" />
		<edge from-layer="1234" from-port="0" to-layer="1235" to-port="4" />
		<edge from-layer="1235" from-port="5" to-layer="1240" to-port="0" />
		<edge from-layer="1235" from-port="5" to-layer="1274" to-port="0" />
		<edge from-layer="1235" from-port="5" to-layer="1558" to-port="0" />
		<edge from-layer="1236" from-port="0" to-layer="1237" to-port="0" />
		<edge from-layer="1237" from-port="1" to-layer="1239" to-port="0" />
		<edge from-layer="1238" from-port="0" to-layer="1239" to-port="1" />
		<edge from-layer="1239" from-port="2" to-layer="1240" to-port="1" />
		<edge from-layer="1240" from-port="2" to-layer="1242" to-port="0" />
		<edge from-layer="1241" from-port="0" to-layer="1242" to-port="1" />
		<edge from-layer="1242" from-port="2" to-layer="1243" to-port="0" />
		<edge from-layer="1243" from-port="1" to-layer="1248" to-port="0" />
		<edge from-layer="1244" from-port="0" to-layer="1248" to-port="1" />
		<edge from-layer="1245" from-port="0" to-layer="1248" to-port="2" />
		<edge from-layer="1246" from-port="0" to-layer="1248" to-port="3" />
		<edge from-layer="1247" from-port="0" to-layer="1248" to-port="4" />
		<edge from-layer="1248" from-port="5" to-layer="1253" to-port="0" />
		<edge from-layer="1249" from-port="0" to-layer="1250" to-port="0" />
		<edge from-layer="1250" from-port="1" to-layer="1252" to-port="0" />
		<edge from-layer="1251" from-port="0" to-layer="1252" to-port="1" />
		<edge from-layer="1252" from-port="2" to-layer="1253" to-port="1" />
		<edge from-layer="1253" from-port="2" to-layer="1255" to-port="0" />
		<edge from-layer="1254" from-port="0" to-layer="1255" to-port="1" />
		<edge from-layer="1255" from-port="2" to-layer="1256" to-port="0" />
		<edge from-layer="1256" from-port="1" to-layer="1261" to-port="0" />
		<edge from-layer="1257" from-port="0" to-layer="1261" to-port="1" />
		<edge from-layer="1258" from-port="0" to-layer="1261" to-port="2" />
		<edge from-layer="1259" from-port="0" to-layer="1261" to-port="3" />
		<edge from-layer="1260" from-port="0" to-layer="1261" to-port="4" />
		<edge from-layer="1261" from-port="5" to-layer="1266" to-port="0" />
		<edge from-layer="1262" from-port="0" to-layer="1263" to-port="0" />
		<edge from-layer="1263" from-port="1" to-layer="1265" to-port="0" />
		<edge from-layer="1264" from-port="0" to-layer="1265" to-port="1" />
		<edge from-layer="1265" from-port="2" to-layer="1266" to-port="1" />
		<edge from-layer="1266" from-port="2" to-layer="1268" to-port="0" />
		<edge from-layer="1267" from-port="0" to-layer="1268" to-port="1" />
		<edge from-layer="1268" from-port="2" to-layer="1269" to-port="0" />
		<edge from-layer="1269" from-port="2" to-layer="1478" to-port="1" />
		<edge from-layer="1270" from-port="0" to-layer="1271" to-port="0" />
		<edge from-layer="1271" from-port="1" to-layer="1273" to-port="0" />
		<edge from-layer="1272" from-port="0" to-layer="1273" to-port="1" />
		<edge from-layer="1273" from-port="2" to-layer="1274" to-port="1" />
		<edge from-layer="1274" from-port="2" to-layer="1276" to-port="0" />
		<edge from-layer="1275" from-port="0" to-layer="1276" to-port="1" />
		<edge from-layer="1276" from-port="2" to-layer="1277" to-port="0" />
		<edge from-layer="1277" from-port="1" to-layer="1282" to-port="0" />
		<edge from-layer="1278" from-port="0" to-layer="1282" to-port="1" />
		<edge from-layer="1279" from-port="0" to-layer="1282" to-port="2" />
		<edge from-layer="1280" from-port="0" to-layer="1282" to-port="3" />
		<edge from-layer="1281" from-port="0" to-layer="1282" to-port="4" />
		<edge from-layer="1282" from-port="5" to-layer="1283" to-port="0" />
		<edge from-layer="1283" from-port="2" to-layer="1288" to-port="0" />
		<edge from-layer="1284" from-port="0" to-layer="1285" to-port="0" />
		<edge from-layer="1285" from-port="1" to-layer="1287" to-port="0" />
		<edge from-layer="1286" from-port="0" to-layer="1287" to-port="1" />
		<edge from-layer="1287" from-port="2" to-layer="1288" to-port="1" />
		<edge from-layer="1288" from-port="2" to-layer="1290" to-port="0" />
		<edge from-layer="1289" from-port="0" to-layer="1290" to-port="1" />
		<edge from-layer="1290" from-port="2" to-layer="1291" to-port="0" />
		<edge from-layer="1291" from-port="1" to-layer="1296" to-port="0" />
		<edge from-layer="1292" from-port="0" to-layer="1296" to-port="1" />
		<edge from-layer="1293" from-port="0" to-layer="1296" to-port="2" />
		<edge from-layer="1294" from-port="0" to-layer="1296" to-port="3" />
		<edge from-layer="1295" from-port="0" to-layer="1296" to-port="4" />
		<edge from-layer="1296" from-port="5" to-layer="1298" to-port="0" />
		<edge from-layer="1297" from-port="0" to-layer="1298" to-port="1" />
		<edge from-layer="1298" from-port="3" to-layer="1430" to-port="0" />
		<edge from-layer="1298" from-port="4" to-layer="1430" to-port="1" />
		<edge from-layer="1298" from-port="4" to-layer="1303" to-port="0" />
		<edge from-layer="1298" from-port="4" to-layer="1325" to-port="0" />
		<edge from-layer="1299" from-port="0" to-layer="1300" to-port="0" />
		<edge from-layer="1300" from-port="1" to-layer="1302" to-port="0" />
		<edge from-layer="1301" from-port="0" to-layer="1302" to-port="1" />
		<edge from-layer="1302" from-port="2" to-layer="1303" to-port="1" />
		<edge from-layer="1303" from-port="2" to-layer="1305" to-port="0" />
		<edge from-layer="1304" from-port="0" to-layer="1305" to-port="1" />
		<edge from-layer="1305" from-port="2" to-layer="1306" to-port="0" />
		<edge from-layer="1306" from-port="1" to-layer="1311" to-port="0" />
		<edge from-layer="1307" from-port="0" to-layer="1311" to-port="1" />
		<edge from-layer="1308" from-port="0" to-layer="1311" to-port="2" />
		<edge from-layer="1309" from-port="0" to-layer="1311" to-port="3" />
		<edge from-layer="1310" from-port="0" to-layer="1311" to-port="4" />
		<edge from-layer="1311" from-port="5" to-layer="1316" to-port="0" />
		<edge from-layer="1312" from-port="0" to-layer="1313" to-port="0" />
		<edge from-layer="1313" from-port="1" to-layer="1315" to-port="0" />
		<edge from-layer="1314" from-port="0" to-layer="1315" to-port="1" />
		<edge from-layer="1315" from-port="2" to-layer="1316" to-port="1" />
		<edge from-layer="1316" from-port="2" to-layer="1318" to-port="0" />
		<edge from-layer="1317" from-port="0" to-layer="1318" to-port="1" />
		<edge from-layer="1318" from-port="2" to-layer="1319" to-port="0" />
		<edge from-layer="1319" from-port="1" to-layer="1324" to-port="0" />
		<edge from-layer="1320" from-port="0" to-layer="1324" to-port="1" />
		<edge from-layer="1321" from-port="0" to-layer="1324" to-port="2" />
		<edge from-layer="1322" from-port="0" to-layer="1324" to-port="3" />
		<edge from-layer="1323" from-port="0" to-layer="1324" to-port="4" />
		<edge from-layer="1324" from-port="5" to-layer="1325" to-port="1" />
		<edge from-layer="1325" from-port="2" to-layer="1330" to-port="0" />
		<edge from-layer="1326" from-port="0" to-layer="1330" to-port="1" />
		<edge from-layer="1327" from-port="0" to-layer="1330" to-port="2" />
		<edge from-layer="1328" from-port="0" to-layer="1330" to-port="3" />
		<edge from-layer="1329" from-port="0" to-layer="1330" to-port="4" />
		<edge from-layer="1330" from-port="5" to-layer="1335" to-port="0" />
		<edge from-layer="1330" from-port="5" to-layer="1393" to-port="0" />
		<edge from-layer="1331" from-port="0" to-layer="1332" to-port="0" />
		<edge from-layer="1332" from-port="1" to-layer="1334" to-port="0" />
		<edge from-layer="1333" from-port="0" to-layer="1334" to-port="1" />
		<edge from-layer="1334" from-port="2" to-layer="1335" to-port="1" />
		<edge from-layer="1335" from-port="2" to-layer="1337" to-port="0" />
		<edge from-layer="1336" from-port="0" to-layer="1337" to-port="1" />
		<edge from-layer="1337" from-port="2" to-layer="1342" to-port="0" />
		<edge from-layer="1338" from-port="0" to-layer="1342" to-port="1" />
		<edge from-layer="1339" from-port="0" to-layer="1342" to-port="2" />
		<edge from-layer="1340" from-port="0" to-layer="1342" to-port="3" />
		<edge from-layer="1341" from-port="0" to-layer="1342" to-port="4" />
		<edge from-layer="1342" from-port="5" to-layer="1343" to-port="0" />
		<edge from-layer="1343" from-port="2" to-layer="1345" to-port="0" />
		<edge from-layer="1344" from-port="0" to-layer="1345" to-port="1" />
		<edge from-layer="1345" from-port="3" to-layer="1346" to-port="0" />
		<edge from-layer="1345" from-port="4" to-layer="1346" to-port="1" />
		<edge from-layer="1345" from-port="5" to-layer="1362" to-port="0" />
		<edge from-layer="1345" from-port="5" to-layer="1355" to-port="0" />
		<edge from-layer="1346" from-port="2" to-layer="1348" to-port="0" />
		<edge from-layer="1347" from-port="0" to-layer="1348" to-port="1" />
		<edge from-layer="1348" from-port="2" to-layer="1349" to-port="0" />
		<edge from-layer="1349" from-port="1" to-layer="1354" to-port="0" />
		<edge from-layer="1350" from-port="0" to-layer="1354" to-port="1" />
		<edge from-layer="1351" from-port="0" to-layer="1354" to-port="2" />
		<edge from-layer="1352" from-port="0" to-layer="1354" to-port="3" />
		<edge from-layer="1353" from-port="0" to-layer="1354" to-port="4" />
		<edge from-layer="1354" from-port="5" to-layer="1355" to-port="1" />
		<edge from-layer="1355" from-port="2" to-layer="1360" to-port="0" />
		<edge from-layer="1356" from-port="0" to-layer="1360" to-port="1" />
		<edge from-layer="1357" from-port="0" to-layer="1360" to-port="2" />
		<edge from-layer="1358" from-port="0" to-layer="1360" to-port="3" />
		<edge from-layer="1359" from-port="0" to-layer="1360" to-port="4" />
		<edge from-layer="1360" from-port="5" to-layer="1361" to-port="0" />
		<edge from-layer="1361" from-port="2" to-layer="1375" to-port="0" />
		<edge from-layer="1362" from-port="2" to-layer="1367" to-port="0" />
		<edge from-layer="1363" from-port="0" to-layer="1364" to-port="0" />
		<edge from-layer="1364" from-port="1" to-layer="1366" to-port="0" />
		<edge from-layer="1365" from-port="0" to-layer="1366" to-port="1" />
		<edge from-layer="1366" from-port="2" to-layer="1367" to-port="1" />
		<edge from-layer="1367" from-port="2" to-layer="1369" to-port="0" />
		<edge from-layer="1368" from-port="0" to-layer="1369" to-port="1" />
		<edge from-layer="1369" from-port="2" to-layer="1374" to-port="0" />
		<edge from-layer="1370" from-port="0" to-layer="1374" to-port="1" />
		<edge from-layer="1371" from-port="0" to-layer="1374" to-port="2" />
		<edge from-layer="1372" from-port="0" to-layer="1374" to-port="3" />
		<edge from-layer="1373" from-port="0" to-layer="1374" to-port="4" />
		<edge from-layer="1374" from-port="5" to-layer="1375" to-port="1" />
		<edge from-layer="1375" from-port="2" to-layer="1380" to-port="0" />
		<edge from-layer="1376" from-port="0" to-layer="1380" to-port="1" />
		<edge from-layer="1377" from-port="0" to-layer="1380" to-port="2" />
		<edge from-layer="1378" from-port="0" to-layer="1380" to-port="3" />
		<edge from-layer="1379" from-port="0" to-layer="1380" to-port="4" />
		<edge from-layer="1380" from-port="5" to-layer="1385" to-port="0" />
		<edge from-layer="1381" from-port="0" to-layer="1382" to-port="0" />
		<edge from-layer="1382" from-port="1" to-layer="1384" to-port="0" />
		<edge from-layer="1383" from-port="0" to-layer="1384" to-port="1" />
		<edge from-layer="1384" from-port="2" to-layer="1385" to-port="1" />
		<edge from-layer="1385" from-port="2" to-layer="1387" to-port="0" />
		<edge from-layer="1386" from-port="0" to-layer="1387" to-port="1" />
		<edge from-layer="1387" from-port="2" to-layer="1392" to-port="0" />
		<edge from-layer="1388" from-port="0" to-layer="1392" to-port="1" />
		<edge from-layer="1389" from-port="0" to-layer="1392" to-port="2" />
		<edge from-layer="1390" from-port="0" to-layer="1392" to-port="3" />
		<edge from-layer="1391" from-port="0" to-layer="1392" to-port="4" />
		<edge from-layer="1392" from-port="5" to-layer="1393" to-port="1" />
		<edge from-layer="1393" from-port="2" to-layer="1398" to-port="0" />
		<edge from-layer="1394" from-port="0" to-layer="1398" to-port="1" />
		<edge from-layer="1395" from-port="0" to-layer="1398" to-port="2" />
		<edge from-layer="1396" from-port="0" to-layer="1398" to-port="3" />
		<edge from-layer="1397" from-port="0" to-layer="1398" to-port="4" />
		<edge from-layer="1398" from-port="5" to-layer="1424" to-port="0" />
		<edge from-layer="1398" from-port="5" to-layer="1403" to-port="0" />
		<edge from-layer="1399" from-port="0" to-layer="1400" to-port="0" />
		<edge from-layer="1400" from-port="1" to-layer="1402" to-port="0" />
		<edge from-layer="1401" from-port="0" to-layer="1402" to-port="1" />
		<edge from-layer="1402" from-port="2" to-layer="1403" to-port="1" />
		<edge from-layer="1403" from-port="2" to-layer="1405" to-port="0" />
		<edge from-layer="1404" from-port="0" to-layer="1405" to-port="1" />
		<edge from-layer="1405" from-port="2" to-layer="1406" to-port="0" />
		<edge from-layer="1406" from-port="1" to-layer="1411" to-port="0" />
		<edge from-layer="1407" from-port="0" to-layer="1411" to-port="1" />
		<edge from-layer="1408" from-port="0" to-layer="1411" to-port="2" />
		<edge from-layer="1409" from-port="0" to-layer="1411" to-port="3" />
		<edge from-layer="1410" from-port="0" to-layer="1411" to-port="4" />
		<edge from-layer="1411" from-port="5" to-layer="1416" to-port="0" />
		<edge from-layer="1412" from-port="0" to-layer="1413" to-port="0" />
		<edge from-layer="1413" from-port="1" to-layer="1415" to-port="0" />
		<edge from-layer="1414" from-port="0" to-layer="1415" to-port="1" />
		<edge from-layer="1415" from-port="2" to-layer="1416" to-port="1" />
		<edge from-layer="1416" from-port="2" to-layer="1418" to-port="0" />
		<edge from-layer="1417" from-port="0" to-layer="1418" to-port="1" />
		<edge from-layer="1418" from-port="2" to-layer="1423" to-port="0" />
		<edge from-layer="1419" from-port="0" to-layer="1423" to-port="1" />
		<edge from-layer="1420" from-port="0" to-layer="1423" to-port="2" />
		<edge from-layer="1421" from-port="0" to-layer="1423" to-port="3" />
		<edge from-layer="1422" from-port="0" to-layer="1423" to-port="4" />
		<edge from-layer="1423" from-port="5" to-layer="1424" to-port="1" />
		<edge from-layer="1424" from-port="2" to-layer="1429" to-port="0" />
		<edge from-layer="1425" from-port="0" to-layer="1429" to-port="1" />
		<edge from-layer="1426" from-port="0" to-layer="1429" to-port="2" />
		<edge from-layer="1427" from-port="0" to-layer="1429" to-port="3" />
		<edge from-layer="1428" from-port="0" to-layer="1429" to-port="4" />
		<edge from-layer="1429" from-port="5" to-layer="1430" to-port="2" />
		<edge from-layer="1430" from-port="3" to-layer="1435" to-port="0" />
		<edge from-layer="1431" from-port="0" to-layer="1432" to-port="0" />
		<edge from-layer="1432" from-port="1" to-layer="1434" to-port="0" />
		<edge from-layer="1433" from-port="0" to-layer="1434" to-port="1" />
		<edge from-layer="1434" from-port="2" to-layer="1435" to-port="1" />
		<edge from-layer="1435" from-port="2" to-layer="1437" to-port="0" />
		<edge from-layer="1436" from-port="0" to-layer="1437" to-port="1" />
		<edge from-layer="1437" from-port="2" to-layer="1438" to-port="0" />
		<edge from-layer="1438" from-port="1" to-layer="1443" to-port="0" />
		<edge from-layer="1439" from-port="0" to-layer="1443" to-port="1" />
		<edge from-layer="1440" from-port="0" to-layer="1443" to-port="2" />
		<edge from-layer="1441" from-port="0" to-layer="1443" to-port="3" />
		<edge from-layer="1442" from-port="0" to-layer="1443" to-port="4" />
		<edge from-layer="1443" from-port="5" to-layer="1448" to-port="0" />
		<edge from-layer="1443" from-port="5" to-layer="1618" to-port="0" />
		<edge from-layer="1444" from-port="0" to-layer="1445" to-port="0" />
		<edge from-layer="1445" from-port="1" to-layer="1447" to-port="0" />
		<edge from-layer="1446" from-port="0" to-layer="1447" to-port="1" />
		<edge from-layer="1447" from-port="2" to-layer="1448" to-port="1" />
		<edge from-layer="1448" from-port="2" to-layer="1450" to-port="0" />
		<edge from-layer="1449" from-port="0" to-layer="1450" to-port="1" />
		<edge from-layer="1450" from-port="2" to-layer="1451" to-port="0" />
		<edge from-layer="1451" from-port="1" to-layer="1456" to-port="0" />
		<edge from-layer="1452" from-port="0" to-layer="1456" to-port="1" />
		<edge from-layer="1453" from-port="0" to-layer="1456" to-port="2" />
		<edge from-layer="1454" from-port="0" to-layer="1456" to-port="3" />
		<edge from-layer="1455" from-port="0" to-layer="1456" to-port="4" />
		<edge from-layer="1456" from-port="5" to-layer="1461" to-port="0" />
		<edge from-layer="1457" from-port="0" to-layer="1458" to-port="0" />
		<edge from-layer="1458" from-port="1" to-layer="1460" to-port="0" />
		<edge from-layer="1459" from-port="0" to-layer="1460" to-port="1" />
		<edge from-layer="1460" from-port="2" to-layer="1461" to-port="1" />
		<edge from-layer="1461" from-port="2" to-layer="1463" to-port="0" />
		<edge from-layer="1462" from-port="0" to-layer="1463" to-port="1" />
		<edge from-layer="1463" from-port="2" to-layer="1464" to-port="0" />
		<edge from-layer="1464" from-port="1" to-layer="1469" to-port="0" />
		<edge from-layer="1465" from-port="0" to-layer="1469" to-port="1" />
		<edge from-layer="1466" from-port="0" to-layer="1469" to-port="2" />
		<edge from-layer="1467" from-port="0" to-layer="1469" to-port="3" />
		<edge from-layer="1468" from-port="0" to-layer="1469" to-port="4" />
		<edge from-layer="1469" from-port="5" to-layer="1474" to-port="0" />
		<edge from-layer="1470" from-port="0" to-layer="1471" to-port="0" />
		<edge from-layer="1471" from-port="1" to-layer="1473" to-port="0" />
		<edge from-layer="1472" from-port="0" to-layer="1473" to-port="1" />
		<edge from-layer="1473" from-port="2" to-layer="1474" to-port="1" />
		<edge from-layer="1474" from-port="2" to-layer="1476" to-port="0" />
		<edge from-layer="1475" from-port="0" to-layer="1476" to-port="1" />
		<edge from-layer="1476" from-port="2" to-layer="1477" to-port="0" />
		<edge from-layer="1477" from-port="2" to-layer="1478" to-port="2" />
		<edge from-layer="1478" from-port="3" to-layer="1483" to-port="0" />
		<edge from-layer="1478" from-port="3" to-layer="1488" to-port="0" />
		<edge from-layer="1479" from-port="0" to-layer="1483" to-port="1" />
		<edge from-layer="1480" from-port="0" to-layer="1483" to-port="2" />
		<edge from-layer="1480" from-port="0" to-layer="1488" to-port="1" />
		<edge from-layer="1480" from-port="0" to-layer="1706" to-port="1" />
		<edge from-layer="1480" from-port="0" to-layer="1703" to-port="1" />
		<edge from-layer="1481" from-port="0" to-layer="1483" to-port="3" />
		<edge from-layer="1482" from-port="0" to-layer="1483" to-port="4" />
		<edge from-layer="1482" from-port="0" to-layer="1488" to-port="4" />
		<edge from-layer="1483" from-port="5" to-layer="1484" to-port="1" />
		<edge from-layer="1484" from-port="2" to-layer="1490" to-port="0" />
		<edge from-layer="1485" from-port="0" to-layer="1489" to-port="0" />
		<edge from-layer="1486" from-port="0" to-layer="1488" to-port="2" />
		<edge from-layer="1487" from-port="0" to-layer="1488" to-port="3" />
		<edge from-layer="1488" from-port="5" to-layer="1489" to-port="1" />
		<edge from-layer="1489" from-port="2" to-layer="1490" to-port="1" />
		<edge from-layer="1490" from-port="2" to-layer="1492" to-port="0" />
		<edge from-layer="1491" from-port="0" to-layer="1492" to-port="1" />
		<edge from-layer="1492" from-port="2" to-layer="1676" to-port="0" />
		<edge from-layer="1493" from-port="0" to-layer="1494" to-port="0" />
		<edge from-layer="1494" from-port="1" to-layer="1496" to-port="0" />
		<edge from-layer="1495" from-port="0" to-layer="1496" to-port="1" />
		<edge from-layer="1496" from-port="2" to-layer="1497" to-port="1" />
		<edge from-layer="1497" from-port="2" to-layer="1499" to-port="0" />
		<edge from-layer="1498" from-port="0" to-layer="1499" to-port="1" />
		<edge from-layer="1499" from-port="2" to-layer="1500" to-port="0" />
		<edge from-layer="1500" from-port="1" to-layer="1505" to-port="0" />
		<edge from-layer="1501" from-port="0" to-layer="1505" to-port="1" />
		<edge from-layer="1502" from-port="0" to-layer="1505" to-port="2" />
		<edge from-layer="1503" from-port="0" to-layer="1505" to-port="3" />
		<edge from-layer="1504" from-port="0" to-layer="1505" to-port="4" />
		<edge from-layer="1505" from-port="5" to-layer="1510" to-port="0" />
		<edge from-layer="1506" from-port="0" to-layer="1507" to-port="0" />
		<edge from-layer="1507" from-port="1" to-layer="1509" to-port="0" />
		<edge from-layer="1508" from-port="0" to-layer="1509" to-port="1" />
		<edge from-layer="1509" from-port="2" to-layer="1510" to-port="1" />
		<edge from-layer="1510" from-port="2" to-layer="1512" to-port="0" />
		<edge from-layer="1511" from-port="0" to-layer="1512" to-port="1" />
		<edge from-layer="1512" from-port="2" to-layer="1513" to-port="0" />
		<edge from-layer="1513" from-port="1" to-layer="1518" to-port="0" />
		<edge from-layer="1514" from-port="0" to-layer="1518" to-port="1" />
		<edge from-layer="1515" from-port="0" to-layer="1518" to-port="2" />
		<edge from-layer="1516" from-port="0" to-layer="1518" to-port="3" />
		<edge from-layer="1517" from-port="0" to-layer="1518" to-port="4" />
		<edge from-layer="1518" from-port="5" to-layer="1523" to-port="0" />
		<edge from-layer="1519" from-port="0" to-layer="1520" to-port="0" />
		<edge from-layer="1520" from-port="1" to-layer="1522" to-port="0" />
		<edge from-layer="1521" from-port="0" to-layer="1522" to-port="1" />
		<edge from-layer="1522" from-port="2" to-layer="1523" to-port="1" />
		<edge from-layer="1523" from-port="2" to-layer="1525" to-port="0" />
		<edge from-layer="1524" from-port="0" to-layer="1525" to-port="1" />
		<edge from-layer="1525" from-port="2" to-layer="1526" to-port="0" />
		<edge from-layer="1526" from-port="1" to-layer="1531" to-port="0" />
		<edge from-layer="1527" from-port="0" to-layer="1531" to-port="1" />
		<edge from-layer="1528" from-port="0" to-layer="1531" to-port="2" />
		<edge from-layer="1529" from-port="0" to-layer="1531" to-port="3" />
		<edge from-layer="1530" from-port="0" to-layer="1531" to-port="4" />
		<edge from-layer="1531" from-port="5" to-layer="1536" to-port="0" />
		<edge from-layer="1532" from-port="0" to-layer="1533" to-port="0" />
		<edge from-layer="1533" from-port="1" to-layer="1535" to-port="0" />
		<edge from-layer="1534" from-port="0" to-layer="1535" to-port="1" />
		<edge from-layer="1535" from-port="2" to-layer="1536" to-port="1" />
		<edge from-layer="1536" from-port="2" to-layer="1538" to-port="0" />
		<edge from-layer="1537" from-port="0" to-layer="1538" to-port="1" />
		<edge from-layer="1538" from-port="2" to-layer="1539" to-port="0" />
		<edge from-layer="1539" from-port="1" to-layer="1544" to-port="0" />
		<edge from-layer="1540" from-port="0" to-layer="1544" to-port="1" />
		<edge from-layer="1541" from-port="0" to-layer="1544" to-port="2" />
		<edge from-layer="1542" from-port="0" to-layer="1544" to-port="3" />
		<edge from-layer="1543" from-port="0" to-layer="1544" to-port="4" />
		<edge from-layer="1544" from-port="5" to-layer="1549" to-port="0" />
		<edge from-layer="1545" from-port="0" to-layer="1546" to-port="0" />
		<edge from-layer="1546" from-port="1" to-layer="1548" to-port="0" />
		<edge from-layer="1547" from-port="0" to-layer="1548" to-port="1" />
		<edge from-layer="1548" from-port="2" to-layer="1549" to-port="1" />
		<edge from-layer="1549" from-port="2" to-layer="1551" to-port="0" />
		<edge from-layer="1550" from-port="0" to-layer="1551" to-port="1" />
		<edge from-layer="1551" from-port="2" to-layer="1553" to-port="0" />
		<edge from-layer="1552" from-port="0" to-layer="1553" to-port="1" />
		<edge from-layer="1552" from-port="0" to-layer="1613" to-port="1" />
		<edge from-layer="1552" from-port="0" to-layer="1673" to-port="1" />
		<edge from-layer="1553" from-port="2" to-layer="1674" to-port="0" />
		<edge from-layer="1554" from-port="0" to-layer="1555" to-port="0" />
		<edge from-layer="1555" from-port="1" to-layer="1557" to-port="0" />
		<edge from-layer="1556" from-port="0" to-layer="1557" to-port="1" />
		<edge from-layer="1557" from-port="2" to-layer="1558" to-port="1" />
		<edge from-layer="1558" from-port="2" to-layer="1560" to-port="0" />
		<edge from-layer="1559" from-port="0" to-layer="1560" to-port="1" />
		<edge from-layer="1560" from-port="2" to-layer="1561" to-port="0" />
		<edge from-layer="1561" from-port="1" to-layer="1566" to-port="0" />
		<edge from-layer="1562" from-port="0" to-layer="1566" to-port="1" />
		<edge from-layer="1563" from-port="0" to-layer="1566" to-port="2" />
		<edge from-layer="1564" from-port="0" to-layer="1566" to-port="3" />
		<edge from-layer="1565" from-port="0" to-layer="1566" to-port="4" />
		<edge from-layer="1566" from-port="5" to-layer="1571" to-port="0" />
		<edge from-layer="1567" from-port="0" to-layer="1568" to-port="0" />
		<edge from-layer="1568" from-port="1" to-layer="1570" to-port="0" />
		<edge from-layer="1569" from-port="0" to-layer="1570" to-port="1" />
		<edge from-layer="1570" from-port="2" to-layer="1571" to-port="1" />
		<edge from-layer="1571" from-port="2" to-layer="1573" to-port="0" />
		<edge from-layer="1572" from-port="0" to-layer="1573" to-port="1" />
		<edge from-layer="1573" from-port="2" to-layer="1574" to-port="0" />
		<edge from-layer="1574" from-port="1" to-layer="1579" to-port="0" />
		<edge from-layer="1575" from-port="0" to-layer="1579" to-port="1" />
		<edge from-layer="1576" from-port="0" to-layer="1579" to-port="2" />
		<edge from-layer="1577" from-port="0" to-layer="1579" to-port="3" />
		<edge from-layer="1578" from-port="0" to-layer="1579" to-port="4" />
		<edge from-layer="1579" from-port="5" to-layer="1584" to-port="0" />
		<edge from-layer="1580" from-port="0" to-layer="1581" to-port="0" />
		<edge from-layer="1581" from-port="1" to-layer="1583" to-port="0" />
		<edge from-layer="1582" from-port="0" to-layer="1583" to-port="1" />
		<edge from-layer="1583" from-port="2" to-layer="1584" to-port="1" />
		<edge from-layer="1584" from-port="2" to-layer="1586" to-port="0" />
		<edge from-layer="1585" from-port="0" to-layer="1586" to-port="1" />
		<edge from-layer="1586" from-port="2" to-layer="1587" to-port="0" />
		<edge from-layer="1587" from-port="1" to-layer="1592" to-port="0" />
		<edge from-layer="1588" from-port="0" to-layer="1592" to-port="1" />
		<edge from-layer="1589" from-port="0" to-layer="1592" to-port="2" />
		<edge from-layer="1590" from-port="0" to-layer="1592" to-port="3" />
		<edge from-layer="1591" from-port="0" to-layer="1592" to-port="4" />
		<edge from-layer="1592" from-port="5" to-layer="1597" to-port="0" />
		<edge from-layer="1593" from-port="0" to-layer="1594" to-port="0" />
		<edge from-layer="1594" from-port="1" to-layer="1596" to-port="0" />
		<edge from-layer="1595" from-port="0" to-layer="1596" to-port="1" />
		<edge from-layer="1596" from-port="2" to-layer="1597" to-port="1" />
		<edge from-layer="1597" from-port="2" to-layer="1599" to-port="0" />
		<edge from-layer="1598" from-port="0" to-layer="1599" to-port="1" />
		<edge from-layer="1599" from-port="2" to-layer="1600" to-port="0" />
		<edge from-layer="1600" from-port="1" to-layer="1605" to-port="0" />
		<edge from-layer="1601" from-port="0" to-layer="1605" to-port="1" />
		<edge from-layer="1602" from-port="0" to-layer="1605" to-port="2" />
		<edge from-layer="1603" from-port="0" to-layer="1605" to-port="3" />
		<edge from-layer="1604" from-port="0" to-layer="1605" to-port="4" />
		<edge from-layer="1605" from-port="5" to-layer="1610" to-port="0" />
		<edge from-layer="1606" from-port="0" to-layer="1607" to-port="0" />
		<edge from-layer="1607" from-port="1" to-layer="1609" to-port="0" />
		<edge from-layer="1608" from-port="0" to-layer="1609" to-port="1" />
		<edge from-layer="1609" from-port="2" to-layer="1610" to-port="1" />
		<edge from-layer="1610" from-port="2" to-layer="1612" to-port="0" />
		<edge from-layer="1611" from-port="0" to-layer="1612" to-port="1" />
		<edge from-layer="1612" from-port="2" to-layer="1613" to-port="0" />
		<edge from-layer="1613" from-port="2" to-layer="1674" to-port="1" />
		<edge from-layer="1614" from-port="0" to-layer="1615" to-port="0" />
		<edge from-layer="1615" from-port="1" to-layer="1617" to-port="0" />
		<edge from-layer="1616" from-port="0" to-layer="1617" to-port="1" />
		<edge from-layer="1617" from-port="2" to-layer="1618" to-port="1" />
		<edge from-layer="1618" from-port="2" to-layer="1620" to-port="0" />
		<edge from-layer="1619" from-port="0" to-layer="1620" to-port="1" />
		<edge from-layer="1620" from-port="2" to-layer="1621" to-port="0" />
		<edge from-layer="1621" from-port="1" to-layer="1626" to-port="0" />
		<edge from-layer="1622" from-port="0" to-layer="1626" to-port="1" />
		<edge from-layer="1623" from-port="0" to-layer="1626" to-port="2" />
		<edge from-layer="1624" from-port="0" to-layer="1626" to-port="3" />
		<edge from-layer="1625" from-port="0" to-layer="1626" to-port="4" />
		<edge from-layer="1626" from-port="5" to-layer="1631" to-port="0" />
		<edge from-layer="1627" from-port="0" to-layer="1628" to-port="0" />
		<edge from-layer="1628" from-port="1" to-layer="1630" to-port="0" />
		<edge from-layer="1629" from-port="0" to-layer="1630" to-port="1" />
		<edge from-layer="1630" from-port="2" to-layer="1631" to-port="1" />
		<edge from-layer="1631" from-port="2" to-layer="1633" to-port="0" />
		<edge from-layer="1632" from-port="0" to-layer="1633" to-port="1" />
		<edge from-layer="1633" from-port="2" to-layer="1634" to-port="0" />
		<edge from-layer="1634" from-port="1" to-layer="1639" to-port="0" />
		<edge from-layer="1635" from-port="0" to-layer="1639" to-port="1" />
		<edge from-layer="1636" from-port="0" to-layer="1639" to-port="2" />
		<edge from-layer="1637" from-port="0" to-layer="1639" to-port="3" />
		<edge from-layer="1638" from-port="0" to-layer="1639" to-port="4" />
		<edge from-layer="1639" from-port="5" to-layer="1644" to-port="0" />
		<edge from-layer="1640" from-port="0" to-layer="1641" to-port="0" />
		<edge from-layer="1641" from-port="1" to-layer="1643" to-port="0" />
		<edge from-layer="1642" from-port="0" to-layer="1643" to-port="1" />
		<edge from-layer="1643" from-port="2" to-layer="1644" to-port="1" />
		<edge from-layer="1644" from-port="2" to-layer="1646" to-port="0" />
		<edge from-layer="1645" from-port="0" to-layer="1646" to-port="1" />
		<edge from-layer="1646" from-port="2" to-layer="1647" to-port="0" />
		<edge from-layer="1647" from-port="1" to-layer="1652" to-port="0" />
		<edge from-layer="1648" from-port="0" to-layer="1652" to-port="1" />
		<edge from-layer="1649" from-port="0" to-layer="1652" to-port="2" />
		<edge from-layer="1650" from-port="0" to-layer="1652" to-port="3" />
		<edge from-layer="1651" from-port="0" to-layer="1652" to-port="4" />
		<edge from-layer="1652" from-port="5" to-layer="1657" to-port="0" />
		<edge from-layer="1653" from-port="0" to-layer="1654" to-port="0" />
		<edge from-layer="1654" from-port="1" to-layer="1656" to-port="0" />
		<edge from-layer="1655" from-port="0" to-layer="1656" to-port="1" />
		<edge from-layer="1656" from-port="2" to-layer="1657" to-port="1" />
		<edge from-layer="1657" from-port="2" to-layer="1659" to-port="0" />
		<edge from-layer="1658" from-port="0" to-layer="1659" to-port="1" />
		<edge from-layer="1659" from-port="2" to-layer="1660" to-port="0" />
		<edge from-layer="1660" from-port="1" to-layer="1665" to-port="0" />
		<edge from-layer="1661" from-port="0" to-layer="1665" to-port="1" />
		<edge from-layer="1662" from-port="0" to-layer="1665" to-port="2" />
		<edge from-layer="1663" from-port="0" to-layer="1665" to-port="3" />
		<edge from-layer="1664" from-port="0" to-layer="1665" to-port="4" />
		<edge from-layer="1665" from-port="5" to-layer="1670" to-port="0" />
		<edge from-layer="1666" from-port="0" to-layer="1667" to-port="0" />
		<edge from-layer="1667" from-port="1" to-layer="1669" to-port="0" />
		<edge from-layer="1668" from-port="0" to-layer="1669" to-port="1" />
		<edge from-layer="1669" from-port="2" to-layer="1670" to-port="1" />
		<edge from-layer="1670" from-port="2" to-layer="1672" to-port="0" />
		<edge from-layer="1671" from-port="0" to-layer="1672" to-port="1" />
		<edge from-layer="1672" from-port="2" to-layer="1673" to-port="0" />
		<edge from-layer="1673" from-port="2" to-layer="1674" to-port="2" />
		<edge from-layer="1674" from-port="3" to-layer="1675" to-port="0" />
		<edge from-layer="1675" from-port="1" to-layer="1676" to-port="1" />
		<edge from-layer="1676" from-port="2" to-layer="1678" to-port="0" />
		<edge from-layer="1677" from-port="0" to-layer="1678" to-port="1" />
		<edge from-layer="1678" from-port="2" to-layer="1681" to-port="0" />
		<edge from-layer="1679" from-port="0" to-layer="1681" to-port="1" />
		<edge from-layer="1680" from-port="0" to-layer="1681" to-port="2" />
		<edge from-layer="1681" from-port="4" to-layer="1683" to-port="0" />
		<edge from-layer="1681" from-port="4" to-layer="1691" to-port="0" />
		<edge from-layer="1681" from-port="3" to-layer="1702" to-port="0" />
		<edge from-layer="1682" from-port="0" to-layer="1683" to-port="1" />
		<edge from-layer="1682" from-port="0" to-layer="1686" to-port="1" />
		<edge from-layer="1683" from-port="2" to-layer="1685" to-port="0" />
		<edge from-layer="1684" from-port="0" to-layer="1685" to-port="1" />
		<edge from-layer="1685" from-port="3" to-layer="1686" to-port="0" />
		<edge from-layer="1686" from-port="2" to-layer="1688" to-port="0" />
		<edge from-layer="1686" from-port="2" to-layer="1690" to-port="0" />
		<edge from-layer="1687" from-port="0" to-layer="1688" to-port="1" />
		<edge from-layer="1688" from-port="2" to-layer="1699" to-port="0" />
		<edge from-layer="1689" from-port="0" to-layer="1690" to-port="1" />
		<edge from-layer="1690" from-port="2" to-layer="1691" to-port="1" />
		<edge from-layer="1691" from-port="2" to-layer="1693" to-port="0" />
		<edge from-layer="1692" from-port="0" to-layer="1693" to-port="1" />
		<edge from-layer="1693" from-port="2" to-layer="1695" to-port="0" />
		<edge from-layer="1694" from-port="0" to-layer="1695" to-port="1" />
		<edge from-layer="1695" from-port="3" to-layer="1697" to-port="0" />
		<edge from-layer="1695" from-port="3" to-layer="1705" to-port="0" />
		<edge from-layer="1695" from-port="2" to-layer="1703" to-port="0" />
		<edge from-layer="1696" from-port="0" to-layer="1697" to-port="1" />
		<edge from-layer="1697" from-port="2" to-layer="1699" to-port="1" />
		<edge from-layer="1698" from-port="0" to-layer="1699" to-port="2" />
		<edge from-layer="1699" from-port="3" to-layer="1701" to-port="0" />
		<edge from-layer="1700" from-port="0" to-layer="1701" to-port="1" />
		<edge from-layer="1701" from-port="2" to-layer="1702" to-port="1" />
		<edge from-layer="1702" from-port="2" to-layer="1708" to-port="0" />
		<edge from-layer="1703" from-port="2" to-layer="1708" to-port="1" />
		<edge from-layer="1704" from-port="0" to-layer="1705" to-port="1" />
		<edge from-layer="1705" from-port="2" to-layer="1706" to-port="0" />
		<edge from-layer="1706" from-port="2" to-layer="1707" to-port="0" />
		<edge from-layer="1707" from-port="1" to-layer="1708" to-port="2" />
		<edge from-layer="1708" from-port="3" to-layer="1709" to-port="0" />
	</edges>
	<rt_info>
		<Runtime_version value="2025.4.0-20398-7a975177ff4-releases/2025/4" />
		<conversion_parameters>
			<input_model value="DIR\yolo26m_laptop.onnx" />
			<is_python_object value="False" />
		</conversion_parameters>
		<framework>
			<args value="{'batch': 1, 'half': False, 'dynamic': False, 'simplify': True, 'opset': None, 'nms': False}" />
			<author value="Ultralytics" />
			<batch value="1" />
			<channels value="3" />
			<date value="2026-04-20T01:03:15.606713" />
			<description value="Ultralytics YOLO26m model trained on E:\final_exam_test\handcraft\handcrafted\datasets\farukalam\tomato-leaf-diseases-detection-computer-vision\versions\all1\data.yaml" />
			<docs value="https://docs.ultralytics.com" />
			<end2end value="True" />
			<imgsz value="[640, 640]" />
			<license value="AGPL-3.0 License (https://ultralytics.com/license)" />
			<names value="{0: 'Bacterial Spot', 1: 'Early_Blight', 2: 'Healthy', 3: 'Late_blight', 4: 'Leaf Mold', 5: 'Target_Spot', 6: 'black spot', 7: 'Apple Scab Leaf', 8: 'Apple leaf', 9: 'Apple rust leaf', 10: 'Bell_pepper leaf spot', 11: 'Bell_pepper leaf', 12: 'Blueberry leaf', 13: 'Cherry leaf', 14: 'Corn Gray leaf spot', 15: 'Corn leaf blight', 16: 'Corn rust leaf', 17: 'Peach leaf', 18: 'Potato leaf early blight', 19: 'Potato leaf late blight', 20: 'Potato leaf', 21: 'Raspberry leaf', 22: 'Soyabean leaf', 23: 'Soybean leaf', 24: 'Squash Powdery mildew leaf', 25: 'Strawberry leaf', 26: 'Tomato Septoria leaf spot', 27: 'Tomato leaf mosaic virus', 28: 'Tomato leaf yellow virus', 29: 'Tomato leaf', 30: 'Tomato two spotted spider mites leaf', 31: 'grape leaf black rot', 32: 'grape leaf'}" />
			<stride value="32" />
			<task value="detect" />
			<version value="8.4.37" />
		</framework>
		<nncf>
			<friendly_names_were_updated value="True" />
			<quantization>
				<advanced_parameters value="{}" />
				<fast_bias_correction value="False" />
				<ignored_scope value="None" />
				<model_type value="None" />
				<preset value="performance" />
				<subset_size value="300" />
				<target_device value="ANY" />
			</quantization>
			<version value="2.19.0" />
		</nncf>
	</rt_info>
</net>
